models/classifier_deep.pth (torch, 15716 bytes, 9 tensors)

network.0.weight f4 [64, 4]
00000000: 111a 413e 9eaa 4c3e 90b5 0b3e d95c 483e
00000010: 650a 353e 34a8 b43d 41dc 79be 9e6a 00be
00000020: a569 23be 0860 3abe b5bf 76bb f80d 0cbe
00000030: 1c38 bc88 53d7 c188 c3ec b608 724b b608
00000040: ed3d 8cbd 63b4 f0bd af13 aabc a228 0e3f
00000050: 77fa 41bd 5c94 84bd f307 2dbe e629 29be
00000060: 13bd 553e df83 f73d 139a d2bd 5b43 94bc
00000070: 96c7 8ebe d44a 81bd 2102 943d 9d2a fbbd
00000080: 26b9 493e 1787 2c3e c066 86bd fae7 e33e
00000090: fe29 29be 456f d4bd c5db 9c3e b82e 923e
000000a0: 2b6f 55be b855 b0bd ad6a 8ebd 8c5b b2bd
000000b0: 3e60 aebe eb94 0cbe 6ee7 c0bd c8da 8f3e
000000c0: 9efb d9bd 90bd 9a3c c0fc 3abe 1c4e 273f
000000d0: b541 a4bd 168d b8bd de6a 94bd be62 0cbe
000000e0: 98ce 64be e3b5 61bc 1719 96bd 5dfd 28be
000000f0: b8b4 12bc 308f 2fbe 2dd3 863e 8e0d bb3e
00000100: c0aa 9ebe b335 40bd 59b9 debb 5656 073c
00000110: 846e d7bc de8d 243d a3d3 373e f7bd aabd
00000120: 5bea 81be b361 84bd 969d 8abd e477 7abd
00000130: dc25 de3e 88d2 8dbd 9a1e bfbd a641 f7bc
00000140: b5d0 97be 5857 8ebb e408 dd3e c4a9 8a3c
00000150: 998e 7bbc 7c50 e43d bde8 adbe 955e 023f
00000160: 0fbc b23e 921b 433c 8b23 1a3e ab5d 193e
00000170: 82cd 443e 737f 4e3e de52 803d 3527 0a3c
00000180: c2a2 ccbe f5ed 47be fd15 3dbd f440 8ebd
00000190: 6cfc b73e c3a2 313e f5db e13d 3508 303e
000001a0: 5d40 a33d 6192 02be a5ba 223e 0f7f ae3e
000001b0: b5cd d33e d2f3 113e 16b4 073e c65e 233e
000001c0: 29b9 c088 edca be88 477a b888 c5a3 b188
000001d0: fb6c 933b 0954 b53d 9ddb b63e d69c 53be
000001e0: 5cc1 2bbd 98d1 463a 36b6 603e d6ff ac3e
000001f0: d382 223d 481a ae3e 93fb 1abe 9260 62bd
00000200: 6baa 3dbf f377 9abe 16a3 563e 8260 ce3e
00000210: b0b9 7e3d e439 233e 9617 a5be 3354 a2be
00000220: 3f45 a03e 3048 523e 8bac 93bc e668 e6bd
00000230: 70ab 75be 7cf3 5cbd f479 3dbd c20d 65bd
00000240: 4a01 b588 072a c188 2f8c bf88 f875 b888
00000250: 6727 ab3d fa8a 253d 11ab a83d ce9d 323e
00000260: 1093 2d3e 7b56 903e a446 37bb cad4 22bd
00000270: 4e2f 323e d85d 0f3e b437 c0bd 8ea9 c03d
00000280: 34da 42bf 1edd 0fbe 557d d53d f564 153e
00000290: a3b0 01be 3098 023e 38d2 f9bd d019 8fbd
000002a0: 9cab 523d f508 ee3d 7acf a13e 9741 24be
000002b0: 3cf4 14be 0bdc 50be fd1e b53d a88d ea3e
000002c0: 52bd 593e 6061 ca3d f01c 293e bfe3 103e
000002d0: ba9d c5be d3a1 e2bd cf29 053f d0e5 aa3e
000002e0: 701a 793e 47b1 cd3d a6ab 3e3e 6599 c13d
000002f0: f221 08be a666 2cbd 6171 0abe c3d7 063f
00000300: a874 8d3e 2a3d 8fbe 73c9 c83e f34e 87bb
00000310: 5323 fd3d 78e1 1d3c 692e d33e a9d3 d1be
00000320: d16d 9c3e 32ef cbbd 32d5 243d b53a 1e3e
00000330: 2ec0 06be 0146 85ba dd4b 26be 3a9b 2ebe
00000340: 2e11 173e 7f39 743d 30f6 85be 7e40 553c
00000350: fe6e 7bbe 21b4 84bd 5402 8cbd 3cc7 99bd
00000360: e1fe 8e3e ee5c 6a3d fd11 db3b a07e ac3b
00000370: 68dd 193e 4f6f 143e b36b c53e ff51 82be
00000380: 9d7a 763e 8990 b23d f6c0 79be cc3e bc3e
00000390: 9ed9 1d3e ed3b a73e 8d32 873c 7f1c 1d3e
000003a0: 1cef be3e d296 e63d ea7b 72be 251f e23c
000003b0: 5525 d0bd 6415 1b3b 9296 2bbe ce5a e73e
000003c0: 767e 67be fb35 a3bd 216f 86bd 63d0 abbd
000003d0: 4a36 b988 b9fc bf88 b5c6 bb88 a601 c188
000003e0: 3fda ba08 ca6a b188 0c47 c188 9577 c288
000003f0: 566b b088 4c49 b488 a736 b388 f1b2 b488
0.188576 0.1998696 0.1364348 0.19566669 0.17679746 0.08821145 -0.24400426 -0.12540671
-0.15958269 -0.18200696 -0.0037650887 -0.13677204 -1.132803e-33 -1.1666387e-33 1.1009389e-33 1.0971464e-33
-0.06847749 -0.11753156 -0.020761339 0.5553075 -0.047358003 -0.0647361 -0.16897564 -0.16519889
0.20872907 0.12085699 -0.102832936 -0.018098524 -0.27886647 -0.063131005 0.072269686 -0.12263987
0.19699535 0.16848408 -0.06562567 0.44512922 -0.16519925 -0.103727855 0.3063642 0.2855127
-0.20843188 -0.086100996 -0.069539405 -0.087088674 -0.34057802 -0.13728683 -0.09419142 0.28096604
-0.10643695 0.018889219 -0.18260479 0.6535356 -0.08020345 -0.09011285 -0.07246946 -0.13709542
-0.22344434 -0.013776275 -0.07329004 -0.165029 -0.0089542195 -0.17144465 0.2633299 0.3653378
-0.30989647 -0.04692621 -0.0067969975 0.00826033 -0.026297815 0.040174358 0.17951827 -0.08337014
-0.25374112 -0.06463947 -0.067683384 -0.061149493 0.4338826 -0.06924921 -0.09332009 -0.03018267
-0.29651418 -0.0043439083 0.43170846 0.016926654 -0.015353822 0.11148164 -0.33966628 0.5092557
0.34909102 0.011908429 0.15052621 0.14977138 0.1921902 0.20165806 0.06265806 0.008432199
-0.39967924 -0.19524367 -0.046163548 -0.069459826 0.3593477 0.17347245 0.110282816 0.1719063
0.07971261 -0.12751152 0.15891512 0.34081313 0.4136788 0.14253166 0.13252291 0.15954122
-1.1599111e-33 -1.1482917e-33 -1.1102844e-33 -1.0691302e-33 0.0044990755 0.08853919 0.35714427 -0.20665297
-0.04193245 0.00075843325 0.21944508 0.33788937 0.039675545 0.34004426 -0.1513503 -0.055267878
-0.7408816 -0.3016964 0.2096065 0.40308005 0.062188804 0.15940052 -0.32244557 -0.31704864
0.3130283 0.2053535 -0.01802661 -0.112504765 -0.2399118 -0.053943142 -0.04625888 -0.055921324
-1.0893844e-33 -1.1625646e-33 -1.1528351e-33 -1.11018315e-33 0.08357125 0.04041574 0.08235753 0.1744301
0.16950631 0.2819098 -0.002796569 -0.039753713 0.17400858 0.14000642 -0.093856245 0.0940734
-0.761142 -0.14049193 0.10424296 0.14589293 -0.12665038 0.12753367 -0.12198299 -0.06987345
0.05143319 0.11622802 0.31603605 -0.16040646 -0.14546293 -0.2039644 0.08843801 0.458112
0.21263626 0.09881854 0.16514945 0.14149378 -0.38596898 -0.11066022 0.5201692 0.33378458
0.24326491 0.100435786 0.18620166 0.09453086 -0.13294199 -0.04209008 -0.13519813 0.52672976
0.27628064 -0.27976352 0.39216194 -0.0041292845 0.12360253 0.0096362755 0.41246346 -0.40981796
0.30552533 -0.09957732 0.04024238 0.15452082 -0.13159248 -0.0010167958 -0.16239877 -0.17051402
0.14752647 0.059625145 -0.2616439 0.013015864 -0.24554059 -0.06479669 -0.068363816 -0.07508704
0.27928832 0.05721753 0.006685494 0.0052641183 0.15025866 0.14495586 0.3855873 -0.25453183
0.24070211 0.08718974 -0.24390015 0.3676666 0.15415046 0.32662907 0.016503597 0.15342902
0.372918 0.112592354 -0.23680082 0.027602741 -0.101633705 0.0023663873 -0.16756657 0.45186466
-0.22606835 -0.0796928 -0.06564165 -0.08389356 -1.1147046e-33 -1.1554809e-33 -1.1301369e-33 -1.16161525e-33
1.1245777e-33 -1.0677906e-33 -1.1632468e-33 -1.1704064e-33 -1.0617849e-33 -1.0850588e-33 -1.0786019e-33 -1.0875425e-33

network.0.bias f4 [64]
00000000: c737 43be 81ba 5a3d 3262 3c3e 1830 c088
00000010: d5ae fabd ade9 203e 73e6 a2bd 6315 353e
00000020: c7b9 19be 08b3 8fbd 532c 5c3e 50e6 b0bb
00000030: 43a2 13be 7af5 163e a1ea 5a3e 762c ccbd
00000040: 94cb 623e f8fa 09bd 4b0a 6d3e 9404 68bd
00000050: 35b6 10bd fae7 0abe 693d 44be 0d8a 33be
00000060: 645c 553e cecb 5ebe 690e cabd 4212 6fbe
00000070: 5097 b288 7b49 8ebd 419a c6bd f286 7d3c
00000080: dd8a 94bd f1aa e93d 3340 09be 246f 543e
00000090: 0000 0000 0f0f 68bd f905 05be fdcb c5bd
000000a0: 9a1c 1d3e 5017 f13d 6354 e3bd 6a76 ddbd
000000b0: ee35 14be 9312 98bd acc5 19be bda6 c3bd
000000c0: d016 40be 98cc 5ebd 64a0 44be c95b 383e
000000d0: 28db 803d bb18 6b3e ccde 2bbe 5e9d efbd
000000e0: 56cc f1bd 1436 2dbe 14fc cfbd 37f0 a3bd
000000f0: f65f 613e 0000 0000 9056 bc88 0000 0000
-0.19064246 0.05340052 0.18396834 -1.1566886e-33 -0.12240378 0.1571414 -0.07954111 0.1768394
-0.15012275 -0.070165694 0.21501283 -0.005398549 -0.14417367 0.1474208 0.21378566 -0.09969418
0.22147971 -0.033686608 0.23148458 -0.05664499 -0.035330016 -0.13565055 -0.19164051 -0.17533131
0.20836025 -0.21757433 -0.0986603 -0.23346809 -1.0748559e-33 -0.06947609 -0.0969739 0.015474068
-0.072530486 0.114095576 -0.13403396 0.20745522 0.0 -0.056654986 -0.1299056 -0.09658048
0.15342942 0.11772025 -0.1110008 -0.10813601 -0.14473698 -0.07425418 -0.15016812 -0.09553287
-0.18758702 -0.054394335 -0.19201809 0.18003763 0.06291801 0.22958653 -0.16784209 -0.11699937
-0.11806552 -0.1691516 -0.10155502 -0.08004802 0.22009262 0.0 -1.1335189e-33 0.0

network.3.weight f4 [32, 64]
00000000: 83ad cc3d bfa2 8f3c e4c4 963c b823 b808
00000010: e902 d83e 11e7 7dbd f89c 1e3e dd13 423e
00000020: 82ea c8bd e231 cc3e 81a0 aa3d 8514 913e
00000030: 0322 ef3e 71d0 8abd f3fd c1bd d806 b13e
00000040: c205 f83c cef7 b93e 8cdf 233d 7c17 c93d
00000050: 4d4f 023f 64e5 1e3f 5155 323e 8be7 2ebe
00000060: adba bfbd d2fb a43e 224e e63d 2acb 873e
00000070: 8c09 ba88 a530 013f d69d 973e 5308 843d
00000080: db40 d53d aaed 44be 18f1 ce3d 14f6 703b
00000090: a1c4 bd88 5cb0 1b3e 1c23 363e 3d7e f7bc
000000a0: 9012 06be e485 103d ca72 cd3e 5315 ce3e
000000b0: e1c4 ac3e c0b2 d53e 2b44 373e 79bd ee3e
000000c0: 6a8c d13e daef eb3e d93e 5fba 7e20 62be
000000d0: 1806 e1ba aac6 86bd 3570 10be 1540 173f
000000e0: 443b 7e3e 5a2f 69be d55f 323d a0d3 e83e
000000f0: 8458 903c 0f3f b708 c5b6 bf88 579d b388
00000100: 9b3a 573e 6788 043e 8360 ffbd a8d4 bd08
00000110: ad19 f83e 4124 d33c 3af0 f33e 1273 79bd
00000120: 685e dc3e ae74 173e 7f6d 9e3c eeea aa3d
00000130: 5c3c e33e 548e 463c bee6 fabd 04f3 803e
00000140: 4403 e63d b746 d23c 0e92 513e f889 67bc
00000150: a955 c83d f414 5d3f 423d 0e3e 1599 88be
00000160: 843d d2bc c32a de3e 34f9 813e 082e a43e
00000170: 3169 ba88 a891 253e e851 f13d 1320 413e
00000180: ab20 113f ea71 b8be 2693 6c3e 5444 65be
00000190: 810b be08 e8ed 5d3e 0764 803e bcf5 213e
000001a0: 3c78 cebc 44ee 12bd 0891 883e 3fe3 f23e
000001b0: 8fac 263e 442b 9a3e 30a5 643e 784e 813e
000001c0: 4fb0 6a3e acab bd3e 7c96 f4bc 3d9c b4bd
000001d0: 0ed7 46bc f170 463d c036 c6bd 8700 753e
000001e0: 6423 023f 6eb8 6dbd 15c2 083e 1456 0a3f
000001f0: 09cd 5a3d 4521 ba08 e75e bd88 d476 b508
00000200: cf10 0dbf a131 813e 48d4 913d 4c99 bf88
00000210: 3fdf 6bbf e781 4c3d bddc c3be 6959 c03d
00000220: f890 e2be d110 32bf bf42 123e 50ea 55be
00000230: 177a 8bbf 6fae 333e 379c f33d 133c e4be
00000240: d37a 223e 690a 2abf 61f9 c23d 8b17 57bd
00000250: ff06 8dbe 0236 83bf f0cb 26bf a31d d2bc
00000260: b099 86bc 3820 62bf a90a 7bbe 9ac3 51bf
00000270: 8a13 b708 36c0 4cbf 115f dfbe ecd1 23be
00000280: 1aff 44bf 3437 803e 834e 38bf 6612 ef3d
00000290: 0a9a bf08 9986 a5be 0418 41be 34b9 c0be
000002a0: 7c50 823c abab ba3a 52c9 6abf 0bbc 2fbf
000002b0: f43f f0be c162 cabe 43a6 4ebf 0cae f2be
000002c0: c58a 1fbf da40 3ebf 5593 9dbe ca2e 8d3d
000002d0: eac0 3f3d 140a dcba bf84 46bf 5e7e 17bf
000002e0: 47eb f5be dfc7 96be 266a b5bd 8a6c 09bf
000002f0: 6933 073e 6060 b208 f50f b788 2dc2 b288
00000300: fb8d ba3e 0d63 a8bd cda6 39bd e969 b488
00000310: 655a 7a3e d29f d4be 81fd 94bd 198a 00bc
00000320: f877 353d a44b 183e ffa0 cdbe ffc0 70be
00000330: de18 873e 0617 0abf 1d8b c8be 0e68 b13d
00000340: ed28 683d a4c0 b73e 993a 01be 3137 383e
00000350: 6e79 9e3e ce1a 943e 69f9 3a3e 1aa2 5d3e
00000360: 9e46 16bf 10cb a13d 7369 2d3e 9578 053e
00000370: 3f98 b788 6435 ca3e fe18 0b3e bb12 b4bd
00000380: 0275 a4be 14f1 dcbe 989f 1ebe 73f2 0dbe
00000390: eec7 b808 3010 913d 7383 cabd 34c4 003d
000003a0: 119a 0dbf a333 7abe dbc2 bd3e 35cc 4f3d
000003b0: b8e8 603e 3ad1 6e3e c19a 943c 1808 c33e
000003c0: 9410 803e bce5 9b3e cc2a ee3e 3e6f 5dbf
000003d0: 1392 a0be 6dde c8bc 1852 be3e 0b70 013d
000003e0: e5d5 80bd e0fc 953e 42e6 2bbd 1d00 5d3e
000003f0: 4091 2fbe ff96 ba88 2632 c108 bc6f bb88
0.09994032 0.017533658 0.018404432 1.1082495e-33 0.4218972 -0.06198794 0.15489566 0.1895289
-0.09810354 0.39881808 0.08331395 0.28335968 0.46705636 -0.06778038 -0.09472265 0.34575534
0.030276183 0.36321872 0.040008113 0.098189324 0.50902253 0.6206877 0.17415358 -0.17080514
-0.093617775 0.32223374 0.112453714 0.2652219 -1.1196712e-33 0.5046485 0.29612607 0.064469
0.10412761 -0.19231287 0.10104579 0.0036767768 -1.1421251e-33 0.15203995 0.1778683 -0.030211562
-0.13093019 0.035283938 0.4012664 0.40250644 0.33743957 0.41737938 0.17897098 0.4662893
0.4092744 0.4608143 -0.000851614 -0.22082707 -0.0017167954 -0.06580861 -0.14105304 0.59082156
0.24827296 -0.2277197 0.043548424 0.45473957 0.017620333 1.1028737e-33 -1.1538363e-33 -1.0810161e-33
0.2101845 0.12942658 -0.1246958 1.1425019e-33 0.4845709 0.025774123 0.47644216 -0.060900755
0.43040776 0.14790604 0.019339321 0.083455905 0.44381988 0.012118895 -0.12251042 0.25185406
0.112310916 0.025668485 0.20465872 -0.014132015 0.097819634 0.86360097 0.13890556 -0.26679292
-0.025664099 0.43392 0.2538544 0.3206637 -1.1219198e-33 0.16168845 0.117832005 0.18859892
0.5669047 -0.3602441 0.23103008 -0.22389346 1.1437914e-33 0.21672785 0.25076315 0.15816396
-0.025203817 -0.03587176 0.2667315 0.47439 0.16276763 0.30111134 0.22328639 0.2525518
0.22918819 0.37045038 -0.029856913 -0.088188626 -0.012136234 0.048447553 -0.096784115 0.23925982
0.5083525 -0.058037214 0.13355286 0.54037595 0.053418193 1.1202289e-33 -1.1397335e-33 1.0921478e-33
-0.5510377 0.25233176 0.071205676 -1.1531434e-33 -0.9213752 0.049928572 -0.38254347 0.09392054
-0.44251227 -0.6955691 0.14283274 -0.20890164 -1.0896634 0.1754701 0.1189503 -0.44577083
0.15867166 -0.66422135 0.095202215 -0.052512687 -0.275444 -1.0250857 -0.65154934 -0.025648898
-0.016430706 -0.8833041 -0.24515785 -0.8193909 1.10185055e-33 -0.7998079 -0.43627217 -0.15998048
-0.76951754 0.25042117 -0.719948 0.11673431 1.1531609e-33 -0.32329252 -0.18856817 -0.376413
0.015907519 0.0014241835 -0.9171344 -0.68646306 -0.46923792 -0.39528468 -0.80722445 -0.47398412
-0.6232112 -0.74317706 -0.30776468 0.0689369 0.046814837 -0.0016787671 -0.77546304 -0.59177196
-0.48031065 -0.29449365 -0.08858137 -0.5368124 0.13203205 1.0735643e-33 -1.1017663e-33 -1.0758636e-33
0.36436448 -0.082220174 -0.04532509 -1.0858255e-33 0.24448545 -0.41528183 -0.072749145 -0.007845425
0.044303864 0.14872605 -0.40161893 -0.23511122 0.2638616 -0.5394138 -0.39168635 0.08662425
0.056679655 0.3588916 -0.1262001 0.17989804 0.30952018 0.289267 0.18259205 0.21643868
-0.58701503 0.07900059 0.16934757 0.1303428 -1.1049705e-33 0.3949386 0.13583753 -0.08792635
-0.3212052 -0.43152678 -0.15490568 -0.13862018 1.11211e-33 0.07083166 -0.09888353 0.031437114
-0.5531321 -0.2443376 0.37062725 0.050731856 0.21963775 0.23322001 0.018140199 0.38092113
0.25012648 0.3044871 0.46517026 -0.8649787 -0.31361446 -0.024520123 0.37172008 0.031600993
-0.06290797 0.2929449 -0.041967638 0.21582074 -0.17145252 -1.1229967e-33 1.1627555e-33 -1.1280922e-33

network.3.bias f4 [32]
00000000: e7bf 2dbc d443 d9bc d848 023e b245 bfbd
00000010: 8e37 2e3e 895b 1cbe b8fc e23a 99c1 8dbd
00000020: 0e9f 833d 5648 eabc eea4 373e 5a63 06be
00000030: 6a71 403e e2aa a43c 209d f03d 13b6 4fbd
00000040: 4d84 f4bd 25d2 063e 2ece d83a b4db 973d
00000050: 0162 edbc 67da 523e 3697 b1bd aedc 9dbd
00000060: b9cc 123e 9800 4a3e 6d5c 0ebe c02e 983d
00000070: 494a 733d 3341 18bd b627 0dbe 3975 b988
-0.010604835 -0.0265216 0.127231 -0.09339465 0.1701338 -0.15269293 0.0017317748 -0.069216914
0.06426822 -0.028598946 0.1793401 -0.13123837 0.18793264 0.020101015 0.11748719 -0.05071075
-0.11939297 0.13166101 0.0016540939 0.07414952 -0.028977396 0.20591126 -0.08671419 -0.07708107
0.14335908 0.19726789 -0.13902445 0.07430792 0.059397016 -0.037171554 -0.1378468 -1.1161841e-33

network.6.weight f4 [16, 32]
00000000: 12dd c7bc 5c3d 273e 205f aa3f 2aae 82be
00000010: a21e 3a3e 2f13 0abf daa5 483e 8004 d7bd
00000020: 742f 5c3f 3dfb 1e3f 4cb6 4b3f b2fc f43e
00000030: dc5a 2f3f 4b5d 97bd b186 803f 62eb 86be
00000040: 7ac8 f9be df25 18be ecba 0d3d 155f 293f
00000050: e180 a33e a683 813f 8d70 1fbe 8c53 10bf
00000060: 7ad9 383f e9fe 883f 87d2 22bf cd5e e73e
00000070: dbfd 55bd a319 09be 1d7e d9be e8ea bc08
00000080: 60b0 b93a 8674 2bbe cf06 653f 77c5 26bf
00000090: 8117 4b3f 3ed7 5ebf 854f 95be 910e 8c3d
000000a0: 51b7 8e3f 4868 6b3f d508 363e 6e07 1c3f
000000b0: 9f8d a33f 969c 2cbd 261f 523f 7d5f 47be
000000c0: 9011 5a3e 57b0 303f 63ad 4dbe d96a 113f
000000d0: 4bbe 053e 24ab 80bc 0a80 c53d b9d7 22bf
000000e0: 5abd a43e ecc9 393d 5057 26be 49b0 033e
000000f0: 45f3 f83d 86e5 eebd 8195 36be 8f60 bb08
00000100: 6e31 543f 7d0d 553f 6790 3cbf 2c2e 8c3f
00000110: 1ea6 7abc c302 e33e 1949 6e3f 9139 0b3f
00000120: c3cb 2abe 1aec d4bb 50d8 8bba c149 403e
00000130: d779 9ebd fac7 623f ae5d 39bf 4942 6a3f
00000140: 9390 e83e 0af9 cabd a906 4a3f 2cee 683e
00000150: d97d 693f 2b40 90bd f299 253f 6877 ee3e
00000160: 81d6 b2bd 65b2 e1bc 93ad 053f d4ad d63e
00000170: fc0c b23d 99f3 813f fe40 b53e 10e3 b788
00000180: 89ba 863f 9644 083f c788 4fbf 912b a43f
00000190: 84b9 7bbd 5fff 573f 694b 463f bfe2 233f
000001a0: 1263 9bbd 74c6 9d3a d755 d5bd 35fc 923e
000001b0: aaae 3abe 8478 4d3f fe29 0dbf 4776 823f
000001c0: 9c72 533e 0ffe 7b3e 1a4b 413f a2f1 8bbd
000001d0: a0fe f13e b497 a03d 5a26 ac3e a10f 013f
000001e0: 232a c5bd 119e a63d e3f0 833e 55aa 493d
000001f0: 1f54 aa3c 3156 733f 1bf5 b33e a52b b408
00000200: 488e 8bbe f7c1 ac3d d3ee c73f 34d7 adbe
00000210: 9ff8 9a3f 381f 38bf 0e2f 89bd 513c cabd
00000220: 89f5 c33f 30da 683f 72c5 1c3f 6c4e c43e
00000230: 6d7a 683f a244 99be 5c6e cb3f c641 debe
00000240: 0798 41be 790b 7c3e ed82 2abe 2bed 273f
00000250: 89b8 b13c 9396 e53e 60cc 06be f1f9 18bf
00000260: d658 e33d 0faf ac3e 6eaf 34bf 1b39 cebd
00000270: 542e 9b3d 5f64 efbd 20c2 bcbe 729a bb08
00000280: 7f79 1fbc 0173 6a3e fd40 1d3e a0de 0d3e
00000290: 70c2 d83e 1cc2 f63e 0aa8 283e a3ef 7bbd
000002a0: 412d 61be 8d42 a3be d685 6ebe 1a61 71bd
000002b0: 0a5e 0c3f abba 233d 248b 133e 37a1 1bbe
000002c0: 5266 2d3f 609f 5c3d 159a 863c 62eb 0dbd
000002d0: ae02 17bf 75ff e7be e7d5 263f 114a bd3e
000002e0: 4d26 30bf e3bc 24bf 2ed7 173f a741 ecbe
000002f0: 4c19 b63e 9c4f c43d 0b5e 073f 9aa7 c288
00000300: 39a0 7bbd 8d48 a13c f211 b83f 5796 2dbf
00000310: 55a8 5e3f f9ee 40bf d182 8bbe 159f 593e
00000320: baf0 af3f 4237 2f3f f156 1e3e 3c91 da3e
00000330: 04e1 923f d30f d3be e72e 9e3f 3ff6 cabe
00000340: 675b c2bc c3b7 d83e de5b 2abe 860e 1a3f
00000350: 7363 47be 6061 a33e e523 533e 8ffe 3bbf
00000360: f532 a83e 938c 943e e767 b2be 618b d4bd
00000370: d79d c33e bd1f 32be 1523 cfbe e1b4 b988
00000380: 58a9 523e 5e0d e63d 7194 a8bf 6ad2 7dbe
00000390: 6192 52be ada7 04bf 3456 ed3c f360 913f
000003a0: 35c3 d7be ac94 0abf 8b43 853e 054f 343e
000003b0: 2d96 c1bd c754 bebb ddf8 93bf 611b debd
000003c0: fe72 06bf d07c 0fbd f05c 293e 15c2 79bd
000003d0: 05cf 893f 3888 963e 3702 1ebe 2732 3fbf
000003e0: 9c99 9d3d 1eac b23d 4bb3 5cbf f898 673e
000003f0: 6871 b83d 9eac 8b3e 215c 3abf e01f b288
-0.024397407 0.16332 1.331028 -0.25523502 0.18175748 -0.5393552 0.19594517 -0.10498905
0.8600991 0.6210211 0.7957504 0.4784904 0.68498015 -0.07390841 1.0041105 -0.26351458
-0.48785764 -0.14858197 0.03460209 0.6616071 0.31934264 1.0118301 -0.15570278 -0.5637748
0.7220684 1.0702792 -0.6360249 0.45189515 -0.05224405 -0.13388686 -0.4247903 1.1370065e-33
0.0014166944 -0.16743669 0.89463514 -0.6514506 0.7933274 -0.87047184 -0.2916223 0.06838716
1.1149694 0.91955996 0.17776807 0.60948837 1.2777594 -0.04214152 0.8207878 -0.1947002
0.21295762 0.69019073 -0.20085673 0.5680366 0.13060872 -0.015706606 0.09643562 -0.63610417
0.32175714 0.045358583 -0.16244245 0.12860216 0.12155775 -0.11664872 -0.17830469 1.1277354e-33
0.82887924 0.83223706 -0.7365784 1.095159 -0.0152983945 0.44338045 0.9308029 0.54384714
-0.16679291 -0.006497872 -0.0010669325 0.18778135 -0.07738083 0.8858639 -0.7240857 0.91507393
0.454228 -0.09910782 0.7891641 0.22747105 0.91207653 -0.07043489 0.64688027 0.46575475
-0.087323196 -0.027550885 0.5221798 0.41929495 0.08693883 1.0152465 0.35401148 -1.1067294e-33
1.0525676 0.53229654 -0.8106808 1.2825795 -0.06145622 0.8437404 0.77458817 0.6401786
-0.075872555 0.0012037293 -0.10416763 0.28708044 -0.18230692 0.8026202 -0.551422 1.0192345
0.20649189 0.24608634 0.7550522 -0.06833197 0.47264576 0.07841435 0.3362301 0.5041447
-0.096271776 0.081356175 0.2576972 0.049234707 0.020792065 0.9505339 0.35147938 1.0843617e-33
-0.2725699 0.08435433 1.5619758 -0.3395325 1.2107123 -0.71922636 -0.06698428 -0.09874786
1.5309306 0.9095793 0.6123878 0.3834108 0.90811807 -0.29935175 1.5893054 -0.43409556
-0.1890565 0.24613751 -0.16651507 0.65596265 0.021694439 0.44841442 -0.131639 -0.5975638
0.111009285 0.3372731 -0.70580184 -0.10069486 0.07577196 -0.11689066 -0.36866856 1.1290963e-33
-0.009733557 0.22895433 0.15356822 0.13854456 0.42335844 0.4819497 0.16470352 -0.061507832
-0.21989919 -0.31886712 -0.23293242 -0.058930494 0.5483099 0.039972942 0.14408547 -0.15198217
0.67734253 0.05386293 0.016430894 -0.034648307 -0.58988464 -0.45312086 0.6517014 0.3697057
-0.6880844 -0.6435072 0.59312713 -0.4614384 0.35566175 0.09585497 0.52877873 -1.1715353e-33
-0.061432097 0.019687915 1.4380476 -0.67807525 0.86975604 -0.75364643 -0.27248242 0.21252091
1.3745339 0.6844369 0.15462853 0.4268893 1.1474919 -0.4122301 1.2358063 -0.39640996
-0.023725225 0.423277 -0.16636607 0.6017841 -0.1947153 0.3191023 0.20619161 -0.734353
0.32851377 0.290135 -0.34844896 -0.10378147 0.3820636 -0.1739492 -0.40456453 -1.1176807e-33
0.20572412 0.11233018 -1.3170301 -0.24787298 -0.20563652 -0.5181835 0.028971769 1.1357712
-0.4214112 -0.54133105 0.26028094 0.17608269 -0.09452472 -0.005808446 -1.1560322 -0.10845066
-0.52519214 -0.03503114 0.16539359 -0.060976107 1.0766302 0.29400802 -0.15430532 -0.746859
0.07695314 0.08724235 -0.8621108 0.22616947 0.090060055 0.27280134 -0.7279683 -1.0720479e-33

network.6.bias f4 [16]
00000000: c44a 9e3e 5ed0 cd3d a342 e53d 0376 c93d
00000010: 1764 653e 8ffd 8bbd 4de2 d13d fde5 6a3e
00000020: 1b43 dc3d a38f b0bd 0872 c0bd 7c1e 253e
00000030: 1ffc 233e e628 043e 464f 6c3e ea2d 193e
0.30916417 0.100495085 0.111943506 0.09836962 0.22401462 -0.06835472 0.102482416 0.22939296
0.10754987 -0.086211465 -0.0939675 0.1612491 0.16014145 0.12906227 0.23077115 0.14958921

network.9.weight f4 [4, 16]
00000000: 95e3 d43e a35a fd3e 28b6 b4bf 2f70 b7bf
00000010: d68e 853e 1bd8 06bf c38f da3e e648 afbf
00000020: 5b4a 62bf 1d72 9bbe ae0a 56bf 57ed 87bf
00000030: f3c9 983f 165b be3e f278 c13e aa23 c6bf
00000040: bd02 b63e 8f63 bf3e e4dd 593e e822 223e
00000050: 029a 2f3e 8703 1dbd cd13 a03e 8979 123e
00000060: 7bc4 b0bd afeb 763e 2242 cb3e def3 b23e
00000070: 6b9a 75bf 1e24 39bd 4fff 823e 5dfb eebe
00000080: 95e6 8b3e d1aa 94bf 3dee c23e 6fc2 ad3e
00000090: 4854 f5be 8b68 51bf 0442 55bf eea5 b43e
000000a0: 2ea3 a53d fcf6 8cbf c3bd a2bf 48e3 1f3f
000000b0: 6098 c2bf 1f10 e0bf ee7c ac3e 81e5 273f
000000c0: 0aaa b1bf e246 09bf 5f44 d73e e88a c73e
000000d0: 0f54 a0bf 6361 573f 947f 3fbf 2964 5fbf
000000e0: d88b 083f 35ee ef3e c64c 16bf bd47 64bf
000000f0: d9a9 a7be 2285 b23e acbc cebf ca9d 113f
0.4157988 0.49483213 -1.411809 -1.4331111 0.26085538 -0.526735 0.42687806 -1.3694122
-0.8839471 -0.303605 -0.83610046 -1.0619305 1.193663 0.37178868 0.37787586 -1.5479634
0.35548964 0.37380645 0.21276051 0.15833628 0.17148593 -0.038333442 0.31265107 0.14304174
-0.08631226 0.24113344 0.39698893 0.3495168 -0.9593875 -0.04520046 0.2558541 -0.4667615
0.27324358 -1.1614629 0.38072386 0.33937404 -0.47915864 -0.81800145 -0.83303857 0.35282844
0.08087765 -1.1012874 -1.2714161 0.6245618 -1.5202751 -1.750492 0.33689064 0.6558457
-1.3880017 -0.53623784 0.4204435 0.38973165 -1.2525653 0.84132975 -0.74804044 -0.8726221
0.53338385 0.46861425 -0.58710897 -0.89171964 -0.3274677 0.34867197 -1.6151328 0.5688139

network.9.bias f4 [4]
00000000: 43ea c63c 488a 9fbe 2f13 493e 011e 923c
0.024281627 -0.31160188 0.19636224 0.017836573

criterion.weight f4 [4]
00000000: c55f e43f 5a0a d33e 5358 8040 b783 a73f
1.7841727 0.41218835 4.010782 1.3087071
