models/classifier.pth (torch, 8485 bytes, 7 tensors)

network.0.weight f4 [32, 4]
0.17366546 0.12580167 -0.6049326 0.6761483 0.6404231 0.2542903 0.18874179 0.22779775
-0.481896 -0.19453886 -0.14114599 -0.17190996 -0.017001724 -0.0077002 -0.010339136 0.98153305
0.29965347 0.15601291 -0.54455805 -0.33627433 -1.1371486e-33 -1.0842855e-33 -1.0858492e-33 -1.12676745e-33
-0.26024646 -0.106407605 -0.072472215 -0.09711255 -0.42264086 -0.19298105 0.81734365 0.07351459
0.25438297 0.038995206 1.0784254 -0.41408795 0.06360952 0.048057787 0.3008624 0.49167588
-0.006845689 -0.0029363558 -0.005356361 0.90740854 -0.23874193 -0.051645324 -0.43268168 -0.41738018
0.057755765 0.015754746 0.19840227 0.3423085 -0.25760645 -0.11666899 0.74020606 -0.31503537
0.43265215 0.30160558 -0.3844282 -0.07545936 -0.60400116 -0.24306631 -0.17711018 -0.21824692
-0.375521 -0.18294457 -0.037291348 1.0873269 -0.0100624915 -0.058684185 0.36865225 0.51995295
-0.29119882 -0.08832505 -0.20925614 -0.26827234 0.47861317 -0.5861066 0.1888772 0.11799579
0.58023006 0.23845701 0.20798191 0.20449352 -0.21173559 -0.08035962 0.7735609 -0.30299452
0.98564255 0.4003347 0.31339824 0.36633065 -1.1214372e-33 -1.0715244e-33 -1.0918381e-33 -1.1131937e-33
-0.55432653 -0.22340076 -0.15901344 -0.19659007 -1.1135033e-33 1.067768e-33 -1.16096065e-33 1.169995e-33
-0.16263506 0.018726218 -0.3620352 0.97271496 -0.7249704 -0.27091777 -0.18338774 -0.23653983
0.42637342 0.19305253 0.20090915 0.14367168 0.5758041 0.2918016 0.12881286 0.1754925
-0.021218022 -0.01144768 -0.010627738 0.973274 -0.3545709 -0.16614021 -0.19122602 -0.17496489
00000000: 5cd5 313e 27d2 003e dddc 1abf 0e18 2d3f
00000010: c5f2 233f 5732 823e 8745 413e d043 693e
00000020: 13bb f6be 3235 47be 9388 10be 2a09 30be
00000030: 3347 8bbc f651 fcbb 7b65 29bc c045 7b3f
00000040: 2e6c 993e d9c1 1f3e 2868 0bbf 262c acbe
00000050: f4f0 bc88 6828 b488 eb6a b488 6337 bb88
00000060: 063f 85be 3bec d9bd 506c 94bd f2e2 c6bd
00000070: 6264 d8be d39c 45be 6f3d 513f d18e 963d
00000080: 7c3e 823e 70b9 1f3d d809 8a3f 5603 d4be
00000090: b545 823d 3ed8 443d a30a 9a3e f1bc fb3e
000000a0: cd51 e0bb e06f 40bb 6a84 afbb ed4b 683f
000000b0: c478 74be 0c8a 53bd 7488 ddbe dbb2 d5be
000000c0: 4f91 6c3d 1910 813c f729 4b3e 0f43 af3e
000000d0: fee4 83be 27f0 eebd 257e 3d3f 514c a1be
000000e0: 9584 dd3e 0c6c 9a3e c6d3 c4be 708a 9abd
000000f0: d29f 1abf 60e6 78be 5f5c 35be 1f7c 5fbe
00000100: 4a44 c0be d255 3bbe d0be 18bd 872d 8b3f
00000110: 26dd 24bc d45e 70bd fdbf bc3e a31b 053f
00000120: 0318 95be c4e3 b4bd 3e47 56be fe5a 89be
00000130: c90c f53e 150b 16bf 0669 413e c7a7 f13d
00000140: f589 143f 132e 743e 36f9 543e c066 513e
00000150: 37d1 58be 9693 a4bd 1608 463f 1922 9bbe
00000160: 1253 7c3f abf8 cc3e bc75 a03e b18f bb3e
00000170: aa54 ba88 9b09 b288 a869 b588 06f6 b888
00000180: 58e8 0dbf 2bc3 64be 6bd4 22be e84e 49be
00000190: 3103 b988 d469 b108 cee5 c088 1566 c208
000001a0: ce89 26be ba67 993c ae5c b9be d903 793f
000001b0: a997 39bf bcb5 8abe ffc9 3bbe 7f37 72be
000001c0: 9e4d da3e 90af 453e 21bb 4d3e ab1e 133e
000001d0: e667 133f 0567 953e 85e7 033e 4eb4 333e
000001e0: 6bd1 adbc 0d8f 3bbc f71f 2ebc 7c28 793f
000001f0: 518a b5be a920 2abe c1d0 43be ff29 33be

network.0.bias f4 [32]
-0.18219443 -0.5917303 0.4563491 -0.2861108 0.1536695 0.0 0.2469056 -0.10665829
-0.3034244 -0.15337789 -0.2666863 0.41294008 -0.10616725 -0.103267536 -0.15179345 0.57083935
-0.28877994 -0.15265527 0.31709862 -0.17038216 -0.34434536 -0.099109545 -0.5871686 0.0
0.52676296 -1.1368191e-33 -0.27297956 0.67093223 -0.24871324 -0.29487613 -0.27729556 0.39123505
00000000: 2d91 3abe a37b 17bf 97a6 e93e 1d7d 92be
00000010: 8a5b 1d3e 0000 0000 d2d4 7c3e a96f dabd
00000020: 715a 9bbe 180f 1dbe 1b8b 88be e26c d33e
00000030: 376e d9bd ee7d d3bd be6f 1bbe 8722 123f
00000040: f7da 93be aa51 1cbe c05a a23e a978 2ebe
00000050: 094e b0be f2f9 cabd ae50 16bf 0000 0000
00000060: f0d9 063f f0e2 bc88 fac3 8bbe 37c2 2b3f
00000070: afae 7ebe 01fa 96be aff9 8dbe f64f c83e

network.3.weight f4 [32, 32]
0.108927265 -2.4891624 1.602273 0.6017581 0.104121774 -1.0924723e-33 1.5610529 0.19552743
-0.01274188 -0.057575844 0.573672 -0.37950888 0.27019843 -0.1471349 0.03659123 1.5230953
0.52045935 -0.16742471 0.53200877 -0.05980017 0.033052467 -0.06278514 -0.013371996 -1.0641298e-33
1.7577122 -1.108037e-33 0.42759562 1.2765349 0.08322995 0.066705205 0.04621224 0.8468325
0.25991476 0.672859 -3.254287 0.08414413 0.557346 -1.13094605e-33 -2.9557977 0.12410681
0.002997229 0.037978 0.05409929 0.9908049 0.04760813 0.1404058 1.116956 -3.066193
-0.16770819 0.051275507 -0.66018707 -0.029415196 -0.005209815 0.11136595 -0.021761427 -1.1437007e-33
-2.9922261 -1.0802445e-33 -0.40024754 -1.1760361 0.0035799192 -0.029151602 0.052844916 -1.198963
1.093661 -0.31823555 0.046673205 1.4887006 -0.21680593 -1.1485328e-33 0.07870505 0.6535024
0.101831496 0.25073802 1.5270349 0.053563315 0.7745254 0.8042538 0.028520083 0.03342953
1.4068245 0.45133412 0.08241083 -0.6635661 -1.2435008 0.5948301 -1.5801818 1.1720471e-33
0.026996633 1.1103328e-33 0.8498516 0.028496036 -1.0644152 -1.4299862 1.116091 0.10499467
-0.2924454 -2.370445 0.3803794 -0.23281701 0.2701749 1.1259844e-33 0.79390264 -0.6687157
-0.18268971 -0.36167538 -0.4276878 1.8547533 -0.30162764 -0.71103007 -0.115105465 0.20143001
-0.25281602 -0.22040063 2.375849 -0.32511553 -0.14896299 -0.4456103 -0.062914334 -1.10283365e-33
0.280286 1.1263443e-33 -0.46817124 0.30675918 -0.29122248 -0.17994928 -0.18087466 0.675675
-0.020361878 -3.081538 4.2502265 -0.08901935 -0.12593637 1.1230559e-33 3.3627455 -0.009353914
-0.017210005 -0.074690856 0.0070472173 -0.29965982 -0.034627702 -0.03760492 -0.10455801 4.242113
-0.24708536 -0.065426864 1.4489354 -0.058356725 -0.061761286 -0.009396222 -0.0204537 -1.1637416e-33
3.8365078 -1.133831e-33 0.24098703 1.8219851 -0.022570426 -0.016125666 0.009134382 1.8379514
0.32634553 -0.7992823 0.009933069 2.9623559 0.050961915 -1.1465264e-33 0.0022876915 0.7386526
1.350864 0.25836998 3.5724792 0.04421444 0.5058603 1.7095741 0.04899581 0.004194974
1.5551623 0.47043368 0.031560726 0.3294892 1.3922495 1.4729346 0.99556047 1.0972626e-33
-0.0019417781 -1.09569105e-33 1.376205 0.0046611284 0.75621957 0.15529452 2.6044643 0.021187223
1.0837474 -1.9093158 0.006394554 1.2600433 -0.18748178 -1.1227997e-33 0.07137382 0.26362795
-0.044318967 0.33278707 1.3997456 -0.06766248 0.42032626 -0.069252126 0.25756994 0.036183544
1.2176452 0.17038225 0.01031806 -0.50857705 -0.10067189 -0.08614194 -0.05664005 -1.1325989e-33
0.018572224 -1.06971125e-33 1.143305 0.009246445 0.07141101 0.09341112 0.9873764 0.05596081
-1.119283e-33 -1.1188137e-33 -1.1026897e-33 -1.1547249e-33 -1.0609224e-33 1.0738433e-33 -1.17468565e-33 -1.0655268e-33
1.1466903e-33 -1.1520454e-33 1.0894517e-33 -1.1121059e-33 -1.1566739e-33 -1.1622253e-33 -1.153379e-33 -1.0631077e-33
-1.1315869e-33 -1.0635798e-33 -1.10876585e-33 -1.1418845e-33 -1.1710703e-33 1.1500754e-33 -1.0667224e-33 1.15561215e-33
-1.1192897e-33 1.0806706e-33 -1.0853601e-33 -1.0860965e-33 -1.0887886e-33 -1.1018713e-33 -1.0798298e-33 -1.1562826e-33
00000000: 4215 df3d 704e 1fc0 4817 cd3f d20c 1a3f
00000010: cc3d d53d a284 b588 95d0 c73f 5838 483e
00000020: 51c3 50bc a6d4 6bbd 2bdc 123f fd4e c2be
00000030: 7357 8a3e 88aa 16be b0e0 153d c9f4 c23f
00000040: d33c 053f 6271 2bbe ba31 083f 06f1 74bd
00000050: 0662 073d 7f95 80bd 3716 5bbc 13cf b088
00000060: b7fc e03f ae1a b888 d0ed da3e 7f65 a33f
00000070: 7774 aa3d bd9c 883d 0c49 3d3d 04ca 583f
00000080: 8c13 853e 7d40 2c3f 3d46 50c0 c253 ac3d
00000090: 3aae 0e3f 20e9 bb88 ca2b 3dc0 b62b fe3d
000000a0: 296d 443b d28e 1b3d 3897 5d3d 64a5 7d3f
000000b0: be00 433d 8ac6 0f3e 6af8 8e3f 823c 44c0
000000c0: b2bb 2bbe 4406 523d 0502 29bf 23f8 f0bc
000000d0: 19b7 aabb d513 e43d 0545 b2bc a607 be88
000000e0: a280 3fc0 857c b388 3fed ccbe 5a88 96bf
000000f0: 149d 6a3b 57cf eebc e973 583d 9f77 99bf
00000100: 15fd 8b3f c5ef a2be 672c 3f3d be8d be3f
00000110: 6002 5ebe 2fd5 be88 1d30 a13d ef4b 273f
00000120: 088d d03d bc60 803e e175 c33f 3565 5b3d
00000130: 4c47 463f 94e3 4d3f f3a2 e93c 67ed 083d
00000140: d312 b43f 4415 e73e 02c7 a83d 78df 29bf
00000150: 092b 9fbf c946 183f 6643 cabf 5fbd c208
00000160: 0b28 dd3c 567c b808 e08f 593f 8570 e93c
00000170: c23e 88bf ca09 b7bf 12dc 8e3f 7207 d73d
00000180: 67bb 95be 5fb5 17c0 17c1 c23e 9567 6ebe
00000190: 5d54 8a3e 1416 bb08 343d 4b3f f430 2bbf
000001a0: 0313 3bbe 842d b9be e5f9 dabe 8e68 ed3f
000001b0: f06e 9abe 1106 36bf 6abc ebbd ab43 4e3e
000001c0: 1a71 81be b4b0 61be e90d 1840 8b75 a6be
000001d0: c189 18be 0927 e4be 3bd9 80bd 5b3d b788
000001e0: a681 8f3e 6325 bb08 24b4 efbe 8a0f 9d3e
000001f0: 1d1b 95be a044 38be 3537 39be 09f9 2c3f
00000200: f4cd a6bc eb37 45c0 db01 8840 c74f b6bd
00000210: 77f5 00be 8499 ba08 3937 5740 2941 19bc
00000220: fffb 8cbc 85f7 98bd 58ec e63b 036d 99be
00000230: c7d5 0dbd 9e07 1abd 8322 d6bd 64bf 8740
00000240: f203 7dbe 85fe 85bd b776 b93f 7607 6fbd
00000250: 67f9 7cbd 9df2 19bc 858e a7bc 185c c188
00000260: 5889 7540 d663 bc88 4ec5 763e cf36 e93f
00000270: 9de5 b8bc f919 84bc 60a8 153c fe41 eb3f
00000280: c316 a73e c49d 4cbf 50be 223c 3d97 3d40
00000290: 71bd 503d d77f be88 18ed 153b 5618 3d3f
000002a0: 1de9 ac3f 1249 843e 80a3 6440 331a 353d
000002b0: 1080 013f 53d3 da3f d5af 483d fe75 893b
000002c0: 8f0f c73f afdc f03e d245 013d cfb2 a83e
000002d0: 3b35 b23f 1f89 bc3f 0ddd 7e3f 6450 b608
000002e0: 4383 feba 8b0d b688 7c27 b03f 61bc 983b
000002f0: 9b97 413f 8705 1f3e 8baf 2640 d490 ad3c
00000300: 3cb8 8a3f 7664 f4bf 6889 d13b 1949 a13f
00000310: 39fb 3fbe 9e8e ba88 702c 923d 3efa 863e
00000320: ce87 35bd 1163 aa3e dd2a b33f a092 8abd
00000330: 0135 d73e 0fd4 8dbd 35e0 833e 3235 143d
00000340: ccdb 9b3f af78 2e3e 150d 293c 1b32 02bf
00000350: 102d cebd 2f6b b0bd 66ff 67bd 6e2f bc88
00000360: c724 983c 7cbc b188 d157 923f 677e 173c
00000370: f03f 923d 544e bf3d b3c4 7c3f 2a37 653d
00000380: 09f9 b988 12e5 b988 3c37 b788 91dc bf88
00000390: a646 b088 3e6c b208 9a2d c388 7f0a b188
000003a0: d086 be08 986a bf88 2604 b508 c1c7 b888
000003b0: 772f c088 991b c188 51a3 bf88 9aa3 b088
000003c0: 6204 bc88 aeb7 b088 af39 b888 65ba bd88
000003d0: d293 c288 cc16 bf08 5a3d b188 4e02 c008
000003e0: 52f9 b988 a58e b308 1d56 b488 7075 b488
000003f0: f2e7 b488 6c14 b788 e16a b388 d31e c088

network.3.bias f4 [32]
0.0134745 0.1546306 -0.12728617 0.35354805 0.089874886 -0.047205362 -0.028615769 -1.1100858e-33
0.29142755 -0.0067813466 0.2035795 0.2217331 0.18676397 0.17955863 0.07036237 0.2827179
-1.1298792e-33 -0.089115866 0.1584504 0.27168074 0.16935174 0.17370482 0.10841019 0.21732795
-0.11168973 0.43502307 0.09130334 0.44233128 -0.011889506 -0.025944013 0.2624285 0.21824454
00000000: 26c4 5c3c 7c57 1e3e 4e57 02be 4004 b53e
00000010: 5310 b83d 695a 41bd 9e6b eabc d471 b888
00000020: fe35 953e 0f36 debb 2577 503e 000e 633e
00000030: 0e3f 3f3e 38de 373e 251a 903d 67c0 903e
00000040: bfbb bb88 6182 b6bd d240 223e bd19 8b3e
00000050: 8b6a 2d3e addf 313e 2906 de3d 388b 5e3e
00000060: 96bd e4bd 58bb de3e 3ffd ba3d 3f79 e23e
00000070: 34cc 42bc 8a88 d4bc 075d 863e 7f7b 5f3e

network.6.weight f4 [4, 32]
0.36743858 1.1049867 -3.2586114 0.47156206 0.43428677 -2.789811 -2.3477468 1.059875e-33
0.67321604 -2.9590595 1.144817 0.51534903 -2.1266706 -1.1524969 0.56332463 -0.26478606
-1.0795345e-33 0.93851775 0.3945771 -0.18726723 0.2761798 0.19516546 -1.1316483 -1.6189339
-3.1103454 0.5778698 -0.3604222 0.756773 -2.3249319 -3.2060952 3.442859 3.3652453
0.37286115 -0.7049034 0.498744 0.3912059 0.41078734 0.0810648 0.6608608 -1.0889052e-33
-1.9235463 0.3778351 -1.1140971 -1.0357568 -0.0026354375 -0.6552006 0.54109466 0.56949437
1.1474644e-33 0.4559811 0.3576178 0.80343336 0.21905065 -0.7737073 0.86872643 -0.056107543
0.23183934 0.46960402 -0.67382854 0.7013318 0.322128 0.3579393 -3.4222202 -3.842726
0.31941316 -3.7604501 0.28869298 -1.3100497 0.34615403 0.11396174 0.6610611 1.12904405e-33
-2.653248 0.40374535 -3.5409305 0.22763857 0.23068133 0.5342066 0.4692613 -1.5113155
-1.137579e-33 -3.692082 0.18860501 -1.3722448 -0.03202384 0.32343227 -0.9690618 0.42685488
0.23816128 -3.3929358 0.80434054 -3.0307221 0.35605457 0.37965694 -0.14633447 -0.13278009
-1.7463925 1.6211357 -0.15156332 -1.4335607 -4.8241587 0.16679275 -0.5141852 1.1372283e-33
2.2583108 -0.012336823 2.007297 0.23939411 0.23023108 0.24927376 -4.638698 0.4691997
-1.1092004e-33 -0.11001837 -3.693934 0.6203274 -3.5504155 0.16847736 0.47597316 0.38367283
0.20775235 0.5153462 0.64334834 -0.04555637 0.38972518 0.4367307 0.0003627823 0.00042050655
00000000: e920 bc3e 3470 8d3f 178d 50c0 9570 f13e
00000010: d65a de3e 438c 32c0 7c41 16c0 191a b008
00000020: e357 2c3f 3b61 3dc0 5d89 923f eaed 033f
00000030: 5f1b 08c0 0585 93bf 0b36 103f 0a92 87be
00000040: 525e b388 b342 703f 0206 ca3e fbc2 3fbe
00000050: 7067 8d3e 74d9 473e dad9 90bf 3a39 cfbf
00000060: e60f 47c0 46ef 133f 4289 b8be e0bb 413f
00000070: afcb 14c0 aa30 4dc0 cd57 5c40 2e60 5740
00000080: a8e7 be3e 8d74 34bf 605b ff3e 244c c83e
00000090: b852 d23e 4d05 a63d 2c2e 293f e8ec b488
000000a0: c436 f6bf 9a73 c13e bc9a 8ebf ae93 84bf
000000b0: 4eb7 2cbb 3abb 27bf 2e85 0a3f 62ca 113f
000000c0: bda7 be08 5b76 e93e ae19 b73e cfad 4d3f
000000d0: d04e 603e ae11 46bf db64 5e3f 06d1 65bd
000000e0: 4b67 6d3e f06f f03e 0780 2cbf 7b8a 333f
000000f0: f6ed a43e d243 b73e a805 5bc0 39ef 75c0
00000100: 1f8a a33e 37ab 70c0 91cf 933e b5af a7bf
00000110: 1a3b b13e c664 e93d 4d3b 293f 3998 bb08
00000120: d1ce 29c0 b6b7 ce3e 9b9e 62c0 161a 693e
00000130: ba37 6c3e c4c1 083f 0443 f03e c972 c1bf
00000140: 4203 bd88 124b 6cc0 ac21 413e b8a5 afbf
00000150: 6e2b 03bd ea98 a53e 6f14 78bf b98c da3e
00000160: 8de0 733e dc25 59c0 43e9 4d3f 5af7 41c0
00000170: c94c b63e 6562 c23e b4d8 15be 81f7 07be
00000180: ca89 dfbf 6081 cf3f 6a33 1bbe eb7e b7bf
00000190: 825f 9ac0 b8cb 2a3e a4a1 03bf 58f4 bc08
000001a0: 2a88 1040 6320 4abc 8e77 0040 bb23 753e
000001b0: b2c1 6b3e 9f41 7f3e 3770 94c0 f13a f03e
000001c0: 2b4c b888 5051 e1bd 6a69 6cc0 c7cd 1e3f
000001d0: 023a 63c0 5485 2c3e c1b2 f33e c470 c43e
000001e0: 08bd 543e bbed 033f 7ab2 243f 5199 3abd
000001f0: 0f8a c73e 2b9b df3e d133 be39 6f77 dc39

network.6.bias f4 [4]
0.27611497 -0.29830426 0.16296586 0.21507148
00000000: f15e 8d3e 56bb 98be 86e0 263e b33b 5c3e

criterion.weight f4 [4]
0.14864513 0.12207419 0.16895048 0.14210545
00000000: 6e36 183e 0802 fa3d 5b01 2d3e 1784 113e
