models/cnn_lstm_model.pth (torch, 577578 bytes, 13 tensors)

cnn.0.weight f4 [32, 1, 3]
000000 ec fd 07 3d ef 20 6f 3d cd 5e 4d bc c8 49 04 3d
       0.033201143 0.058381017 -0.012534809 0.032296926
000010 ed 05 ad 3d e2 94 c8 bc dc dc fe bd e2 71 d3 be
       0.08448396 -0.024485055 -0.12444469 -0.41297823
000020 8f 12 d9 3e b5 fb f2 be 52 f1 91 3e d4 db 6b 3e
       0.42396972 -0.47457662 0.28504425 0.23033077
000030 61 7e 46 3e b1 7e b1 bc 19 61 cf bd 29 be d8 3e
       0.19384147 -0.021666856 -0.10125942 0.4233258
000040 4c f3 48 3c 39 ca 03 bf b4 df c5 3e cc 47 d3 be
       0.012265038 -0.5148044 0.38647234 -0.41265714
000050 e7 64 fb bd 00 00 00 00 00 00 00 00 00 00 00 00
       -0.12275105 0.0 0.0 0.0
000060 00 00 00 80 00 00 00 00 00 00 00 00 33 85 1f bd
       -0.0 0.0 0.0 -0.038945388
000070 a8 dd a2 be 64 2d 8b 3e f4 d3 d1 3c 4e b1 da 3d
       -0.31809735 0.27183068 0.025613762 0.106783494
000080 d5 19 18 bc 0f c8 8c 3e 94 39 3b 3d ce a4 96 be
       -0.009283503 0.27496383 0.045709208 -0.2942261
000090 d6 f7 03 bf 2a 01 41 3c ff 2e c7 3e 43 7c 45 be
       -0.5155004 0.011780063 0.38903043 -0.19285683
0000a0 3d 92 a9 3e 14 2f 51 be dd 45 ac 3e 13 c2 a3 be
       0.33119383 -0.20428115 0.3364705 -0.31984004
0000b0 44 7f 9e bd d5 df e9 bd 45 d2 84 3d 20 ae a6 3d
       -0.07739118 -0.11419646 0.06485418 0.081386805
0000c0 e5 02 05 bf eb 47 b6 3e ab 1c f5 3d 80 6f 69 be
       -0.5195754 0.35601744 0.119683586 -0.2279644
0000d0 68 50 e0 bd c5 19 a9 3e 90 b4 b3 3e 48 3b 2b 3d
       -0.10952836 0.33027473 0.35098696 0.041804582
0000e0 e7 3a d6 be 81 f1 1c bd 8b 54 89 3e c9 c6 84 be
       -0.41841814 -0.038316254 0.26822314 -0.2593291
0000f0 ab 12 46 3e f9 b2 8b be 95 43 60 3c 84 60 f6 be
       0.19343059 -0.27284983 0.013687988 -0.4812051
000100 d7 1f 99 3e 3c be 48 3e 00 00 00 80 00 00 00 80
       0.29907104 0.19603819 -0.0 -0.0
000110 00 00 00 80 00 00 00 80 00 00 00 00 00 00 00 00
       -0.0 -0.0 0.0 0.0
000120 00 00 00 80 00 00 00 80 00 00 00 00 00 00 00 80
       -0.0 -0.0 0.0 -0.0
000130 00 00 00 00 00 00 00 00 84 f8 69 be 9e b8 c1 3d
       0.0 0.0 -0.22848707 0.09459041
000140 56 58 53 3e 00 00 00 80 00 00 00 80 00 00 00 00
       0.20639166 -0.0 -0.0 0.0
000150 a0 38 09 3e 84 bd 22 be 78 d9 a6 bc 0a f2 a1 bb
       0.13400507 -0.15892607 -0.020367369 -0.0049421834
000160 f8 42 c0 3d df 8e 2f 3c 60 9f 34 be fa 0c a0 3b
       0.09387773 0.0107152155 -0.17638922 0.0048843594
000170 2c 67 72 3e 09 74 7d 3e d7 5a ec 3c 78 5e 5f be
       0.2367217 0.24751295 0.02885191 -0.2181338

cnn.0.bias f4 [32]
000000 88 f3 86 bf ec 17 a9 bf 85 2f 18 3e 1e bb f4 be
       -1.054307 -1.3210425 0.14861877 -0.4779901
000010 10 4a 73 bf 30 d8 8e bc 2e 4c b4 3e 00 00 00 00
       -0.95034885 -0.01743707 0.3521437 0.0
000020 00 00 00 00 99 ff 08 3e 3f be 56 bf 43 a1 2e bf
       0.0 0.13378753 -0.8388404 -0.68214816
000030 ed ff bb be b4 f5 b2 bd ef 29 0c bf ee 51 99 be
       -0.36718693 -0.087382704 -0.54751486 -0.2994532
000040 9f 43 2d bf c1 2c 2b bf f4 cc f6 bd 14 89 37 bf
       -0.67681307 -0.66865164 -0.120508105 -0.7169354
000050 a9 8b c1 3e 21 e4 34 bf 00 00 00 00 00 00 00 80
       0.37801865 -0.706606 0.0 -0.0
000060 00 00 00 80 00 00 00 00 3e b6 17 bf 00 00 00 80
       -0.0 0.0 -0.59262455 -0.0
000070 b4 38 57 3e 3b 41 8c bf 36 c0 ff be b0 fb 73 bf
       0.21017724 -1.0957407 -0.49951333 -0.9530592

cnn.4.weight f4 [64, 32, 3]
000000 09 c3 6f 3d 37 a2 92 bd 9d a4 f1 bd 89 3f 85 3c
       0.05853561 -0.07159846 -0.117989756 0.016265647
000010 1b 05 82 bd 2e 64 a9 bd 72 8b c6 bd 92 85 b0 3c
       -0.0634863 -0.08271061 -0.09694566 0.021548066
000020 75 73 1d 3a be 3a 43 3c 5a e2 8a bd 1a 72 89 bb
       0.0006006279 0.011915861 -0.067814544 -0.00419451
000030 89 89 d1 3c 40 fb 89 3c 27 a0 c2 bd 9d 3c a5 3a
       0.025578277 0.016843438 -0.09503203 0.0012606565
000040 b6 1b 49 3c ec 05 37 3d f0 1e e6 3d c2 37 05 3d
       0.012274673 0.044683382 0.112363696 0.032523878
000050 f1 84 14 bd 00 00 00 00 00 00 00 00 00 00 00 00
       -0.036259595 0.0 0.0 0.0
000060 00 00 00 80 00 00 00 80 00 00 00 00 40 c8 9b be
       -0.0 -0.0 0.0 -0.30426216
000070 ce 1b 03 bd 7d 84 1c bc a3 01 c6 3c 32 d9 8a bd
       -0.03200894 -0.009553072 0.024170702 -0.06779708
000080 8c 02 80 bd a9 c3 be 3d 2d 00 a6 3b 49 fc 5d bc
       -0.06250486 0.09314663 0.005065939 -0.013548919
000090 2c d5 51 ba 0c ce cb bd c4 04 02 3d af 69 29 3d
       -0.00080044824 -0.0995141 0.031742826 0.041360553
0000a0 e1 d0 5c bd ae 40 88 3d c4 7f d5 3c 04 a4 98 3d
       -0.05391014 0.06652962 0.0260619 0.074531585
0000b0 49 3f 2f be 5a 73 4c 3d cb 55 7e be 8c ba 6b bc
       -0.17113985 0.049914695 -0.24837415 -0.014387738
0000c0 3d 94 05 3c 5f fb a1 bd 0b e7 87 3c 0e 16 58 3c
       0.008153019 -0.07909273 0.016589662 0.013188852
0000d0 b0 73 83 bd fe d6 9f 3b 08 e0 6d 3d 05 9d f8 3b
       -0.0641855 0.004877924 0.05807498 0.0075870776
0000e0 cc 94 b7 3c 42 ba 89 3d f5 89 43 bc 87 e5 9c 3c
       0.022409819 0.06724979 -0.011934747 0.019152416
0000f0 24 cc d3 3d bb d8 e9 3d 95 92 94 be 0c 4f 3f bb
       0.10341671 0.11418291 -0.29018083 -0.0029191403
000100 75 20 b9 bd da 1b ff ba 00 00 00 00 00 00 00 00
       -0.09039394 -0.0019463256 0.0 0.0
000110 00 00 00 00 00 00 00 00 00 00 00 00 00 00 00 00
       0.0 0.0 0.0 0.0
000120 00 00 00 80 00 00 00 00 00 00 00 00 00 00 00 00
       -0.0 0.0 0.0 0.0
000130 00 00 00 80 00 00 00 80 c0 9b 79 3c e1 6d e6 bd
       -0.0 -0.0 0.015234888 -0.112514265
000140 43 f5 7c bc 00 00 00 00 00 00 00 80 00 00 00 00
       -0.015439334 0.0 -0.0 0.0
000150 3a 2d 9f 3d de 28 14 3e f7 ae 96 be 40 61 96 3c
       0.07772298 0.14468715 -0.29430363 0.01835692
000160 4e ee c6 bd 16 ae a0 bd 62 72 9c 3c 67 6f b2 bd
       -0.09713422 -0.07845704 0.01909751 -0.087126546
000170 48 9d 94 bc d7 98 38 3d d5 9e c5 3b 8f e2 0c bd
       -0.018141404 0.045067634 0.006030897 -0.03439575
000180 6d 18 ac bd 13 61 13 3c bd 23 c1 bc 1d a9 7e bd
       -0.08403096 0.008995312 -0.023576612 -0.062172998
000190 00 f3 8a ba b4 88 b6 bc 67 95 23 3d 28 8e df bd
       -0.0010600984 -0.022281982 0.039937403 -0.10915786
0001a0 13 88 19 bf a0 56 ce 39 e1 78 2c 3c ce 83 19 bc
       -0.5997326 0.00039355922 0.010526867 -0.009369804
0001b0 5b 89 bd 3c fa 98 4d 3d 17 8d 0e bc 34 b2 80 3a
       0.023136785 0.050194718 -0.008700631 0.0009818734
0001c0 e3 a1 f5 3b 1a 7a 11 bd f5 62 a0 3a 59 56 05 3c
       0.007496105 -0.035516836 0.0012236523 0.008138263
0001d0 9e 16 68 bd 00 00 00 80 00 00 00 80 00 00 00 00
       -0.056662194 -0.0 -0.0 0.0
0001e0 00 00 00 00 00 00 00 00 00 00 00 00 35 97 89 3d
       0.0 0.0 0.0 0.067182936
0001f0 78 c3 a4 be f7 d4 09 bf ad 17 7c bd 04 df c8 3c
       -0.3218038 -0.53840584 -0.061546016 0.024520405
000200 a3 8f b4 bc 28 de 88 3c c6 72 93 3c 6a 1f 9a bc
       -0.022041148 0.016707495 0.017999064 -0.018813808
000210 4d 35 0e 3d 7c cd 3e 3c 3f 1d 96 be 6f 4a b5 be
       0.0347188 0.011645671 -0.29319188 -0.3540835
000220 95 7b 14 3d 7d 3e 92 be bf f3 ba 3c ea 23 46 3c
       0.03625067 -0.285633 0.022821305 0.0120935235
000230 db 26 27 bc b1 5f 0e bc d4 48 ea 3d 49 0b bf bd
       -0.010202135 -0.008689807 0.11439672 -0.09328324
000240 01 95 1f bd 64 e1 2e 3d 2e f6 c0 bd 56 7a 17 3d
       -0.03896046 0.042695418 -0.09421955 0.036981903
000250 1c 7b a1 3c f5 92 20 be 9a 07 a2 3b 65 3f 12 3c
       0.019712023 -0.1568106 0.004944754 0.008926247
000260 d2 73 21 bd 04 d3 4b be 19 fc a8 3b 45 2b ce bd
       -0.039417095 -0.19904715 0.0051570055 -0.10066847
000270 ab bd 9a 3c 24 d0 68 bd 86 94 4f bd 04 2e 7c bc
       0.018889269 -0.056839123 -0.050678752 -0.01539183
000280 a1 a4 d3 3c 7f ea 41 bc 00 00 00 00 00 00 00 80
       0.025835337 -0.011835693 0.0 -0.0
000290 00 00 00 80 00 00 00 00 00 00 00 00 00 00 00 80
       -0.0 0.0 0.0 -0.0
0002a0 00 00 00 80 00 00 00 00 00 00 00 80 00 00 00 00
       -0.0 0.0 -0.0 0.0
0002b0 00 00 00 00 00 00 00 80 5c 88 33 3c d3 ac 2c 3d
       0.0 -0.0 0.010957804 0.042157006
0002c0 9f c3 4c bd 00 00 00 00 00 00 00 00 00 00 00 80
       -0.049991246 0.0 0.0 -0.0
0002d0 01 f5 0e 3d e1 89 1d bd 93 0e a7 bd f3 6e a7 bd
       0.034901623 -0.03846157 -0.08157077 -0.08175459
0002e0 38 ed 33 3d 94 0a 89 bc 85 a2 f6 3c 90 08 23 3d
       0.0439274 -0.016728677 0.030106792 0.039803088
0002f0 7f 36 dd bd 37 01 40 3c 40 52 a5 3c 2e 7e c3 3b
       -0.1080141 0.01171904 0.020180821 0.0059659695
000300 27 9c 8d 3c d0 71 76 bb 89 ce cf 3a 06 f7 eb ba
       0.017286373 -0.0037604459 0.0015854399 -0.0018002696
000310 94 28 40 3b 8b f9 c0 3b 4d 76 31 be 20 9b 3f 3d
       0.0029321061 0.005889123 -0.17330284 0.046778798
000320 17 89 8d bb e1 83 3d ba d8 f1 b8 be 5f cb b4 3c
       -0.004319321 -0.00072294293 -0.36122012 0.022069631
000330 b9 32 1d 3c ad 01 0a bc 8d e0 76 3a 28 29 96 3c
       0.009594613 -0.008423251 0.0009417616 0.018330172
000340 ca 99 d3 3a c0 46 b9 bb 5a 38 98 3b 21 b8 81 3d
       0.0016143855 -0.005654186 0.0046453895 0.06333948
000350 ef 70 3f 3c 00 00 00 80 00 00 00 00 00 00 00 00
       0.01168464 -0.0 0.0 0.0
000360 00 00 00 00 00 00 00 00 00 00 00 00 9c 13 8d be
       0.0 0.0 0.0 -0.27554023
000370 fc 0c d0 3d 6b 76 6a bc 8a b2 bc 3b 6c 11 72 bb
       0.101587266 -0.01431046 0.005758588 -0.0036936654
000380 18 e7 d1 ba 35 9b 55 3c cb f5 df 3b 57 e0 99 3b
       -0.0016014306 0.0130374925 0.0068347207 0.004695933
000390 fd c7 37 3b 1c be aa be 0e 50 4d 3d 11 5f 09 bd
       0.0028042786 -0.33348167 0.050125174 -0.033537928
0003a0 a2 68 a8 ba 13 22 b7 3b 28 19 59 bc 73 3b 05 3d
       -0.0012848566 0.0055887788 -0.013250627 0.0325274
0003b0 d7 09 3d bb 3d 0d c3 3c b2 3c e2 be 4a a8 30 3d
       -0.0028844976 0.023810023 -0.44186932 0.043129243
0003c0 3f 28 b9 3b 78 65 20 bf 60 53 fd 3c 37 3d 32 bd
       0.0056505497 -0.6265483 0.030923545 -0.04351541
0003d0 ed a2 21 3c e2 c7 88 3c d0 29 99 3c 6f 50 00 3c
       0.009865505 0.016696874 0.018696696 0.007831677
0003e0 cc 17 72 3a 0f 55 7f bc 7f bb 10 3d 99 ce 3f 3b
       0.00092351134 -0.015584244 0.03533506 0.002926743
0003f0 ef 18 9d bc b5 6e 2f 3e 68 e3 f2 37 1e 3a 01 3b
       -0.019176928 0.17132075 2.8954542e-05 0.0019718478

cnn.4.bias f4 [64]
000000 62 b5 3a 3c 11 6a 42 bd d7 91 40 bd d8 9e 22 3e
       0.011395784 -0.047464434 -0.047014084 0.15880907
000010 cf b0 32 be 80 fe 87 be 34 27 de be 32 5c e7 bd
       -0.1745026 -0.26561356 -0.43389285 -0.11296882
000020 5f 82 d3 bd 85 24 a8 ba 00 00 00 80 02 b8 da 3d
       -0.10327601 -0.0012828266 -0.0 0.10679628
000030 0a cf 23 3d cf 43 1d be 2c d0 7d be 9d 27 14 be
       0.03999237 -0.15357898 -0.24786443 -0.14468236
000040 fc f2 6a 3d ce 46 ee be f3 4e f8 3c 71 4a de 3d
       0.057360634 -0.46538395 0.030311083 0.10854042
000050 63 8c 0b be 91 82 50 be ff 7c f6 bc eb a6 89 bd
       -0.13627772 -0.20362307 -0.0300889 -0.0672129
000060 30 2f 00 3d 18 10 c9 3c 2c eb 4c 3d d3 b4 68 be
       0.031295 0.024543807 0.050028965 -0.22725229
000070 d9 c7 d3 be 56 5f 4c 3e 00 00 00 00 52 f7 aa bc
       -0.4136341 0.19958243 0.0 -0.020869885
000080 b4 50 c3 be 4a e5 05 be a4 19 82 bc 79 8e e3 3d
       -0.3814751 -0.13075748 -0.015881367 0.11111159
000090 9e 77 6b bd 3a 49 f3 bd 37 57 e3 3d 1f 2f 3e be
       -0.057487123 -0.11879201 0.11100619 -0.18572663
0000a0 e0 7e 18 be 31 4a 07 bf 19 0f 7e 3d 2b 50 a5 3d
       -0.14892149 -0.5284758 0.062026117 0.080719315
0000b0 20 0e 61 bd ff 72 f3 bc 8f 5e 53 bd 39 3b 1d bf
       -0.05494511 -0.02971792 -0.05160385 -0.6141849
0000c0 59 01 09 bd ba 6e b0 3c 84 5f 9f 3d 12 ac 23 bd
       -0.03344855 0.021537174 0.0778189 -0.03995902
0000d0 87 16 12 bb 8a 8c 26 3d ec 54 af 3c 88 4c 40 be
       -0.002229126 0.040661372 0.021402799 -0.18779194
0000e0 24 5b 94 bd 78 f9 e5 be ea a0 23 3d d9 22 40 be
       -0.07243946 -0.44916892 0.03994838 -0.18763293
0000f0 57 2e c6 bc 4e b7 84 3d 0a 72 df bd 65 fb 2c bf
       -0.024192018 0.06480275 -0.10910423 -0.675711

lstm.weight_ih_l0 f4 [384, 64]
000000 75 5d 86 3d 61 44 91 bd e6 f9 00 bd 3f ca 84 bc
       0.06560794 -0.0709312 -0.03148832 -0.01620972
000010 8a 33 85 bc c2 3f 59 ba 70 c8 64 bc e6 fc 09 3b
       -0.016259927 -0.0008287394 -0.013963804 0.002105528
000020 55 77 95 bb 64 87 53 3d 00 00 00 80 28 e7 b1 3e
       -0.0045613446 0.05164279 -0.0 0.3474667
000030 67 f2 ec 3d a1 47 85 bd 02 d6 94 bc 3b ab d3 bd
       0.11569672 -0.06507803 -0.018168453 -0.10335394
000040 82 18 77 3d 11 bf bb 3d 69 09 4f bd 51 97 03 3d
       0.060326107 0.091673024 -0.050546084 0.03212673
000050 5c f5 2f be 74 09 20 3c 5c f0 9c 3c b6 89 bb bd
       -0.17183441 0.009767879 0.019157581 -0.09157126
000060 58 cd 07 3d 1f 6c be bd cb 66 82 bd 0c bb bf bd
       0.033154815 -0.09297966 -0.063672625 -0.09361848
000070 15 a0 19 3e ba 2d 19 3e 00 00 00 00 29 80 93 bc
       0.15002473 0.1495885 0.0 -0.018005447
000080 50 db ac ba b2 83 65 bc 41 74 a1 bd bb 70 49 3d
       -0.0013187919 -0.014008449 -0.07883502 0.049179774
000090 1e a5 21 3e 1c a8 82 3e 89 c4 83 3e f1 45 6e bd
       0.15785643 0.25518882 0.25735882 -0.05817217
0000a0 d1 0a be bd 27 66 16 3e 16 26 ea 3d 55 af a4 bc
       -0.09279407 0.14687406 0.114330456 -0.020103136
0000b0 26 e9 a6 3d 8a c3 d8 3d f8 5c 46 3c d6 81 72 3c
       0.08149938 0.10584171 0.012107126 0.014801463
0000c0 71 43 1e bc 36 e4 18 3d 73 a1 5e 3d d6 f1 1e bd
       -0.009659634 0.037327014 0.05435319 -0.03880485
0000d0 3c 42 16 3e 38 60 08 3e 3e 02 23 bd 5f 96 c8 bd
       0.14673704 0.13317955 -0.03979706 -0.09794306
0000e0 7b 6b 23 bd 61 b4 de 3c 26 3c 95 3d c2 a9 82 bd
       -0.039897423 0.02718562 0.07286863 -0.06380035
0000f0 fa 83 9c 3d 10 33 61 be e2 00 c2 ba 8a 55 d8 3d
       0.0764236 -0.21992135 -0.0014801288 0.1056319
000100 4c ff 62 3d f2 71 1b bd 71 46 b1 bc 73 45 b7 3d
       0.05541925 -0.037950464 -0.021640034 0.08948793
000110 88 14 22 3d b1 42 22 3e 4c 6c c5 3b 53 6d 51 bd
       0.03957036 0.15845753 0.006024873 -0.05112965
000120 22 e8 8d 3c 19 ca 83 bc 00 00 00 00 82 75 ae 3e
       0.017322604 -0.016087579 0.0 0.34074026
000130 46 25 fe 3d 80 62 ed 3c e0 77 82 3d 69 cc be bc
       0.12409453 0.028977633 0.063705206 -0.02329083
000140 61 11 e9 3c 9a 11 eb bc f6 39 5b 3d a2 85 c3 3d
       0.02845067 -0.028694917 0.053522073 0.09546973
000150 ed 98 cc 3d 69 56 81 3e 4a c5 85 3b c5 2b 9d bd
       0.09990106 0.25261238 0.0040823566 -0.07674364
000160 71 45 a9 3d c6 9b 0e bc 6e 05 c5 3c ae db 7b 3c
       0.08265198 -0.0087041315 0.02405044 0.0153722
000170 54 46 2a 3d 67 eb 1f 3e 00 00 00 00 46 14 67 3c
       0.041570976 0.15617143 0.0 0.014103955
000180 58 a0 e2 bc 55 98 49 3d da 9b 48 bd e6 e5 1b 3e
       -0.027664348 0.04921754 -0.048976757 0.15224418
000190 0c 59 b7 3c 92 d3 06 3e f4 ce 5d 3e 71 be 75 bc
       0.022381328 0.13166645 0.21660978 -0.014999018
0001a0 58 a7 76 3d 60 29 67 bc db ee 09 3e 38 35 5f 3d
       0.060218185 -0.014108986 0.13470022 0.054494113
0001b0 54 b5 13 bd a2 8f 8d bd c5 a5 ae 3d 5b 3c 87 bc
       -0.0360616 -0.069121614 0.08527712 -0.016508272
0001c0 e0 d6 ad 3d 08 c4 76 bd 3f 47 42 3e 4d de 1e be
       0.0848825 -0.060245544 0.1897249 -0.15514489
0001d0 49 af c7 3d 2a b7 ef bc f8 80 a1 3d 18 17 b3 3d
       0.0975023 -0.029262144 0.07885927 0.08744639
0001e0 a4 1d 26 3d b1 1f 02 bd 48 0d 2d 3d cb 4f 20 3d
       0.04055561 -0.031768505 0.042248994 0.039138597
0001f0 2b fa 7f 3c 3f f7 44 bd 98 cf 53 3d 6d be 59 bd
       0.01562361 -0.048087355 0.05171165 -0.05316012
000200 1b 5b 00 3d d2 39 86 bd 4e 98 9f 3e 07 6b 4a 3e
       0.031336885 -0.06553997 0.31170887 0.1976739
000210 15 d4 f7 3b 3a 24 07 bd 67 22 b6 3c fd 87 2a bd
       0.007563124 -0.032993533 0.022233201 -0.041633595
000220 58 b7 cb 3d 21 5e 20 3e 00 00 00 00 4f 74 41 3c
       0.099470794 0.15660907 0.0 0.011807515
000230 50 4f 7e 3d b7 51 68 3b 32 9c 5c 3d 24 f3 2f 3c
       0.062087357 0.0035449096 0.053859897 0.010739122
000240 87 84 29 3e a0 db 5c 3d 3f 48 fd bc 30 a6 c0 bd
       0.16554461 0.05392039 -0.030918239 -0.09406698
000250 a2 71 84 3d 8d 1d 6c bc c4 ca 11 bd 43 76 b8 3d
       0.06466986 -0.014411342 -0.035593763 0.09006932
000260 5a 19 6d 3c 36 b3 dd 3d 9a cc 97 3e 3b 95 a9 3e
       0.014471376 0.108251974 0.29648286 0.33121666
000270 c1 e2 b3 3d 27 55 8a 3d 00 00 00 80 80 35 af bd
       0.08783484 0.06754523 -0.0 -0.08555126
000280 53 ff 81 3e 01 ad ab 3e 61 6f 49 3e 79 32 fb 3d
       0.2539011 0.3353043 0.19671394 0.12265486
000290 e1 14 b1 bc ea 02 71 bd 7a cb 1c bd 36 36 16 be
       -0.021616401 -0.05884067 -0.038279988 -0.14669117
0002a0 87 13 dc 3c f8 3a d2 3d 85 d3 d0 bd a4 4d f6 bc
       0.02686478 0.10265154 -0.10196594 -0.030066319
0002b0 d9 cc f4 bc 01 21 cb bc 59 f1 be bd 2e 85 89 3e
       -0.029882835 -0.02479601 -0.09323377 0.2685942
0002c0 e1 83 26 3d 7e c3 fe bc fc 3d 1b 3e 1e 00 91 3c
       0.040653113 -0.031099077 0.15160364 0.017700251
0002d0 c9 d0 c1 3d d8 64 86 be 77 d4 3f 3e db 1f f4 bc
       0.09463651 -0.26248813 0.18733393 -0.029800346
0002e0 11 ed 71 bd 73 fd 8e 3e 8e 46 93 3d 69 3b 8a bb
       -0.059063975 0.2792774 0.071911916 -0.004218508
0002f0 d1 fc 39 3c 30 9e 05 3e ed bb ee 3b ec d0 00 3e
       0.01135178 0.13048625 0.007285586 0.12579697
000300 7c ea 6e bc 55 aa 91 3e 37 1d 86 bc 19 bc a6 bc
       -0.014582273 0.28450266 -0.016371353 -0.020353364
000310 bb f6 c0 3c 75 5f 8f b9 e0 2f 82 bd 44 29 9f bd
       0.02355515 -0.00027346206 -0.06356788 -0.07771543
000320 aa db 23 bd d7 b9 62 3b 00 00 00 00 9d 66 86 3e
       -0.04000441 0.0034595632 0.0 0.26250163
000330 9a 3b 2e be 09 6a a5 3a 4b 22 76 3d 14 76 5c bc
       -0.17014924 0.0012620102 0.060091298 -0.013455886
000340 66 a3 77 3d 5c 92 b4 ba 88 ae 86 bd 3e 38 3f bc
       0.060458563 -0.0013776529 -0.06576258 -0.011671124
000350 e7 91 00 3d 17 d2 e8 3d 45 5f 5d bc 06 ee 05 3e
       0.031389143 0.113681965 -0.013511484 0.1307908
000360 2d dd bc bc 36 e2 d9 bc b4 b4 b3 bc dc 0e 2c 3c
       -0.023054684 -0.026597124 -0.021936752 0.01050159
000370 ac 07 3e bc ff 00 c4 3e 00 00 00 00 00 83 03 be
       -0.011598509 0.3828201 0.0 -0.12842941
000380 1f 09 a8 3c d3 a9 6b bd 75 a1 b5 3d a0 30 1b 3e
       0.020512162 -0.057535004 0.08868686 0.15155268
000390 86 1d 38 be 3b 16 af 3d cc c4 84 3e 95 29 98 bc
       -0.17980012 0.08549162 0.25931394 -0.018574515
0003a0 a6 05 e4 bc 18 7a ca bd 26 af f0 3e d9 a6 ba ba
       -0.027834725 -0.09886569 0.47008628 -0.0014240398
0003b0 78 ca 44 3e 27 be a8 bd c8 0c 48 bc aa 38 e7 3c
       0.1921786 -0.08239394 -0.012210079 0.028225262
0003c0 10 ab e6 38 f0 2d a1 bd 5d c5 bc 3d d0 bf db ba
       0.000109991175 -0.0787009 0.092173316 -0.0016765539
0003d0 0d 00 e3 3c 0b 23 5b 3d e0 91 4b bb a8 43 54 3d
       0.027709985 0.053500216 -0.003106229 0.051822335
0003e0 d5 fd 49 bd fc b0 00 3d c1 f9 75 3d 98 e7 f7 bb
       -0.04931434 0.031418785 0.060052637 -0.00756545
0003f0 4a a2 ce 3d 9b d6 92 3c e9 40 53 3c f2 1d a0 bc
       0.10089548 0.017924597 0.012893894 -0.019545529

lstm.weight_hh_l0 f4 [384, 96]
000000 d9 98 ad bd 48 4e 93 bd 55 68 60 bb bf fe 52 bd
       -0.08476419 -0.07192665 -0.0034241874 -0.051512476
000010 25 cd a9 3a a5 ae 83 bd 17 95 c8 3d b6 67 d3 3d
       0.0012954815 -0.06429795 0.09794062 0.10322516
000020 d2 cf 07 bd 3c 73 22 be 6e 7f 99 3c 4a 80 39 bd
       -0.033157177 -0.15864271 0.018737521 -0.04528836
000030 40 b3 b2 3b 4c 19 0a 3e aa 5c ed bc a1 ac 1b be
       0.005453497 0.13486212 -0.02897485 -0.15202571
000040 81 5e 60 3e 6c 27 57 be a7 98 db bd 1c 99 93 bd
       0.2191105 -0.21011132 -0.107224755 -0.07206938
000050 86 ec 93 3c 78 c7 a6 3c 5e dc ef bc 3d 3f 47 3d
       0.01805712 0.020358786 -0.029279884 0.048644293
000060 81 e4 bc 3d 35 ac c4 3c 3a 7f 04 be 34 20 a4 be
       0.09223271 0.024007896 -0.12939158 -0.3205582
000070 4c 68 e5 bc 79 86 f1 3a 06 a3 6e bd 20 70 4b 3e
       -0.028003834 0.0018426917 -0.05826094 0.19866991
000080 cc ef 1d be ff b1 a1 be 45 e9 65 bd 45 8d ca bb
       -0.15423506 -0.31581113 -0.056130666 -0.0061813914
000090 d1 2c e1 3d 1e fc 0a 3d 56 92 12 bd ca ba 56 3e
       0.10994876 0.033931844 -0.035784088 0.20969692
0000a0 5c b5 1f bd e0 ff 02 3e b6 93 84 3d 13 40 a2 bc
       -0.038991317 0.12792921 0.06473486 -0.019805944
0000b0 e0 42 b8 bc d4 f8 92 bd db 76 65 be 9b 9d cc 3d
       -0.022492826 -0.071763664 -0.22408621 0.09990998
0000c0 40 d8 49 bc dc fc a3 bd 5f cc a9 bd aa 73 77 bd
       -0.012319624 -0.080072135 -0.08290934 -0.06041304
0000d0 92 d0 a4 3d 17 53 67 3d e2 29 40 3e e6 fa 00 3c
       0.08047594 0.056475725 0.18765977 0.007872319
0000e0 d2 40 54 3e f7 48 8a 3d 95 4b 53 bd 69 bc a4 3c
       0.20727852 0.06752198 -0.051585753 0.020109372
0000f0 55 cf 55 bd 9a b4 26 3e 05 7a 49 bc 25 42 31 be
       -0.05219968 0.16279832 -0.012297158 -0.17310388
000100 5d a7 63 bb 43 2e 90 3d 3e c0 8a bc 95 03 43 bd
       -0.0034737207 0.07040074 -0.016937371 -0.047610838
000110 52 ca d0 3c 0f 2e 08 bc 97 8c 78 3d 34 46 f7 3c
       0.025487099 -0.0083117625 0.060680952 0.030184843
000120 fd 8e 12 be c3 8c 23 bd 4c 8d 31 bd 3b 40 09 3c
       -0.14312358 -0.039929163 -0.04334764 0.00837713
000130 f9 64 8b 3d f5 da d8 bc 19 fd 8e bd 08 e6 94 3d
       0.068063684 -0.026471594 -0.06981868 0.072704375
000140 b5 f8 a7 bd dd 8b 7e be a7 2a 53 3d 07 9a 90 3d
       -0.08201734 -0.24858041 0.05155435 0.070606284
000150 34 22 07 be 51 82 45 be 64 49 cb bd 6a 82 cf 3d
       -0.13196641 -0.19287993 -0.099261075 0.101322964
000160 b7 16 f8 3c 46 c9 c3 3c 01 21 d7 bc cd ae 01 be
       0.030284269 0.023899686 -0.026260855 -0.12664337
000170 01 1a f2 3d 98 47 cb bd a9 94 8f 3c 22 85 d2 3a
       0.11821366 -0.09925765 0.017526941 0.0016061405
000180 f4 e8 56 3e 04 09 43 3e e4 c3 ee bb dd b4 0d 3e
       0.20987302 0.19046408 -0.0072865356 0.13838525
000190 90 5c 0e bd 0b 1c 33 be 03 dc 9d 3c 3d 26 9e 3c
       -0.034756243 -0.17491166 0.019269949 0.019305343
0001a0 88 26 25 be 67 51 e1 3d 44 23 10 3e b6 9d 59 bd
       -0.1612798 0.110018544 0.14075953 -0.05312892
0001b0 1b 76 0d 3d b0 9d 43 be 65 a0 53 be 12 44 17 bd
       0.034536462 -0.19103122 -0.20666654 -0.03693015
0001c0 1e 8c ed 3a 3c 8f 8f bd fa 6c 04 3e 77 4f bb bc
       0.0018123423 -0.07009742 0.12932196 -0.02286504
0001d0 22 25 1f 3e 66 ba 0a 3e a5 78 4a 3e ce ba 09 3e
       0.15541509 0.13547668 0.19772585 0.13450167
0001e0 35 b1 f0 be 03 95 c6 3d 7b 38 fd bd 84 cf 2c 3e
       -0.47010198 0.096963905 -0.123642884 0.16876036
0001f0 55 d2 40 be 84 39 4f 3e b7 27 7a bd b7 c3 89 3d
       -0.18830235 0.20236784 -0.06107303 0.06726783
000200 e7 ed 13 3e de 66 2d 3e 4a 0a 09 3e 31 89 5b 3c
       0.14446221 0.16933772 0.13382831 0.013399408
000210 16 6d 85 bd 2c de b9 bd f9 0f 52 bc 53 4d c1 3e
       -0.06514947 -0.09075579 -0.012821191 0.37754306
000220 76 e9 87 3d 3d b2 39 3e f8 53 e1 bb a3 eb 26 bd
       0.06636326 0.18134399 -0.006876465 -0.040752064
000230 49 b7 d3 3b 55 fe b5 be 98 79 cb 3d db 72 6b 3e
       0.0064610583 -0.35545602 0.099353015 0.22993033
000240 87 ea 32 be a5 83 60 3d c1 79 ff ba 86 ff 86 bd
       -0.17472278 0.054813046 -0.0019491242 -0.06591706
000250 1e 78 5a 3e 69 27 6d be d4 cc 01 3e 0c 6f 2b 3e
       0.21334884 -0.23159565 0.12675792 0.1674158
000260 a9 3b 05 3e d8 b2 19 3b 97 99 f3 3c 22 89 59 bd
       0.1301104 0.0023452546 0.029736323 -0.053109296
000270 73 ca 3e bd 30 4b 41 bc c8 5a 9e bd dd c9 00 3d
       -0.04657979 -0.011797711 -0.07732159 0.03144251
000280 e4 47 87 3e 84 66 96 3e c1 99 5d bd 85 42 56 3e
       0.26422036 0.29375088 -0.05410171 0.20923813
000290 41 87 95 ba e9 0c 5f bb d1 6d 82 bd 25 dc ad 3d
       -0.0011408107 -0.0034034795 -0.06368602 0.08489255
0002a0 35 dd 41 be 5e 24 f1 bc 8b ab 39 be 33 e3 1f 3d
       -0.1893204 -0.029436287 -0.18131845 0.039035033
0002b0 27 a5 c6 bb 14 b6 44 3d c9 76 f1 3c 5a 75 03 be
       -0.006062168 0.048025206 0.029475586 -0.12837735
0002c0 90 1c 98 3a e1 a1 b7 bc 78 96 04 3e 30 94 12 bd
       0.0011605192 -0.022416057 0.12948024 -0.035785854
0002d0 17 55 8c bd fa b9 13 be 12 ef 23 3d 80 f0 7a bd
       -0.06852167 -0.14426413 0.040022917 -0.061264515
0002e0 31 d5 ab 3e 9f 32 55 bc 30 e1 5e bc ef 5c 91 bc
       0.3356109 -0.013012557 -0.013603494 -0.01774451
0002f0 dd 2a 81 bd dd 84 9b 3b 81 61 56 3e 16 45 24 3c
       -0.06307004 0.004746063 0.20935632 0.010026237
000300 01 0e 5b 3c e7 04 ce bb 0c 1f 59 be 0b 22 11 bd
       0.013370038 -0.0062872055 -0.2120325 -0.035432857
000310 f2 df 1c 3d 31 5a 72 be d3 46 db 3e 07 65 bd 3e
       0.03829951 -0.23667218 0.42827472 0.3699114
000320 99 7c 15 3d 34 ba 47 be 67 3a 00 3f 82 e6 99 bc
       0.03649578 -0.19504625 0.50089115 -0.018786673
000330 24 b4 93 3e 88 fb 08 bc 48 48 d5 bd 1e 09 05 3e
       0.28848374 -0.008360751 -0.10414177 0.12991759
000340 2e a6 aa 3c 8d 6c 71 bd 4c 36 96 3d b1 ca 30 3e
       0.020831194 -0.058941413 0.07334575 0.1726482
000350 f2 bc b0 3e 66 a5 63 bd 4a 79 c7 3d d6 91 e6 bc
       0.34519154 -0.055577658 0.09739931 -0.028145712
000360 d3 f5 67 bd 6b 0c b0 3d ab 6e 9c bc d7 8f 33 3e
       -0.05663092 0.085961185 -0.01909574 0.1753534
000370 42 ca d6 3c 5d 8c 75 be 04 74 0f bd f9 fd 18 be
       0.02621949 -0.23979326 -0.03502275 -0.14940633
000380 20 51 62 3e 82 ef 26 3d 58 47 11 3e 0d f0 8b 3e
       0.22101259 0.040755756 0.14187372 0.27331582
000390 45 d1 58 3d dd a5 5b be e7 2c b2 3e f4 50 a4 3d
       0.05293395 -0.2144999 0.34799883 0.08023253
0003a0 c0 23 09 3c f4 55 70 be 03 52 9d be 0f 1a 3b 3e
       0.00837034 -0.23470289 -0.30726632 0.1827166
0003b0 3e ba b0 bd 32 15 b1 bd 4e f9 87 3e 49 14 97 3c
       -0.08629273 -0.08646621 0.26557392 0.01844229
0003c0 84 14 ab bd 47 03 6c bc e7 18 af 3d 2a ce fc 3d
       -0.083535224 -0.014405078 0.085496716 0.1234401
0003d0 87 58 f9 bd a2 91 0b bf 4c 7b e3 3d 44 d3 ca bd
       -0.121750884 -0.54519093 0.111075014 -0.09903577
0003e0 b2 ec 00 bf 31 92 83 be 5f bc 50 3e d7 06 89 bd
       -0.5036117 -0.25697473 0.20384358 -0.06690758
0003f0 11 4f 1c be fa d9 80 be 7c c8 ca be 5a 5e 1f 3d
       -0.15264536 -0.25166303 -0.39606082 0.03890834

lstm.bias_ih_l0 f4 [384]
000000 3c b5 ae 3d ef b1 ec 3b de a5 33 3d d4 46 30 bd
       0.085306615 0.00722336 0.043859355 -0.043036297
000010 07 ae 2f bd 4f 46 59 3e 80 8f f8 3c d2 31 c3 bc
       -0.042890575 0.21218227 0.030341864 -0.023827467
000020 f6 3a 13 3c 86 09 e0 3c d6 a1 14 3e 36 18 90 3b
       0.008986225 0.027348291 0.1451486 0.0043974174
000030 c0 aa 07 3e a9 18 d0 3c bb e8 59 bd c7 45 28 3c
       0.1324873 0.025402384 -0.053200465 0.010270542
000040 12 3d a6 3d b0 fc b0 3c 5d e3 12 3d 6a 64 36 bb
       0.08117117 0.021604866 0.03586136 -0.0027830848
000050 a2 83 75 3d 8c ad 33 3c 4c 92 a2 bd 5b c6 91 3d
       0.059939988 0.01096667 -0.0793806 0.071179114
000060 b4 a4 a2 3d 5c 4c c9 3d d8 cf 05 3d c4 c7 0f 3e
       0.07941571 0.098290175 0.03266892 0.14041048
000070 c6 b6 3a bb 93 b5 a8 3d d3 ef 80 bc 07 6b 7d 3d
       -0.002849029 0.082377575 -0.015739357 0.061869647
000080 ae 11 19 3d 79 21 ad 3d 78 45 e5 3c 50 d2 43 3d
       0.037370376 0.0845365 0.027987227 0.04780799
000090 81 de 10 3e d6 2d 38 3d dc 4c 34 bc 6f 55 77 3d
       0.14147379 0.044965588 -0.011004653 0.06038421
0000a0 51 11 86 3c e9 46 40 3d 71 73 82 bd 51 5b 1b 3e
       0.016365679 0.046942625 -0.06369675 0.15171553
0000b0 96 ba 0e 3e 88 f7 1e bd da b5 d3 ba 5e 66 24 bd
       0.13938364 -0.038810283 -0.0016152218 -0.040136687
0000c0 36 99 a9 3d dc 44 60 3d 88 07 ca 3d aa f5 b3 bd
       0.08281176 0.05475317 0.09864718 -0.08787091
0000d0 1e f1 ba bd 21 63 49 3c f1 7f 12 3e 5a 01 0d 3c
       -0.09128021 0.012291701 0.14306618 0.008606279
0000e0 07 d9 98 3d 95 44 b9 3d e5 0b 42 bb 16 66 16 3d
       0.0746327 0.09046284 -0.002960914 0.03671845
0000f0 21 94 09 3e 63 82 94 3c d5 a3 3b 3e 43 2a 3a 3c
       0.13435413 0.01812858 0.18324216 0.011362615
000100 4a aa 29 3e 46 ae 4c bb 44 3a c6 bd 64 68 03 3e
       0.16568866 -0.0031231805 -0.09679082 0.1283279
000110 ce 47 a6 3a 99 e5 21 3d f5 ff 10 bc 19 cc 7d bd
       0.0012686194 0.039525602 -0.008850087 -0.06196222
000120 ea e9 7b 3d e6 04 a5 bc ce 8e 92 bd 2c 73 8e 3d
       0.061502375 -0.020143937 -0.07156144 0.06955561
000130 96 51 04 3e 50 d9 61 bd 7d 5c 74 3d e4 b8 a1 3d
       0.12921748 -0.055138886 0.059658516 0.07896593
000140 45 7c 00 3d 58 2a 2b 3d 8f 1d cd 3c 96 f4 81 3d
       0.031368513 0.04178843 0.025038509 0.06345479
000150 cc 05 91 3c 71 1e 08 3d 21 2a 56 bb 9f c2 b4 3c
       0.01770296 0.033232156 -0.003267892 0.022065459
000160 2c d6 8e 3d 25 a7 1a 3e cb e1 b3 3d 4b 6e e2 3c
       0.06974444 0.15102823 0.08783301 0.027640482
000170 f9 b6 ea 3d 25 5d 46 3d 54 cc 5d 3d 68 21 b8 3b
       0.114606805 0.048428673 0.05414994 0.0056192167
000180 d8 23 6f 3d 1d 6a 7b 3d fb 2e 94 3d 18 93 c2 3c
       0.058383793 0.061380494 0.07235523 0.02375178
000190 a5 8e f5 3c 84 f5 1b 3d 14 34 cb 3d 74 b8 12 3d
       0.029975245 0.03807594 0.099220425 0.03582044
0001a0 c9 2e 1b 3d 68 09 d8 3d 20 8d 6b 3d 32 03 8c 3d
       0.037886415 0.10548669 0.057507634 0.06836547
0001b0 ac 04 55 3d 2b da df 3c b7 54 43 3c d1 3b 5c 3d
       0.05200641 0.02732571 0.011922053 0.053767983
0001c0 b7 a5 18 3d bc 10 6b 3d ec 08 12 3e 60 ad 73 3d
       0.037267413 0.057389006 0.14261216 0.059491515
0001d0 9d 0a a8 3d 73 59 aa 3d 64 91 a2 3d 86 3e 5c 3d
       0.08205149 0.08317842 0.07937887 0.053770564
0001e0 6a 9a cb 3d 42 3f ed 3c 8b 06 16 3e 3a 41 c0 3b
       0.099415615 0.028960828 0.14650933 0.0058671506
0001f0 62 39 60 3d e3 83 85 3d 25 29 c6 3d 6c 36 01 3d
       0.054742225 0.06519296 0.096758164 0.03154604
000200 19 1a 9b 3d d3 ba 42 3d 26 91 92 3d 46 fe 8d 3d
       0.07573337 0.04754145 0.07156591 0.069332644
000210 4d 1a 04 3e 49 a0 38 bc 0d 79 4a 3d 24 1f 7d bc
       0.12900658 -0.011268684 0.04943185 -0.015449319
000220 26 9c 1c 3d b2 6d 59 3d ac 06 00 bb ad 9d db 3d
       0.038234852 0.05308313 -0.0019535227 0.10723434
000230 69 fe fe 3d bf 78 df 3d 2c 4f 04 3d b8 22 e4 3c
       0.12450869 0.10911702 0.032302067 0.027848586
000240 3b 0d cc 3c ec f7 e1 3d 94 0c 9f 3d 56 c6 3e bb
       0.024908653 0.110336155 0.07766071 -0.0029109917
000250 86 38 1e 3d f6 71 d0 3c f1 75 f1 3d d6 6d 38 3d
       0.038628124 0.025444966 0.11790074 0.045026623
000260 12 79 d1 3d 8c 61 a6 3d bd 3a c1 3d 03 74 b2 3d
       0.102281705 0.08124074 0.094350316 0.08713534
000270 53 bc 39 3c 09 a6 c4 3d e1 e4 90 3d fe bf 41 3d
       0.011336404 0.09601981 0.07074905 0.04730224
000280 11 f3 69 3d 8e 3f ac 3d e1 56 14 3d 96 bc fb 3c
       0.05711657 0.084105596 0.036215667 0.030729573
000290 7e 37 90 3c 1f 6e e5 3c d9 09 26 3c 24 8d 03 3d
       0.017604586 0.028006611 0.010134184 0.032117024
0002a0 d5 d5 17 3d b7 3e c0 3d 3d 95 c4 3b b9 a2 82 3c
       0.03706916 0.09386962 0.005999236 0.015946733
0002b0 39 7b 84 3d 6f 57 89 3d 51 a3 b4 3d 16 43 5b 3d
       0.06468815 0.0670613 0.08820213 0.053530775
0002c0 0c 9f 0c 3e 32 7c dc 3c 6e 45 e8 3c 9b 31 e9 3c
       0.13732547 0.02691469 0.02835342 0.028466037
0002d0 7c 7e a4 bc b0 41 2f 3d 85 52 84 3d 42 58 d9 3c
       -0.020079844 0.042787254 0.06461052 0.026531342
0002e0 f2 39 c4 3c f6 bd 4c 3d 45 ba bb 3d 8d ed f5 3c
       0.023953412 0.04998585 0.091663875 0.0300205
0002f0 00 e1 b1 3d ab ed 09 3d 45 5a 0f 3e 1a 03 a8 3d
       0.086854935 0.033673923 0.13999279 0.082037166
000300 64 3b 2b 3d 3c 88 83 3c 76 98 38 3c cd 51 a6 3c
       0.041804686 0.016056173 0.011266818 0.020302678
000310 b6 4a df 3d 37 7b 17 bc 73 3a 8a 3d e0 2d 31 bd
       0.10902922 -0.009245685 0.067494296 -0.04325664
000320 a8 41 18 bb 55 9a 8b bd 7d f7 01 bd a7 44 e0 3c
       -0.0023232494 -0.06816546 -0.031730164 0.027376486
000330 e8 92 fc bc 76 92 38 bd 51 42 c3 3d a5 a2 06 3d
       -0.03083177 -0.04506155 0.09534133 0.032869954
000340 88 94 12 bd ab a2 17 3c ca 6e 00 3c 27 2c 89 bd
       -0.03578618 0.009255092 0.007838914 -0.066978745
000350 68 ff d6 bc 22 bf 0e bd ab 06 4c 3b c1 c8 ee bb
       -0.026244834 -0.034850247 0.0031131904 -0.0072871153
000360 18 8e b1 bc 19 c4 92 bd e9 67 05 bd 47 3c cf bc
       -0.0216742 -0.07166309 -0.0325698 -0.025297297
000370 aa d6 6b 3d 02 58 58 3c 50 af 19 3c 2e 9b 7e bc
       0.057577766 0.013204576 0.009380177 -0.015539927
000380 f3 a0 59 bc e2 17 02 bd 1f e9 fe bc 1c f3 a9 3d
       -0.013283002 -0.031761058 -0.03111702 0.082983226
000390 ec 3d c0 3c c4 f2 2f bd 23 19 13 3d 3b 4d 5f 3c
       0.023467027 -0.04295613 0.035912644 0.013629253
0003a0 66 94 54 ba f0 19 af bd 41 50 0e 3c 4d d6 40 3b
       -0.00081092713 -0.08549869 0.008686126 0.0029424608
0003b0 eb 26 2a 3d bb 70 77 bb e7 69 19 3c 0c 1e 71 bd
       0.04154102 -0.0037756402 0.009363628 -0.058866546
0003c0 ca 3d 69 bd 76 c0 8a 3c 1f e1 03 3d 07 f3 63 3d
       -0.056943692 0.016937476 0.032197114 0.05565169
0003d0 e0 60 4c bd ab 2c 2a 3c fc 1a 13 bd a4 f6 66 bd
       -0.049897075 0.010386626 -0.035914406 -0.05638756
0003e0 3a a2 d4 bd 05 2d e0 ba ea d5 7c 3d 56 3c 0f 3d
       -0.10382505 -0.0017103261 0.06172744 0.03496965
0003f0 65 1d 84 3c 7b 5b 8c bc b0 30 37 bd c5 76 04 bd
       0.016127298 -0.017133465 -0.044724166 -0.03233983

lstm.bias_hh_l0 f4 [384]
000000 48 57 a3 3d ef b1 ec 3b e0 a5 33 3d 04 4c 30 bd
       0.07975632 0.00722336 0.043859363 -0.043041244
000010 ef ad 2f bd 4f 46 59 3e 80 8f f8 3c cc 31 c3 bc
       -0.042890485 0.21218227 0.030341864 -0.023827456
000020 f6 3a 13 3c 8a 09 e0 3c 04 26 14 3e 26 18 90 3b
       0.008986225 0.027348299 0.14467627 0.00439741
000030 c0 aa 07 3e a9 18 d0 3c bf e8 59 bd 69 44 28 3c
       0.1324873 0.025402384 -0.05320048 0.0102702165
000040 ec 3c a6 3d b0 fc b0 3c 5d e3 12 3d b2 f8 23 bb
       0.08117089 0.021604866 0.03586136 -0.002502006
000050 9e 83 75 3d 8c ad 33 3c 4c 92 a2 bd 01 cb 8f 3d
       0.059939973 0.01096667 -0.0793806 0.07021142
000060 b8 a4 a2 3d 5c 4c c9 3d d8 cf 05 3d bc c7 0f 3e
       0.07941574 0.098290175 0.03266892 0.14041036
000070 c6 b6 3a bb 95 b5 a8 3d e3 ef 80 bc 07 6b 7d 3d
       -0.002849029 0.08237759 -0.015739387 0.061869647
000080 3c 11 19 3d 79 21 ad 3d 78 45 e5 3c 4c d2 43 3d
       0.03736995 0.0845365 0.027987227 0.047807977
000090 81 de 10 3e d6 2d 38 3d dc 4c 34 bc 25 60 77 3d
       0.14147379 0.044965588 -0.011004653 0.060394425
0000a0 51 11 86 3c e9 46 40 3d c7 79 82 bd 6b 5b 1b 3e
       0.016365679 0.046942625 -0.063708834 0.15171592
0000b0 98 ba 0e 3e 88 f7 1e bd da c8 d3 ba 46 66 24 bd
       0.13938367 -0.038810283 -0.0016157881 -0.040136598
0000c0 4a 99 a9 3d dc 44 60 3d 88 07 ca 3d aa f5 b3 bd
       0.08281191 0.05475317 0.09864718 -0.08787091
0000d0 20 f1 ba bd 21 63 49 3c f3 7f 12 3e 5a 01 0d 3c
       -0.09128022 0.012291701 0.14306621 0.008606279
0000e0 2d d9 98 3d 95 44 b9 3d e5 0b 42 bb 16 66 16 3d
       0.07463298 0.09046284 -0.002960914 0.03671845
0000f0 15 94 09 3e ed 82 94 3c d5 a3 3b 3e c7 2a 3a 3c
       0.13435395 0.018128837 0.18324216 0.011362738
000100 0c a9 29 3e f6 ad 4c bb 44 3a c6 bd 64 68 03 3e
       0.16568393 -0.0031231618 -0.09679082 0.1283279
000110 74 b6 9c 3a 95 e5 21 3d f5 ff 10 bc 21 cc 7d bd
       0.0011956231 0.039525587 -0.008850087 -0.06196225
000120 ea e9 7b 3d e6 04 a5 bc ce 8e 92 bd 20 73 8e 3d
       0.061502375 -0.020143937 -0.07156144 0.06955552
000130 a2 51 04 3e 50 d9 61 bd 7d 5c 74 3d 22 b9 a1 3d
       0.12921765 -0.055138886 0.059658516 0.078966394
000140 45 7c 00 3d 58 2a 2b 3d 8f 1d cd 3c 97 f4 81 3d
       0.031368513 0.04178843 0.025038509 0.0634548
000150 fc 05 91 3c 71 1e 08 3d 35 3a 54 bb 73 c2 b4 3c
       0.017703049 0.033232156 -0.0032383327 0.022065377
000160 2c d6 8e 3d 25 a7 1a 3e cb e1 b3 3d 4b 6e e2 3c
       0.06974444 0.15102823 0.08783301 0.027640482
000170 db b6 ea 3d fb 5c 46 3d 54 cc 5d 3d 68 21 b8 3b
       0.11460658 0.048428517 0.05414994 0.0056192167
000180 d8 23 6f 3d 1d 6a 7b 3d fb 2e 94 3d b4 8e c2 3c
       0.058383793 0.061380494 0.07235523 0.023749687
000190 a5 8e f5 3c 84 f5 1b 3d 14 34 cb 3d c4 bb 12 3d
       0.029975245 0.03807594 0.099220425 0.0358236
0001a0 c9 2e 1b 3d 68 09 d8 3d d2 93 6b 3d 7e 03 8c 3d
       0.037886415 0.10548669 0.05751402 0.068366036
0001b0 ac 04 55 3d 2b da df 3c bd 54 43 3c 35 3b 5c 3d
       0.05200641 0.02732571 0.011922059 0.0537674
0001c0 c9 a5 18 3d bc 10 6b 3d ec 08 12 3e 60 ad 73 3d
       0.03726748 0.057389006 0.14261216 0.059491515
0001d0 9d 0a a8 3d 73 59 aa 3d 64 91 a2 3d 86 3e 5c 3d
       0.08205149 0.08317842 0.07937887 0.053770564
0001e0 6a 9a cb 3d 42 3f ed 3c 8b 06 16 3e ea 45 c0 3b
       0.099415615 0.028960828 0.14650933 0.0058677094
0001f0 62 39 60 3d e3 83 85 3d 25 29 c6 3d 6c 36 01 3d
       0.054742225 0.06519296 0.096758164 0.03154604
000200 af 2c 9c 3d d3 ba 42 3d 2c 91 92 3d 44 fe 8d 3d
       0.0762571 0.04754145 0.071565956 0.06933263
000210 4d 1a 04 3e 49 a0 38 bc fb 78 4a 3d 14 1f 7d bc
       0.12900658 -0.011268684 0.049431782 -0.015449304
000220 28 9c 1c 3d b2 6d 59 3d 9c 06 00 bb bb 9d db 3d
       0.03823486 0.05308313 -0.001953519 0.10723444
000230 e3 fe fe 3d 65 b8 df 3d 20 4f 04 3d 36 13 e4 3c
       0.124509595 0.10923842 0.032302022 0.027841192
000240 3b 0d cc 3c ec f7 e1 3d 94 0c 9f 3d 56 c6 3e bb
       0.024908653 0.110336155 0.07766071 -0.0029109917
000250 86 38 1e 3d f6 71 d0 3c f1 75 f1 3d d6 6d 38 3d
       0.038628124 0.025444966 0.11790074 0.045026623
000260 12 79 d1 3d 8c 61 a6 3d bd 3a c1 3d 03 74 b2 3d
       0.102281705 0.08124074 0.094350316 0.08713534
000270 45 bc 39 3c 09 a6 c4 3d e1 e4 90 3d fe bf 41 3d
       0.011336391 0.09601981 0.07074905 0.04730224
000280 11 f3 69 3d 8e 3f ac 3d e1 56 14 3d 96 bc fb 3c
       0.05711657 0.084105596 0.036215667 0.030729573
000290 e8 31 90 3c 1f 6e e5 3c d9 09 26 3c 80 dc 03 3d
       0.017601922 0.028006611 0.010134184 0.032192707
0002a0 d5 d5 17 3d b5 3e c0 3d 75 9b c4 3b f3 a3 82 3c
       0.03706916 0.093869604 0.0059999772 0.015947318
0002b0 5e 35 85 3d 6f 57 89 3d 51 a3 b4 3d 16 43 5b 3d
       0.065043196 0.0670613 0.08820213 0.053530775
0002c0 0c 9f 0c 3e 32 7c dc 3c 6e 45 e8 3c 9b 31 e9 3c
       0.13732547 0.02691469 0.02835342 0.028466037
0002d0 88 8d aa bc b0 41 2f 3d 85 52 84 3d 44 58 d9 3c
       -0.02081944 0.042787254 0.06461052 0.026531346
0002e0 ea 39 c4 3c 98 be 4c 3d 41 ba bb 3d 8d ed f5 3c
       0.023953397 0.049986452 0.091663845 0.0300205
0002f0 00 e1 b1 3d a5 ed 09 3d 43 5a 0f 3e 1a 03 a8 3d
       0.086854935 0.0336739 0.13999276 0.082037166
000300 80 3d 2b 3d 3c 88 83 3c 76 98 38 3c cd 51 a6 3c
       0.041806698 0.016056173 0.011266818 0.020302678
000310 b6 4a df 3d 37 7b 17 bc 73 3a 8a 3d 2e 4d 31 bd
       0.10902922 -0.009245685 0.067494296 -0.043286495
000320 a8 41 18 bb 55 9a 8b bd 9b f5 01 bd cd 5b e0 3c
       -0.0023232494 -0.06816546 -0.03172837 0.027387524
000330 e0 8f fc bc 78 92 38 bd 41 44 c3 3d a5 a2 06 3d
       -0.030830324 -0.04506156 0.09534503 0.032869954
000340 ba ba 12 bd ab a2 17 3c c2 6e 00 3c 27 2c 89 bd
       -0.035822608 0.009255092 0.007838907 -0.066978745
000350 50 ff d6 bc be c2 0e bd ab 06 4c 3b 71 c7 ee bb
       -0.02624479 -0.03485369 0.0031131904 -0.007286959
000360 18 8e b1 bc 19 c4 92 bd e9 67 05 bd 47 3c cf bc
       -0.0216742 -0.07166309 -0.0325698 -0.025297297
000370 aa d6 6b 3d 06 58 58 3c 4a ae 19 3c 2e 9b 7e bc
       0.057577766 0.01320458 0.009379933 -0.015539927
000380 fb 3c 5a bc 62 17 02 bd 1f e9 fe bc 6a e3 a9 3d
       -0.013320203 -0.03176058 -0.03111702 0.08295329
000390 ee 3d c0 3c c4 f2 2f bd 23 19 13 3d 3b 4d 5f 3c
       0.02346703 -0.04295613 0.035912644 0.013629253
0003a0 e6 93 54 ba e6 19 af bd 49 50 0e 3c 4d d6 40 3b
       -0.0008109197 -0.085498616 0.008686134 0.0029424608
0003b0 eb 26 2a 3d bb 70 77 bb f7 69 19 3c 3a 1e 71 bd
       0.04154102 -0.0037756402 0.009363643 -0.058866717
0003c0 ca 3d 69 bd fe ca 8a 3c e5 e0 03 3d 07 f3 63 3d
       -0.056943692 0.016942497 0.032196898 0.05565169
0003d0 e0 60 4c bd ab 2c 2a 3c e6 1a 13 bd a4 f6 66 bd
       -0.049897075 0.010386626 -0.035914324 -0.05638756
0003e0 e2 a2 d4 bd 05 2d e0 ba ea d5 7c 3d 56 3c 0f 3d
       -0.1038263 -0.0017103261 0.06172744 0.03496965
0003f0 49 1d 84 3c 63 31 b6 bc b0 30 37 bd c5 76 04 bd
       0.016127246 -0.022240346 -0.044724166 -0.03233983

lstm.weight_ih_l1 f4 [384, 96]
000000 a6 91 2a 3d 62 06 a0 bd 02 ac 0f 3e 6a b9 5d 3e
       0.041642807 -0.078137174 0.1403046 0.21652761
000010 02 99 89 3c ec 25 4a bc 29 92 78 bd ca da 13 bd
       0.016796593 -0.012338143 -0.060686264 -0.036097325
000020 4b b0 cf 3d 20 52 df bd 46 45 7b be f9 09 fc bd
       0.10141047 -0.10904336 -0.24538144 -0.1230659
000030 17 10 d0 3b 1c a0 98 bd 4c 26 21 3e 44 f3 bd bd
       0.0063495743 -0.074524134 0.15737265 -0.09274915
000040 3b 57 be bc 3f bd 1e bd 8e 3d 10 3d d0 49 ca 3d
       -0.023234954 -0.038754698 0.035214953 0.0987736
000050 e7 d0 22 bc e0 72 2f bc dd 5f 98 3d b3 41 f4 bc
       -0.0099375015 -0.010708541 0.074401595 -0.029816484
000060 24 09 5c 3c 6e e3 70 bd 2c 0f ea 3c 28 9f 47 bd
       0.013429914 -0.058810644 0.028571688 -0.048735768
000070 03 b1 ab 3d 32 15 19 be 4f c6 eb bc 08 a2 bb 3d
       0.08383372 -0.14949492 -0.028781084 0.091617644
000080 3d e3 3c be d9 13 45 bd 27 b4 00 bc 3c 6c 3a bd
       -0.1844606 -0.04811463 -0.007855452 -0.045513377
000090 4a 92 1d be 50 2c 38 bd 27 ae 46 3b 1b f1 13 3d
       -0.15387836 -0.044964135 0.0030316205 0.036118608
0000a0 fa 66 03 be b2 3d f4 3d 08 e6 05 3e 54 9c 6a 3d
       -0.12832251 0.1192583 0.13076031 0.057277992
0000b0 b9 8f 81 3d 18 56 82 3d 9f 1f 58 3e c5 3b 58 3d
       0.06326241 0.06364077 0.21105812 0.052791376
0000c0 da 2f e9 3c 5e 42 36 3c a4 cc 05 3c b9 9a 5f bd
       0.0284652 0.011124222 0.008166466 -0.054590914
0000d0 28 32 2b 3e 10 53 0e be 54 90 98 bd 15 e8 3c 3d
       0.16718352 -0.13898873 -0.074494034 0.04611977
0000e0 17 30 d2 3d e4 2c 98 bc 50 29 81 be 2c f4 99 3d
       0.10263079 -0.018576093 -0.2522683 0.07517275
0000f0 21 43 28 3d 89 21 ae 3d a0 d3 12 3d 71 0e 3d bd
       0.041079644 0.0850249 0.035846353 -0.04615635
000100 d7 15 49 3d 26 5e c4 bb 86 37 53 be 12 7a bf bd
       0.049093094 -0.0059926687 -0.2062665 -0.09349455
000110 24 12 80 3d 5e fd 0d 3d 92 f4 25 3d ca d3 10 be
       0.0625346 0.034665458 0.040516444 -0.14143291
000120 e6 86 43 3d f0 02 96 3d 75 01 cc bd 66 68 2c 3d
       0.04773607 0.07324779 -0.099612154 0.04209175
000130 5f c3 cd 3c de 84 d4 3c 78 51 83 3d 1e 10 8d bd
       0.025117574 0.025942262 0.06412023 -0.0688784
000140 06 4d a2 3d 8d 62 01 3e a3 54 09 3c fe c7 ac 3c
       0.07924847 0.1263525 0.008381995 0.021091457
000150 dd 6a 83 bd 8d 55 6a bd 4e a4 83 bc b8 29 71 bd
       -0.06416867 -0.057210494 -0.016069558 -0.058877677
000160 e1 49 a7 3c a9 a6 1d be fd e3 2b bd 0f f3 7b 3d
       0.02042097 -0.15395607 -0.041965473 0.061511096
000170 07 ab bb bc 31 59 33 bd a5 dd ed bb 48 5d 93 bd
       -0.0229087 -0.04378623 -0.007259088 -0.07195526
000180 5a d0 28 3d 3b 0a 42 3e e3 0a 5c be 84 83 85 bd
       0.041214325 0.18949215 -0.21488528 -0.06519225
000190 3f aa 29 bd a3 6d 71 be f9 fe 13 3d f4 91 9f 3e
       -0.041422125 -0.2357698 0.036131833 0.3116604
0001a0 0b 79 a7 bd b6 ba d7 bd 22 de 31 be e6 37 e5 bd
       -0.08177384 -0.10533659 -0.17369893 -0.111923024
0001b0 7b 54 60 bd cf 84 43 3d 23 a9 00 3e a8 04 8c 3e
       -0.054768067 0.047734078 0.1256452 0.27347302
0001c0 db 52 fc bd fe 44 00 be d6 ca f2 3c e0 f8 55 3e
       -0.12320491 -0.12526318 0.029637735 0.2089572
0001d0 d5 77 48 bd d7 c3 17 be 14 0d 5a 3e ba 0c 2f 3f
       -0.048942406 -0.148208 0.21294051 0.68378794
0001e0 93 71 ac be e6 ff 92 3e 7d d8 4f 3e fd 15 37 be
       -0.336804 0.2871086 0.20297427 -0.17879482
0001f0 f4 b9 c4 3d 64 90 26 bd 3c ab 5f bb f7 a1 47 be
       0.0960578 -0.040665045 -0.0034129163 -0.19495378
000200 31 8b c7 3d ad da 17 be 56 d3 c2 3d 28 0d 5b be
       0.097433455 -0.14829512 0.095129654 -0.21391737
000210 64 fd e2 bb c6 9a 90 b9 30 90 80 bc 67 74 b7 bd
       -0.006927179 -0.00027581136 -0.015693754 -0.08957749
000220 9b 33 fa bd f8 f0 fd bc 87 21 b2 3e 9f e0 95 be
       -0.12216874 -0.030998692 0.34791204 -0.29272935
000230 bb 98 5a 3e b0 06 0b be 79 ba 96 be 53 13 ee 3d
       0.21347325 -0.1357677 -0.29439142 0.116247796
000240 95 2b 60 bd 58 5d 13 3d be fa ae bc 5f 34 11 be
       -0.054729063 0.03597769 -0.021359798 -0.14180134
000250 56 53 12 3e b8 ad ca bc 99 aa 7e 3e 07 c9 3e 3e
       0.14289603 -0.024741039 0.24869765 0.18631373
000260 cd 56 be 3d 6f c7 82 3d 88 9f 4a 3d 28 ed f9 b9
       0.092939 0.06385695 0.049468547 -0.00047669676
000270 c1 d5 9a bd 36 c3 67 3e 37 c5 8f bc 24 5c a1 bc
       -0.075603016 0.22633061 -0.017550094 -0.019697256
000280 ba 9c fd 3d bb f7 9a 3d 47 f8 a6 be 1e b3 b0 be
       0.12383409 0.07566782 -0.32611296 -0.34511656
000290 62 b9 8b bd 94 a6 3b 3e 36 0f c3 be 7d ad a9 3e
       -0.06822468 0.18325263 -0.38097543 0.33140174
0002a0 9f 5d 26 bd 46 9b 06 3d b7 7a 42 3e 3d c3 59 bd
       -0.040616628 0.032862924 0.18992124 -0.05316471
0002b0 93 f1 6a be a0 20 08 be 43 a7 b4 bb b7 3f b0 bd
       -0.22943716 -0.13293695 -0.005513103 -0.08605903
0002c0 4e 72 c4 bc 09 38 a7 be 67 f3 1a 3e 8d 3c d3 be
       -0.023980286 -0.3265994 0.15131913 -0.41257134
0002d0 2f 93 b2 bd 32 82 75 3e e3 aa 70 3e 83 3d 19 3e
       -0.08719479 0.23975447 0.23502688 0.14964871
0002e0 b5 86 21 bc 07 17 84 3e 32 da 10 be 4a 5e 06 be
       -0.009858777 0.25798818 -0.14145735 -0.13121906
0002f0 79 38 88 bc d1 26 b4 3d 0f 7a 21 3e 03 0c 10 bd
       -0.01662849 0.08796466 0.15769218 -0.035167705
000300 78 6a 99 3d ad 3c 3c be 59 26 43 bd 3e 06 7c 3d
       0.074910104 -0.18382521 -0.047643993 0.06152939
000310 bb 29 00 bd d3 38 15 bd 1d 5f 4a bc 3b f9 18 bd
       -0.031289797 -0.036431145 -0.012351778 -0.03734706
000320 69 11 f4 3d 40 d3 05 3e 7a 83 67 3b c2 b4 2a be
       0.11917383 0.13068867 0.003532617 -0.16670516
000330 9e ee 2a 3d 68 4c af bd ff 65 13 3d c4 b8 46 bd
       0.04173147 -0.08559495 0.035985943 -0.04851605
000340 39 d1 00 3e 0a 84 c9 3d 81 23 c7 bd 69 d2 c9 3b
       0.12579812 0.098396376 -0.09723569 0.006159116
000350 b5 e7 ca bd f6 f7 1b 3d 08 1c 5d bc 3f 24 9c 3d
       -0.09907476 0.03807827 -0.013495453 0.07624101
000360 69 98 e6 bd 20 20 1a 3d fc 16 0a bd d4 ac bc 3b
       -0.11259539 0.037628293 -0.033713326 0.0057579074
000370 8f e4 e2 3d 51 13 5e 3e ae b9 f6 3d 9f 4f dc 3d
       0.1107875 0.21687056 0.12047134 0.10757374
000380 5f 6c e6 3d 29 1e 3e 3b 04 24 e4 3b 63 70 87 3d
       0.11251139 0.0029009676 0.006962301 0.06613233
000390 9f 79 2b 3d 73 40 26 be 78 6c 5a 3d 5c 48 06 3e
       0.041864034 -0.16235523 0.0533261 0.1311354
0003a0 29 b2 5f 3d 47 79 e0 3d df 34 b6 3d 3f 39 17 bd
       0.054613266 0.10960632 0.08896803 -0.03691983
0003b0 b8 8c 1a bd 45 96 ae bd b3 72 e5 bd f4 c5 e2 3c
       -0.037731856 -0.085247554 -0.11203518 0.027682282
0003c0 8d 8e b4 bc 43 f5 9a 3d c7 70 9e bd 4a 40 98 bc
       -0.02204063 0.07566311 -0.07736354 -0.018585343
0003d0 ac 0e 97 3b f7 91 9c 3d 43 06 63 3e 38 67 a4 3d
       0.0046099033 0.07645028 0.22170357 0.080275
0003e0 54 f2 04 3d ee 43 82 3d e6 a1 b0 bd e3 60 c7 3c
       0.032457665 0.06360613 -0.0862463 0.024338191
0003f0 2a a1 10 bd 40 b6 a2 3d 57 9a 43 bd 84 20 bb bc
       -0.035309948 0.07944918 -0.04775461 -0.022842653
