models/cnn_model.pth (torch, 816280 bytes, 7 tensors)

features.0.weight f4 [32, 1, 3]
0	0x3f82f11c	1.0229831
1	0x3f05ba61	0.52237517
2	0xbfcc679e	-1.5969121
3	0x3e869f0c	0.26293218
4	0x3e1a7a50	0.15085721
5	0xbecc31d3	-0.39881763
6	0xbf17ed49	-0.59346443
7	0x3fb5ccd2	1.4203131
8	0xbf6a85fd	-0.916107
9	0x3eaf3a98	0.3422439
10	0x3dd1247c	0.10212037
11	0xbecec382	-0.40383536
12	0x3f72af84	0.94799066
13	0xbf8d7c5f	-1.105358
14	0xbe8ca408	-0.27468896
15	0xbe456e5e	-0.19280383
16	0xbfc2336b	-1.5171942
17	0x3fb388d7	1.4026135
18	0x88b4b6c6	-1.0876326e-33
19	0x88b5ae47	-1.0934514e-33
20	0x88c25047	-1.1694823e-33
21	0xbfb5cffe	-1.4204099
22	0x3eac7032	0.33679348
23	0x3f962b31	1.1731931
24	0x3e8dfc01	0.27731326
25	0x3f32c629	0.6983362
26	0xbf9c0d4c	-1.2191558
27	0xbf52f7fe	-0.82409656
28	0xbf57f3b5	-0.8435624
29	0x3f3a7633	0.7283661
30	0xbf92503e	-1.1430738
31	0x3fabaefd	1.3412777
32	0xbf813b2c	-1.0096183
33	0xbf3e5c36	-0.7435945
34	0xbe3b4782	-0.18288997
35	0x3f724829	0.9464136
36	0x88bb3343	-1.1266705e-33
37	0x88c0490e	-1.1572755e-33
38	0x88b2d597	-1.07632e-33
39	0xbe437257	-0.19086586
40	0x3eb2e445	0.3493978
41	0x3f175439	0.5911289
42	0x3f413cf2	0.7548362
43	0x3f264ef3	0.64964217
44	0x3e95ca88	0.29256082
45	0xbca498f9	-0.020092474
46	0x3f14c5be	0.5811423
47	0xbf02f789	-0.5115896
48	0x88bc0aca	-1.1317375e-33
49	0x88be93e3	-1.1469977e-33
50	0x88b5e53b	-1.0947433e-33
51	0x88b318eb	-1.0779029e-33
52	0x88bb62e1	-1.1277899e-33
53	0x88b73466	-1.1026231e-33
54	0xbfa76dbd	-1.3080364
55	0x3f7a3e58	0.9775138
56	0x3eafe3b7	0.3435342
57	0x3eb176e2	0.34661013
58	0xbe7dbb2e	-0.24778435
59	0xbd38d560	-0.045125365
60	0x3e97ad31	0.29624322
61	0x3eee93f4	0.46597254
62	0x3f5c9745	0.8616832
63	0x88c32ee6	-1.1747161e-33
64	0x88c049a7	-1.1572895e-33
65	0x88b3836b	-1.0804067e-33
66	0xbf9ed667	-1.240918
67	0x3f95c5ad	1.1700951
68	0xbf593b0f	-0.8485574
69	0x3e89fc80	0.26950455
70	0xbf804568	-1.0021181
71	0x3f10dd0b	0.56587285
72	0xbf6ddbd0	-0.9291353
73	0xbedfd854	-0.43719733
74	0x3f9aa127	1.208043
75	0xbf60685c	-0.8765924
76	0x3ecf38e5	0.40473095
77	0x3eb832c8	0.35976243
78	0xbf39e076	-0.72608125
79	0xbf2b756d	-0.6697605
80	0x3fa8f43c	1.3199534
81	0x88bcd186	-1.1364097e-33
82	0x88bb2784	-1.1263943e-33
83	0x88c0181c	-1.1561248e-33
84	0x88c251a9	-1.16951485e-33
85	0x88c30f3e	-1.1739719e-33
86	0x88bc9f92	-1.1352353e-33
87	0xbea2db6d	-0.31808034
88	0xbf03723c	-0.5134618
89	0x3f5f15d7	0.871427
90	0xbfc87b94	-1.5662713
91	0x3f88451d	1.0646092
92	0x3ecf224e	0.4045586
93	0x3f6b3ad0	0.91886616
94	0x3ec76a0b	0.38948092
95	0xbfacf823	-1.3513225

features.0.bias f4 [32]
0	0xbe43bed0	-0.19115758
1	0x3e841385	0.25796142
2	0xbeca52ea	-0.39516383
3	0x3d4495a6	0.04799428
4	0x3ef10c89	0.47079876
5	0x3ed5e43f	0.417757
6	0x00000000	0.0
7	0xbf28e4d7	-0.6597418
8	0x3f1fdbf4	0.62444997
9	0x3e0be421	0.13661243
10	0xbd89c82f	-0.06727635
11	0xbe0c7210	-0.13715386
12	0x00000000	0.0
13	0xbfc6ea11	-1.5540181
14	0xbfb1f693	-1.3903373
15	0xbfb2c8ec	-1.3967566
16	0x00000000	0.0
17	0x00000000	0.0
18	0xbf375b7e	-0.7162398
19	0xbf4dba96	-0.8036283
20	0xbfa28dfe	-1.2699583
21	0x00000000	0.0
22	0xbe44d0dd	-0.192203
23	0x3f204bc1	0.6261559
24	0xbdc7ca8a	-0.09755428
25	0x3eb755a6	0.35807532
26	0xbdb30071	-0.087403186
27	0x00000000	0.0
28	0x00000000	0.0
29	0xbf32923b	-0.6975438
30	0xbe6fb809	-0.23410048
31	0xbe01f996	-0.12692866

features.4.weight f4 [64, 32, 3]
0	0xbcacc8c5	-0.021091828
1	0xbc684f12	-0.014179008
2	0xbea05730	-0.3131652
3	0xbcacc43e	-0.02108967
4	0x3e8733bf	0.26406667
5	0xbe43593b	-0.19077007
6	0xbe552c43	-0.20817666
7	0x3d6c070e	0.057623915
8	0xbe14071c	-0.14455837
9	0x3bc002a5	0.0058596903
10	0x3e08084a	0.13284412
11	0xbd2250d4	-0.039627865
12	0x3e8fcad9	0.28084448
13	0xbe40678c	-0.187895
14	0xbe999d48	-0.3000281
15	0x3d9701c4	0.07373384
16	0x3d5c5e3f	0.053800818
17	0xbf07c88b	-0.5304038
18	0x88b0cf02	-1.0641282e-33
19	0x08b0a387	1.063106e-33
20	0x08b4291c	1.0843021e-33
21	0x3e2be2bb	0.1678571
22	0xbe6d579f	-0.23177956
23	0xbe8d595a	-0.27607232
24	0xbf276992	-0.6539546
25	0x3b0fcd94	0.0021942602
26	0xbf0b93df	-0.5452251
27	0xbef6c19b	-0.48194584
28	0x3e4c048c	0.1992361
29	0xb82aaee7	-4.069405e-05
30	0xbe804084	-0.25049222
31	0x3e36c901	0.17850114
32	0xbe7f3e61	-0.2492614
33	0x3e5acbbd	0.21366782
34	0xbe7513cf	-0.23933338
35	0xbf14b7eb	-0.58093137
36	0x08b403cf	1.0834251e-33
37	0x88b2549a	-1.0732875e-33
38	0x08bb4ce6	1.1272732e-33
39	0x3d8457d0	0.064620614
40	0x3d1d36b3	0.038382243
41	0x3c9422d8	0.018083021
42	0x3cee31e1	0.029076518
43	0x3cc18d40	0.023626924
44	0x3c913630	0.017726034
45	0x3b2c23ac	0.002626638
46	0x3e5022d2	0.20325783
47	0xbd6f59f0	-0.05843538
48	0x08be3284	1.1447085e-33
49	0x88b3b7cc	-1.0816381e-33
50	0x08b1d27e	1.07022865e-33
51	0x88b86e3b	-1.1100012e-33
52	0x08befb90	1.1494351e-33
53	0x88be79c1	-1.1463833e-33
54	0x3e66e090	0.22546601
55	0xbdba2620	-0.09089303
56	0xbe2eb539	-0.17061318
57	0x3ebd8d7e	0.37022012
58	0x3d33c936	0.04389306
59	0xbde32ac0	-0.11092138
60	0x3c9b8748	0.018985406
61	0x3cc05122	0.023476187
62	0x3cb495a9	0.02204402
63	0x88bbc591	-1.1301101e-33
64	0x88b75dff	-1.103601e-33
65	0x08ba3af1	1.1208325e-33
66	0xbce25f71	-0.0276334
67	0x3e5f7bd9	0.21824588
68	0x3d3e8694	0.046515062
69	0x3db05a7f	0.08611011
70	0xbd8885d9	-0.066661544
71	0xbf0bf76d	-0.54674417
72	0x3e3efe82	0.18651775
73	0xbe9aff8f	-0.302731
74	0xbf66555d	-0.89974004
75	0x3e91f809	0.28509548
76	0xbef2e50e	-0.4744038
77	0xbee99bd7	-0.4562671
78	0x3c387463	0.0112582175
79	0xbe1c3bda	-0.15257207
80	0xbf286384	-0.6577685
81	0x08b607c9	1.0955557e-33
82	0x08bc010a	1.1315083e-33
83	0x08b11895	1.0658579e-33
84	0x88bdbf6c	-1.1420027e-33
85	0x08b5b529	1.0936132e-33
86	0x88c0fcb3	-1.1614989e-33
87	0x3d95233c	0.07282111
88	0x3da672f5	0.08127395
89	0xbed7c42f	-0.42141864
90	0x3d2be628	0.04196754
91	0xbeb2e16d	-0.3493761
92	0xbebbe8e1	-0.3670111
93	0x3ce37101	0.027763845
94	0x3d014562	0.03156031
95	0xbe977c58	-0.29587054
96	0x3d235dd5	0.039884407
97	0xbd08f541	-0.033437017
98	0xbe012b6a	-0.12614217
99	0x3e80a691	0.2512708
100	0x3d658611	0.05603606
101	0xbcea8351	-0.02862707
102	0xbdb078ac	-0.08616766
103	0x3da69fdc	0.081359595
104	0xbe91083f	-0.28326604
105	0x3d029f68	0.031890303
106	0x3cd52833	0.026020145
107	0xbdeb150c	-0.11478624
108	0x3f006bb9	0.5016437
109	0xbeb474fc	-0.35245502
110	0xbdb1d4c8	-0.08683163
111	0x3e3bf34a	0.18354526
112	0x3c788064	0.015167329
113	0x3ce91eb3	0.028457021
114	0x08b4f0d2	1.08899725e-33
115	0x08b220de	1.0720712e-33
116	0x88bf54b2	-1.1515306e-33
117	0xbdd7d2ae	-0.10538231
118	0x3db69e13	0.08916869
119	0xbebe1333	-0.37124023
120	0x3e81c9cd	0.25349274
121	0x3e1147a8	0.14187491
122	0x3e86c6d2	0.26323563
123	0xbeef8e64	-0.46788323
124	0x3ce702e3	0.028199619
125	0xbe2b4dfc	-0.16728967
126	0x3db66b66	0.089072034
127	0x3f06fb3e	0.52727115
128	0xbdacda79	-0.08440108
129	0xbd75a4e7	-0.059971716
130	0x3d22f9b7	0.039788928
131	0xbef1429d	-0.47121134
132	0x08b23334	1.0725023e-33
133	0x08b9ae2e	1.1175232e-33
134	0x08bba950	1.1294458e-33
135	0x3c6696cf	0.0140740415
136	0xbc89afa9	-0.016807394
137	0xbd0ed30c	-0.03486924
138	0x3e28be3f	0.16478823
139	0xbc29a659	-0.010354602
140	0xbc2ab664	-0.010419462
141	0x3e048313	0.12940626
142	0xbd0f3043	-0.034958135
143	0xbe6a719d	-0.22894903
144	0x08b7d99e	1.1065073e-33
145	0x08c24b69	1.1693679e-33
146	0x88c14e97	-1.1634241e-33
147	0x08b444ec	1.0849559e-33
148	0x08befa1d	1.149401e-33
149	0x88ba4fc0	-1.1213217e-33
150	0xbdc763c5	-0.097358264
151	0x3dd061d9	0.10174913
152	0xbf199eeb	-0.60008115
153	0x3da33452	0.07968964
154	0x3da7f526	0.08201055
155	0xbded61c3	-0.11590912
156	0x3be1e900	0.006894231
157	0x3a33a150	0.00068523455
158	0xbbb71cee	-0.0055881655
159	0x08bcd702	1.13653865e-33
160	0x88ba33ff	-1.1206692e-33
161	0x88bc8022	-1.1344962e-33
162	0xbe540a29	-0.20707001
163	0x3f0bfc89	0.54682213
164	0xbe2d935a	-0.16950741
165	0x3e7572fd	0.23969646
166	0xbb5846a8	-0.0033001099
167	0x3eaabab4	0.33345568
168	0xbd021b89	-0.03176454
169	0xbd4f1abc	-0.050562605
170	0xbea031e4	-0.31288064
171	0xbe1e9b0b	-0.15488832
172	0x3d973783	0.07383635
173	0xbef62208	-0.4807284
174	0x3d4bd607	0.04976466
175	0xbe0264c8	-0.12733757
176	0xbe279b6f	-0.16367887
177	0x08c2a317	1.17142925e-33
178	0x88b849ef	-1.1091479e-33
179	0x08b96464	1.1157884e-33
180	0x88bb6821	-1.1279134e-33
181	0x88bc20f9	-1.132259e-33
182	0x88b8f15d	-1.1130841e-33
183	0x3d5ac860	0.05341375
184	0xbdad5a32	-0.08464469
185	0xbe583129	-0.21112503
186	0xbe4c96f0	-0.19979453
187	0x3e134d8d	0.14385052
188	0xbf477fb3	-0.7792923
189	0x3d8ff0cc	0.0702835
190	0xbd0ea480	-0.03482485
191	0x3c80f4c9	0.015741723
192	0x3e2d686a	0.16934362
193	0x3d07ac20	0.033123136
194	0x3d199dae	0.03750389
195	0x3dd14a83	0.1021929
196	0x3be00e15	0.006837616
197	0xbe052544	-0.13002497
198	0xbd3945b6	-0.045232497
199	0xbe36244b	-0.17787282
200	0x3e905034	0.2818619
201	0x3ddad220	0.106846094
202	0x3ddb886a	0.10719378
203	0xbe1a29a4	-0.15054947
204	0xbe8b50a1	-0.27209952
205	0xbe8905b3	-0.2676216
206	0xbd50e08a	-0.050995387
207	0xbd980c79	-0.07424254
208	0xbdc50f75	-0.09622089
209	0xbed43a57	-0.4145076
210	0x88bbd285	-1.1304146e-33
211	0x88b95dd4	-1.1156341e-33
212	0x88b4b548	-1.0875975e-33
213	0xbdeabe99	-0.11462135
214	0xbc7b7adf	-0.015349119
215	0xbc3fb016	-0.011699697
216	0xbee61dcb	-0.44944605
217	0xbe9b790c	-0.3036579
218	0xbdba7589	-0.09104449
219	0xbf1290cb	-0.57252187
220	0xbe7c4d31	-0.24638821
221	0xbe602387	-0.21888553
222	0x3de39168	0.111117184
223	0x3e7cda02	0.24692538
224	0xbe3a37d5	-0.1818536
225	0x3df7d7c5	0.12101702
226	0x3d0cd1ba	0.0343797
227	0x3cb5f0c5	0.022209534
228	0x08b9197f	1.1140277e-33
229	0x88b3dc2e	-1.0824935e-33
230	0x88b642b3	-1.09694075e-33
231	0x3e22b095	0.15887673
232	0xbc75883f	-0.014986097
233	0xbd8a3c68	-0.06749803
234	0x3caee211	0.021348031
235	0x39d5911f	0.0004073465
236	0xbd304cca	-0.04304198
237	0xbd77005c	-0.060303077
238	0xbbe03f08	-0.0068434514
239	0x3d1a1d36	0.037625514
240	0x08c2f6f8	1.1734012e-33
241	0x08b59e4b	1.0930756e-33
242	0x88bb0884	-1.1256655e-33
243	0x88bb111b	-1.1258675e-33
244	0x88b48de4	-1.0866714e-33
245	0x08bd4854	1.1392028e-33
246	0x3df71fd9	0.12066621
247	0x3d6674b2	0.056263633
248	0xbd0cbd4f	-0.034360226
249	0x3e8fb474	0.28067362
250	0x3d0e516b	0.034745615
251	0xbcd0baa2	-0.025479618
252	0x3d4fa5b7	0.050695147
253	0xbc86a24b	-0.01643481
254	0x3d8f1f8e	0.069884405
255	0x08b0b795	1.0635775e-33

features.4.bias f4 [64]
0	0x3d69bc3b	0.057064276
1	0xbe46fa84	-0.19431502
2	0xbeb46a37	-0.35237285
3	0xbf0249c5	-0.50893813
4	0xbd06b328	-0.0328857
5	0xbeee0c87	-0.46493933
6	0xbe7c41cc	-0.24634475
7	0xbeb5284b	-0.35382304
8	0x3e1ef169	0.15521778
9	0xbf05c1d9	-0.52248913
10	0xbedaf74b	-0.42766795
11	0xbe5184ca	-0.20460811
12	0xbdfb2852	-0.1226355
13	0xbe6c8196	-0.23096308
14	0xbda9250c	-0.08259019
15	0xbec21092	-0.37903267
16	0xbde0553e	-0.10953759
17	0xbe413579	-0.18868054
18	0xbd94e4a8	-0.07270175
19	0xbe32b9b8	-0.17453659
20	0xbeb1daad	-0.3473715
21	0xbe99d7b1	-0.30047372
22	0xbebd855c	-0.37015808
23	0xbf2bae54	-0.6706288
24	0xbef58416	-0.47952336
25	0xbea3a832	-0.3196426
26	0xbe916dfd	-0.28404227
27	0x3dcb25fe	0.09919356
28	0x3d06d935	0.03292199
29	0xbedc1c1a	-0.4299019
30	0xbecb1869	-0.3966706
31	0xbe87f387	-0.26552984
32	0xbd976073	-0.07391443
33	0xbdd01c71	-0.10161675
34	0xbeb7b987	-0.35883734
35	0xbe388227	-0.18018399
36	0xbeca3eed	-0.39501134
37	0xbe2e7d39	-0.17039956
38	0xbe375163	-0.1790214
39	0x3e032c7a	0.12809935
40	0xbe293fdf	-0.16528271
41	0xbe3906a4	-0.1806894
42	0xbe3ac290	-0.18238282
43	0xbd333b5a	-0.043757774
44	0xbeebb3c4	-0.46035588
45	0xbe48f7d2	-0.19625786
46	0xbddd06fd	-0.107923485
47	0xbe264fbc	-0.16241354
48	0xbe9f9524	-0.31168473
49	0xbede2e46	-0.4339468
50	0xbf0a65a2	-0.5406133
51	0x3de35fbe	0.11102246
52	0xbeb9128d	-0.36146966
53	0xbe2328c4	-0.1593352
54	0xbf136756	-0.57579553
55	0xbd893949	-0.067003794
56	0xbeab202e	-0.3342299
57	0xbe59b13d	-0.21259017
58	0xbe98a575	-0.29813734
59	0xbd85ca9e	-0.06532787
60	0xbecaddb9	-0.39622286
61	0xbe5ee773	-0.21767978
62	0xbea42488	-0.3205912
63	0x3ce308c5	0.027714143

classifier.0.weight f4 [128, 1536]
0	0x88b336d8	-1.0786064e-33
1	0x88c24aea	-1.16935625e-33
2	0x88bc5504	-1.13348255e-33
3	0x88c32d6a	-1.1746812e-33
4	0x88bdc870	-1.1422146e-33
5	0x88b1eaa0	-1.070796e-33
6	0x88b6ea2b	-1.1008779e-33
7	0x88bc421f	-1.1330383e-33
8	0x88be602d	-1.145782e-33
9	0x88bd2618	-1.13839795e-33
10	0x88bb325c	-1.1266493e-33
11	0x88c2b07b	-1.1717441e-33
12	0x88b79a09	-1.1050125e-33
13	0x88bbbe64	-1.1299414e-33
14	0x88bc247a	-1.1323414e-33
15	0x88c34f04	-1.1754712e-33
16	0x08b8f77a	1.1132279e-33
17	0x88b7976f	-1.1049514e-33
18	0x88b8a3f1	-1.111264e-33
19	0x88c090c2	-1.1589612e-33
20	0x88b2204e	-1.072058e-33
21	0x88bb1223	-1.1258917e-33
22	0x88c16575	-1.1639617e-33
23	0x88bd3aa8	-1.1388814e-33
24	0x88bbbba2	-1.1298765e-33
25	0x88bbe152	-1.1307626e-33
26	0x88bebc93	-1.1479543e-33
27	0x88bf8ca8	-1.15284625e-33
28	0x88be7032	-1.1461586e-33
29	0x88ba05f0	-1.1195864e-33
30	0x88c051fd	-1.1574855e-33
31	0x88bb9a68	-1.1290954e-33
32	0x88bc51f4	-1.13341055e-33
33	0x88bcd47f	-1.1364796e-33
34	0x88bf4424	-1.1511414e-33
35	0x88c216e4	-1.1681332e-33
36	0x88c2b974	-1.171955e-33
37	0x88b66d08	-1.097936e-33
38	0x88c01cb7	-1.15623305e-33
39	0x88bbf98c	-1.1313321e-33
40	0x88b3d0b7	-1.0822239e-33
41	0x88b73a3b	-1.1027602e-33
42	0x88b83e69	-1.108877e-33
43	0x88b60af2	-1.09563e-33
44	0x88c0f71e	-1.1613677e-33
45	0x88c215dc	-1.1681089e-33
46	0x88b4c39e	-1.0879345e-33
47	0x88b31e1d	-1.078025e-33
48	0x88b2366b	-1.0725779e-33
49	0x88b9c57e	-1.1180713e-33
50	0x88b3f1f8	-1.0830057e-33
51	0x88ba4e14	-1.1212824e-33
52	0x88b65474	-1.0973581e-33
53	0x88b6c62c	-1.1000317e-33
54	0x88b774f5	-1.1041408e-33
55	0x88bea47a	-1.1473877e-33
56	0x88b86842	-1.1098608e-33
57	0x88c2decd	-1.17283305e-33
58	0x88bc1b3c	-1.1321241e-33
59	0x88bce773	-1.1369252e-33
60	0x88c0003c	-1.1555635e-33
61	0x88be8820	-1.1467212e-33
62	0x88bea902	-1.1474943e-33
63	0x88c3137e	-1.1740718e-33
64	0x88bbb8a4	-1.1298062e-33
65	0x88b2cd08	-1.0761188e-33
66	0x88b573f1	-1.0920799e-33
67	0x88bb7bc8	-1.1283754e-33
68	0x88ba4cca	-1.1212521e-33
69	0x88b27d7a	-1.0742485e-33
70	0x88c13352	-1.162783e-33
71	0x88ba642f	-1.1218021e-33
72	0x88b1fbf6	-1.0712036e-33
73	0x88bfb510	-1.1537962e-33
74	0x88c1dd23	-1.1667754e-33
75	0x88c0179e	-1.1561132e-33
76	0x88bd9a12	-1.14112455e-33
77	0x88c1e8d4	-1.1670503e-33
78	0x88b25503	-1.07329715e-33
79	0x88b8a943	-1.111389e-33
80	0x88ba1efa	-1.120175e-33
81	0x88bb1d62	-1.1261561e-33
82	0x88c20578	-1.1677236e-33
83	0x88c1da0d	-1.16670285e-33
84	0x88b64f1e	-1.0972327e-33
85	0x88b4cae3	-1.0881054e-33
86	0x88b8c22c	-1.1119747e-33
87	0x88b5d8a3	-1.0944472e-33
88	0x88bdab09	-1.1415234e-33
89	0x88bb3da4	-1.1269145e-33
90	0x88b2c562	-1.075939e-33
91	0x88ba0d0a	-1.1197533e-33
92	0x88beb684	-1.1478118e-33
93	0x88c295e8	-1.1711193e-33
94	0x88b0d611	-1.06429415e-33
95	0x08b7e48f	1.1067646e-33
96	0x88bbfa93	-1.1313563e-33
97	0x88b53c3c	-1.0907702e-33
98	0x88b540c7	-1.090877e-33
99	0x88b31b04	-1.0779522e-33
100	0x88b07dcc	-1.0622189e-33
101	0x88bb246b	-1.1263215e-33
102	0x88c0424c	-1.1571166e-33
103	0x88b6f842	-1.1012092e-33
104	0x88b978a2	-1.1162643e-33
105	0x88bd3129	-1.1386581e-33
106	0x88b6d0e4	-1.10028365e-33
107	0x88bc10a7	-1.1318753e-33
108	0x88c036f0	-1.1568495e-33
109	0x88b1ac7a	-1.0693349e-33
110	0x88bff40a	-1.1552768e-33
111	0x88b09726	-1.06281495e-33
112	0x88b51bd2	-1.0900082e-33
113	0x88b71bc6	-1.1020441e-33
114	0x88bac32a	-1.1240351e-33
115	0x88b79a5b	-1.1050201e-33
116	0x88bf843b	-1.1526482e-33
117	0x88be45c5	-1.1451612e-33
118	0x88b122f3	-1.06610165e-33
119	0x88bf4ce0	-1.1513468e-33
120	0x88c2455c	-1.1692257e-33
121	0x88bd8546	-1.1406356e-33
122	0x88bacc39	-1.124248e-33
123	0x88c0adc6	-1.1596434e-33
124	0x88b61d62	-1.0960634e-33
125	0x88b1aa62	-1.0692857e-33
126	0x88c1c438	-1.1661896e-33
127	0x88b60c00	-1.0956548e-33
128	0x88c1b02b	-1.1657182e-33
129	0x88b0a8ea	-1.0632326e-33
130	0x88b47a39	-1.086209e-33
131	0x88b68716	-1.0985485e-33
132	0x88c31bde	-1.1742687e-33
133	0x88b61187	-1.0957847e-33
134	0x88b1204a	-1.0660391e-33
135	0x88b87486	-1.1101492e-33
136	0x88c14e38	-1.1634154e-33
137	0x88bd33aa	-1.138717e-33
138	0x88c26dd1	-1.1701768e-33
139	0x88c2d165	-1.1725179e-33
140	0x88bf7baf	-1.1524472e-33
141	0x88be35cc	-1.1447857e-33
142	0x88ba6abe	-1.1219563e-33
143	0x88bb787f	-1.1282982e-33
144	0x88b27799	-1.0741103e-33
145	0x88bc4050	-1.1329958e-33
146	0x88b6948b	-1.0988649e-33
147	0x88c1ef56	-1.1672033e-33
148	0x88b9d064	-1.1183275e-33
149	0x88b63df9	-1.0968296e-33
150	0x88b5f477	-1.0951015e-33
151	0x88b7d649	-1.106429e-33
152	0x88b0caae	-1.06402645e-33
153	0x88b30569	-1.0774443e-33
154	0x88b1fcbe	-1.0712219e-33
155	0x88c0165f	-1.1560839e-33
156	0x88bd09d2	-1.13773325e-33
157	0x88b10a85	-1.0655273e-33
158	0x88b7d3cf	-1.1063708e-33
159	0x88c09b32	-1.1592066e-33
160	0x88c2de3a	-1.17281955e-33
161	0x88b625ee	-1.0962644e-33
162	0x88c28988	-1.1708284e-33
163	0x88be35a8	-1.1447824e-33
164	0x88bfb331	-1.1537522e-33
165	0x88bfbf65	-1.1540391e-33
166	0x88bd055c	-1.1376284e-33
167	0x88c0997f	-1.1591666e-33
168	0x88bbf907	-1.1313199e-33
169	0x88b1981e	-1.0688563e-33
170	0x88b8f159	-1.1130838e-33
171	0x88c0e199	-1.1608617e-33
172	0x88baa719	-1.1233752e-33
173	0x88bd3224	-1.1386812e-33
174	0x88b82228	-1.1082127e-33
175	0x88bba789	-1.129404e-33
176	0x88b900de	-1.1134486e-33
177	0x88b7c827	-1.10609675e-33
178	0x88b6459c	-1.0970092e-33
179	0x88bc6d1c	-1.134049e-33
180	0x88be5be5	-1.1456813e-33
181	0x88b59597	-1.092871e-33
182	0x88b20198	-1.071336e-33
183	0x88c038e0	-1.1568951e-33
184	0x88b5d2f1	-1.0943133e-33
185	0x88c1d199	-1.1665041e-33
186	0x88c0369b	-1.1568417e-33
187	0x88b1f4e6	-1.0710375e-33
188	0x88c33161	-1.17477445e-33
189	0x88c0a3f4	-1.1594125e-33
190	0x88b79713	-1.1049429e-33
191	0x08c00ecd	1.1559059e-33
192	0x88b8e0aa	-1.1126915e-33
193	0x88b32ce1	-1.0783722e-33
194	0x88b4aff0	-1.0874719e-33
195	0x88bb75a7	-1.1282313e-33
196	0x88b60fa9	-1.0957408e-33
197	0x88bf78da	-1.1523806e-33
198	0x88b55bd3	-1.0915129e-33
199	0x88ba7aa4	-1.12233005e-33
200	0x88b87d7a	-1.1103597e-33
201	0x88b25f8e	-1.073545e-33
202	0x88b2142a	-1.0717726e-33
203	0x88be6e49	-1.1461137e-33
204	0x88c2ff91	-1.1736034e-33
205	0x88b7fe94	-1.1073763e-33
206	0x88b855e1	-1.1094287e-33
207	0x88bca633	-1.1353912e-33
208	0x88c02438	-1.1564095e-33
209	0x88bca146	-1.1352754e-33
210	0x88b13ae5	-1.0666646e-33
211	0x88c05c5c	-1.1577293e-33
212	0x88b8251b	-1.1082821e-33
213	0x88b14781	-1.06696105e-33
214	0x88bc7a97	-1.1343659e-33
215	0x88bd83aa	-1.1405978e-33
216	0x88b711dc	-1.1018111e-33
217	0x88bb08f5	-1.1256759e-33
218	0x88c087e4	-1.1587527e-33
219	0x88bb7d8d	-1.128417e-33
220	0x88bbd838	-1.1305486e-33
221	0x88bee15d	-1.1488192e-33
222	0x88c05bfa	-1.1577203e-33
223	0x88bb38af	-1.1267979e-33
224	0x88b61739	-1.0959186e-33
225	0x88b17582	-1.0680426e-33
226	0x88b562ce	-1.091677e-33
227	0x88befa8e	-1.1494114e-33
228	0x88b1a743	-1.0692123e-33
229	0x88bae24d	-1.1247671e-33
230	0x88c2d36c	-1.1725655e-33
231	0x88bf3803	-1.1508563e-33
232	0x88b69c5f	-1.0990489e-33
233	0x88b520ed	-1.0901282e-33
234	0x88b6b99e	-1.0997365e-33
235	0x88b5dc58	-1.0945344e-33
236	0x08ba0780	1.1196231e-33
237	0x88b2f839	-1.0771342e-33
238	0x88c1deab	-1.1668114e-33
239	0x88b7e460	-1.1067603e-33
240	0x88b82b2d	-1.1084248e-33
241	0x88b31032	-1.0776978e-33
242	0x88b53450	-1.090584e-33
243	0x88b09290	-1.0627071e-33
244	0x88bc40ed	-1.1330102e-33
245	0x88bd421f	-1.1390569e-33
246	0x88c2e445	-1.1729616e-33
247	0x88c0d4de	-1.16056245e-33
248	0x88b8441d	-1.10901105e-33
249	0x88b5c1b6	-1.09390825e-33
250	0x88b3dc48	-1.08249585e-33
251	0x88b3c494	-1.0819386e-33
252	0x88c272ae	-1.1702911e-33
253	0x88b4fefd	-1.0893303e-33
254	0x88b4e343	-1.0886785e-33
255	0x88bd42ff	-1.1390774e-33

classifier.0.bias f4 [128]
0	0x88bf9908	-1.1531372e-33
1	0x08bc857f	1.1346223e-33
2	0x88b3cbdf	-1.08211005e-33
3	0x3e0b501d	0.1360478
4	0x88b9ae90	-1.1175322e-33
5	0x3e930cc9	0.28720692
6	0x3f03b41e	0.5144671
7	0x3e2d8a10	0.16947198
8	0x3efdd8b0	0.49579382
9	0x3de7b1fb	0.11313244
10	0xbe4157a5	-0.1888109
11	0x3edf82d8	0.43654513
12	0x88b6138e	-1.0958324e-33
13	0x3ef9889d	0.4873704
14	0x88b2a2de	-1.0751275e-33
15	0x88b40725	-1.0835036e-33
16	0x88b80bf4	-1.1076907e-33
17	0x88b6975e	-1.0989313e-33
18	0x3ee75939	0.4518526
19	0x3ee6e80b	0.4509891
20	0x88bcb7b4	-1.1358027e-33
21	0x88b3e1cc	-1.0826255e-33
22	0x3f03517d	0.51296216
23	0x3f037ee7	0.5136551
24	0x3ed2bdc5	0.41160408
25	0x88c1dde3	-1.166793e-33
26	0x3ec04457	0.3755214
27	0x88bab984	-1.1238082e-33
28	0x3ece47b6	0.40289086
29	0xbe15efa5	-0.14642198
30	0x88b0d374	-1.0642327e-33
31	0x88b313f0	-1.0777858e-33
32	0x88b12210	-1.0660808e-33
33	0x3f042ea9	0.516337
34	0x3f03d5f2	0.5149833
35	0x88bf13fe	-1.15000945e-33
36	0x88b7c158	-1.1059367e-33
37	0x3ee387c1	0.4443951
38	0x88bc903e	-1.134875e-33
39	0x88b31d61	-1.0780078e-33
40	0x3e6cddea	0.23131528
41	0x88c2da23	-1.1727234e-33
42	0x88b32434	-1.0781682e-33
43	0x88afccbf	-1.0580565e-33
44	0x3ed062a1	0.40700248
45	0x3ed1dc19	0.40988234
46	0x88b8a6ae	-1.1113283e-33
47	0xbe4de64b	-0.20107381
48	0x3f046258	0.5171256
49	0x88c299a0	-1.1712067e-33
50	0x88baa389	-1.1232915e-33
51	0x3ec4f3e3	0.3846732
52	0x3ef8b2c5	0.4857389
53	0x88b8d17b	-1.1123346e-33
54	0x3efdd2f2	0.49575
55	0x88c23c2e	-1.16900985e-33
56	0x3ee03d68	0.4379685
57	0x3e78321b	0.24237864
58	0x88b15519	-1.0672806e-33
59	0x88b10da6	-1.0656009e-33
60	0xbdd1bb02	-0.10240747
61	0x08b658b0	1.0974577e-33
62	0x3ee84847	0.45367643
63	0x88beaa63	-1.1475267e-33
64	0x88c2ca43	-1.1723502e-33
65	0x88bebeae	-1.1480038e-33
66	0x88c22e25	-1.1686799e-33
67	0x88c2cbb0	-1.1723837e-33
68	0x3edb9d6f	0.4289355
69	0xbe0d621c	-0.13806957
70	0x88b1cf02	-1.0701467e-33
71	0x3d513653	0.0510772
72	0x3edd6d58	0.43247485
73	0x3ed4b513	0.415444
74	0x3efcf3d1	0.49404767
75	0x3f038dcb	0.51388234
76	0x3efc154c	0.49234998
77	0x88b5d4a2	-1.0943531e-33
78	0x3f041253	0.5159046
79	0x88b3d3f2	-1.0822999e-33
80	0x3ee46cd7	0.44614288
81	0xbe19e826	-0.15029964
82	0x3e61ba1e	0.22043654
83	0x88b52f06	-1.0904596e-33
84	0x3ee3714a	0.4442237
85	0x3eca7197	0.39539787
86	0x3edc2caf	0.4300284
87	0x3efb7d2f	0.49118945
88	0x88b1a445	-1.069142e-33
89	0x3f04353f	0.5164375
90	0x88b2c67a	-1.0759647e-33
91	0x3ef9c024	0.48779404
92	0x3e29e703	0.1659203
93	0x88bf5a17	-1.1516574e-33
94	0x88be43be	-1.1451135e-33
95	0x3f00d05a	0.5031792
96	0x3ef1dd03	0.4723893
97	0x88c04c8e	-1.1573578e-33
98	0x3ec85ffe	0.39135736
99	0x3e8a983d	0.27069274
100	0x3ee94647	0.4556143
101	0x3f039172	0.51393807
102	0xbe561284	-0.209055
103	0x3efc6ee9	0.49303368
104	0x88be0b8e	-1.14379255e-33
105	0x3ed08646	0.40727443
106	0xbdb3f9fc	-0.08787915
107	0x88bc5254	-1.1334194e-33
108	0x88b14f73	-1.0671478e-33
109	0x3eca1fae	0.39477295
110	0xbdc1732f	-0.09445798
111	0x88bd034e	-1.1375801e-33
112	0x88b0ff45	-1.0652628e-33
113	0x88b375b2	-1.0800841e-33
114	0x3f030f68	0.51195383
115	0x88b94acd	-1.1151868e-33
116	0x88b45ad3	-1.0854709e-33
117	0x88b444a0	-1.084949e-33
118	0x88c206e2	-1.1677568e-33
119	0x88bbb42c	-1.1297011e-33
120	0x88bf2969	-1.150513e-33
121	0x3ee0649d	0.43826762
122	0x3f043a5f	0.5165157
123	0x88b249aa	-1.0730304e-33
124	0xbd8fd1c4	-0.070224315
125	0x3f037c00	0.51361084
126	0x88bee21a	-1.1488365e-33
127	0x88b2990c	-1.07489665e-33

classifier.3.weight f4 [1, 128]
0	0x88b1a1c4	-1.0690831e-33
1	0x88b0ae2d	-1.0633563e-33
2	0x88c1c461	-1.1661933e-33
3	0x3e002b3a	0.1251649
4	0x08b73eb4	1.1028653e-33
5	0x3e118dbc	0.14214224
6	0x3bbc04c3	0.0057378723
7	0x3e530580	0.20607567
8	0x3c1479a1	0.009062202
9	0x3e66aafd	0.22526164
10	0xbddbe3c7	-0.107368045
11	0x3be5f7d5	0.0070180693
12	0x88c0c3e9	-1.1601638e-33
13	0x3c16a889	0.009195455
14	0x08b22031	1.07205535e-33
15	0x08b6f912	1.1012283e-33
16	0x08b4e0e6	1.0886229e-33
17	0x88b8c4e0	-1.1120382e-33
18	0x3be5b276	0.0070097996
19	0x3be671b9	0.0070325998
20	0x08b95555	1.1154344e-33
21	0x88bf600a	-1.1517973e-33
22	0x3bb5b265	0.005544948
23	0x3bb078d7	0.005385499
24	0x3be00269	0.006836225
25	0x88b887b9	-1.1106005e-33
26	0x3be998b2	0.0071287984
27	0x08b89d98	1.1111147e-33
28	0x3be9422d	0.0071184845
29	0xbdf6594a	-0.12028749
30	0x88b06e70	-1.0618578e-33
31	0x08bb6921	1.1279369e-33
32	0x88c139a1	-1.16293135e-33
33	0x3bb60394	0.0055546258
34	0x3bb12c23	0.005406873
35	0x88b1ee8e	-1.0708884e-33
36	0x08b55425	1.09133235e-33
37	0x3be575b4	0.0070025567
38	0x88bf12dc	-1.1499828e-33
39	0x88b56784	-1.0917878e-33
40	0x3dd38da0	0.10329747
41	0x88b5aa22	-1.0933539e-33
42	0x88b93f45	-1.1149157e-33
43	0x88c013c1	-1.1560224e-33
44	0x3d53b73c	0.051688418
45	0x3bebbcbc	0.0071941298
46	0x08c2d5e0	1.1726232e-33
47	0xbd9c9a7f	-0.07646655
48	0x3bb45234	0.0055029634
49	0x88c1e352	-1.1669208e-33
50	0x08bbe93d	1.1309487e-33
51	0x3de1f24c	0.110325426
52	0x3c5e91ed	0.013584596
53	0x88c0658a	-1.1579451e-33
54	0x3c07ee09	0.008296498
55	0x08bbe7c3	1.130914e-33
56	0x3be1ff61	0.0068968986
57	0x3dde8e83	0.10867026
58	0x88ba5e63	-1.1216658e-33
59	0x08b791c2	1.1048179e-33
60	0xbe3d3299	-0.18476333
61	0x88b5a8b9	-1.0933208e-33
62	0x3be137f1	0.006873124
63	0x08bd33a2	1.1387163e-33
64	0x88c21be6	-1.1682509e-33
65	0x88c2dc8b	-1.17278e-33
66	0x88c31196	-1.174027e-33
67	0x08b693cb	1.09884725e-33
68	0x3d22a678	0.03970954
69	0xbe0200f2	-0.12695673
70	0x08bedb34	1.1486743e-33
71	0x3e1f27f4	0.15542585
72	0x3beb49df	0.007180437
73	0x3be96e21	0.007123724
74	0x3bcf2eda	0.006322724
75	0x3bb0593a	0.0053817304
76	0x3c096303	0.008385423
77	0x88bbb389	-1.1296862e-33
78	0x3bc86ca4	0.0061164666
79	0x08b58afe	1.0926218e-33
80	0x3be53cfc	0.0069957953
81	0xbdc98750	-0.09840262
82	0x3e0858b1	0.13315083
83	0x88b71ebc	-1.10211375e-33
84	0x3bdfef2e	0.0068339324
85	0x3d66fd95	0.05639418
86	0x3be4a60c	0.006977802
87	0x3c06113f	0.008182823
88	0x88b4c36a	-1.0879298e-33
89	0x3bc992f3	0.006151551
90	0x88b5d290	-1.0943044e-33
91	0x3bcb77a7	0.006209332
92	0x3e1e82b9	0.15479554
93	0x88c1a67a	-1.1654903e-33
94	0x08b25d5c	1.0734934e-33
95	0x3bf0eac6	0.007352206
96	0x3bddb13e	0.0067655137
97	0x88c10ce8	-1.1618799e-33
98	0x3be0d2ce	0.0068610674
99	0x3e64ef68	0.22356951
100	0x3be4da1b	0.006984008
101	0x3bbb50c5	0.0057164156
102	0xbd6c80d1	-0.057740036
103	0x3bd777db	0.006575567
104	0x88bc2d0c	-1.1325429e-33
105	0x3be36ef2	0.006940716
106	0xbe4d43a7	-0.20045339
107	0x88bb9182	-1.1288862e-33
108	0x08b7a965	1.1053736e-33
109	0x3bdde6d2	0.0067719007
110	0xbe0f0a1a	-0.13968697
111	0x88b7e65e	-1.1068071e-33
112	0x08b1badd	1.0696731e-33
113	0x88b5a455	-1.09321755e-33
114	0x3bb00a68	0.0053723343
115	0x08baad5e	1.1235226e-33
116	0x88c16dca	-1.1641576e-33
117	0x08b1805a	1.0682975e-33
118	0x08c307b8	1.173795e-33
119	0x08b84312	1.1089865e-33
120	0x88b37a87	-1.0801977e-33
121	0x3be24bd0	0.00690601
122	0x3bd0add6	0.006368379
123	0x08b53124	1.0905094e-33
124	0xbdc0d3b4	-0.09415379
125	0x3bba571b	0.0056866533
126	0x88c3493b	-1.1753352e-33
127	0x08b796ea	1.1049392e-33
