models/dense_model.pth (torch, 156976 bytes, 9 tensors)

network.0.weight f4 [128, 96]
000000 ba 54 b9 88 01 ca c2 88 e8 a5 bc 08 77 07 b9 88
       -1.1154202e-33 -1.1723441e-33 1.1353843e-33 -1.11360375e-33
000010 85 fb bf 88 1f 6a b4 88 1a 5a bd 88 20 c9 c1 88
       -1.1554526e-33 -1.0858305e-33 -1.13962065e-33 -1.1663049e-33
000020 ff 2e b5 88 fc 28 be 88 60 e1 b5 88 99 a5 c2 88
       -1.090459e-33 -1.1444844e-33 -1.0946527e-33 -1.1714882e-33
000030 0b 92 b0 88 49 dc ba 88 33 01 b3 88 84 a2 b2 88
       -1.0626949e-33 -1.1246257e-33 -1.0773453e-33 -1.0751193e-33
000040 44 dc c0 88 c0 e6 b9 88 ef 00 b9 88 09 0f bb 88
       -1.1607364e-33 -1.1188532e-33 -1.1134502e-33 -1.1258188e-33
000050 54 2b b5 88 9b 25 bf 88 18 e1 b4 88 e6 bc b3 88
       -1.0903728e-33 -1.1504235e-33 -1.0886275e-33 -1.081758e-33
000060 88 73 c1 88 df c4 b9 88 4b f2 bd 88 85 3f b7 88
       -1.1642926e-33 -1.1180567e-33 -1.14319865e-33 -1.1028845e-33
000070 a2 da b1 88 8c 5c bf 88 9a 51 bc 88 89 27 bb 88
       -1.07042e-33 -1.1517152e-33 -1.1334023e-33 -1.1263948e-33
000080 3f 13 c1 08 c6 52 b8 88 d7 a2 b0 88 ac 53 b6 88
       1.162029e-33 -1.1093557e-33 -1.0630898e-33 -1.0973398e-33
000090 aa f8 b1 88 a8 24 be 88 92 ce c0 88 c8 6e b6 88
       -1.0711261e-33 -1.1443827e-33 -1.1604144e-33 -1.0979771e-33
0000a0 9e 34 bc 88 7c 2b b4 88 6f 04 bb 88 e0 3c b6 88
       -1.1327209e-33 -1.0843579e-33 -1.1255695e-33 -1.0968038e-33
0000b0 42 5a be 88 4f 40 bb 88 20 00 bc 88 c5 d7 b2 88
       -1.1456429e-33 -1.1269772e-33 -1.1314868e-33 -1.07637125e-33
0000c0 8e 0b c2 88 81 e7 be 88 43 c4 b9 88 47 4f b1 88
       -1.1678667e-33 -1.1489635e-33 -1.1180423e-33 -1.0671438e-33
0000d0 23 7c ba 88 0b 5d b4 88 44 1b b2 88 97 c5 b0 88
       -1.1223652e-33 -1.085523e-33 -1.0719395e-33 -1.0639068e-33
0000e0 0f ed c0 88 b0 e5 b1 88 d8 46 c0 88 23 98 bf 88
       -1.1611312e-33 -1.0706799e-33 -1.1572235e-33 -1.15311615e-33
0000f0 37 4b b9 88 54 b4 c2 88 ca 1c ba 88 6d 56 bd 88
       -1.1151965e-33 -1.1718345e-33 -1.1201236e-33 -1.1395342e-33
000100 c4 3b b9 88 45 9e b7 88 2e 2a b6 88 f3 b3 b8 88
       -1.1148333e-33 -1.1051121e-33 -1.0963643e-33 -1.1116403e-33
000110 42 53 b5 88 de ff bf 88 2e f5 b9 88 88 8e b3 88
       -1.0913115e-33 -1.1555548e-33 -1.1191924e-33 -1.080668e-33
000120 5e 5a b5 88 91 5d bd 88 0f 70 b9 88 fb bf b6 88
       -1.09147865e-33 -1.1397021e-33 -1.1160627e-33 -1.0998861e-33
000130 77 89 c0 88 15 b5 b8 88 71 d0 b8 88 54 31 b5 88
       -1.15878975e-33 -1.1116669e-33 -1.11231015e-33 -1.0905138e-33
000140 f9 9e ba 88 2c fa ba 88 44 ab b3 88 7c d2 c1 88
       -1.1231842e-33 -1.1253283e-33 -1.0813435e-33 -1.166525e-33
000150 16 16 b4 88 0b fd c1 88 d9 00 b3 88 d4 a2 b4 88
       -1.0838548e-33 -1.1675255e-33 -1.077337e-33 -1.0871637e-33
000160 17 4f bc 88 a0 a7 bf 88 4d 48 c0 88 29 17 c2 88
       -1.1333432e-33 -1.1534803e-33 -1.15725775e-33 -1.1681395e-33
000170 c8 7f bc 88 db d6 b7 88 b6 a6 be 88 77 49 c0 88
       -1.134488e-33 -1.1064424e-33 -1.1474403e-33 -1.1572851e-33
000180 d7 ce 4d 3e 5a 5d c1 3c c4 31 77 bc 05 0b c6 3d
       0.20098434 0.023604084 -0.015087549 0.096700706
000190 85 cf 9c bd ed b1 6c bd 70 5c 07 be 44 53 a7 bd
       -0.07656769 -0.05778687 -0.13218856 -0.081701785
0001a0 bf 9e 02 3e 25 97 52 3b 14 75 49 3c 56 b9 2c bd
       0.1275587 0.0032133546 0.01229598 -0.042168938
0001b0 e9 7c a2 3b be 2c 71 bd 7e b1 32 be 8a 8c d2 3c
       0.004958738 -0.05888056 -0.1745052 0.02570178
0001c0 af 9b 2a 3d 13 60 05 bb 6d d5 f4 3d 89 fe c1 3d
       0.041652378 -0.0020351454 0.1195477 0.09472377
0001d0 41 41 39 bd a2 1c 8c 3d 28 a9 2c 3d 92 97 38 3e
       -0.045228247 0.06841399 0.042153507 0.1802657
0001e0 b9 69 48 be bc 27 b6 bd db 6f 56 3d 1f 98 84 bd
       -0.1957158 -0.088942975 0.052352767 -0.06474327
0001f0 e7 46 b8 bd fd 71 f4 3d c6 29 df bd 5a 73 0f 3e
       -0.089978985 0.11935804 -0.108966395 0.14008847
000200 3f f0 be 3d 6a 13 c4 bd ff fa 27 be 3d 95 47 be
       0.09323167 -0.095740154 -0.16404341 -0.19490524
000210 57 50 8e 3d 3f 6e d4 3d 84 7b 26 3e bf 91 2d 3d
       0.06948917 0.1037259 0.16258055 0.042375322
000220 2e 0c 81 3d c0 b8 1c 3e 30 6b 35 b9 4c 61 2b be
       0.06301151 0.15304852 -0.00017301436 -0.16736335
000230 f8 f3 01 3e e0 44 07 be 95 70 0e be 10 8e f5 bd
       0.12690723 -0.13209867 -0.13910134 -0.11989987
000240 37 8b 97 bc ff 2f 27 3e 1a 62 03 bd 02 52 0a be
       -0.018499 0.16326903 -0.03207598 -0.13507846
000250 7b 2a e9 3d f7 64 cf 3d 60 a1 89 bd 2d 68 41 bc
       0.11385056 0.101266794 -0.06720233 -0.011804623
000260 8a 88 4a 3d 3f 05 ab 3d 8a f0 b3 bc f1 42 e5 3d
       0.04944662 0.0835061 -0.021965284 0.11194409
000270 5f 19 30 be f9 f7 40 3d 6c d3 06 3e 03 25 e7 3d
       -0.17197178 0.047111485 0.13166589 0.11286356
000280 d8 19 92 bd ee 69 ba 3c 0d 12 30 3c ef e6 c6 3c
       -0.071338356 0.02275559 0.010746491 0.02428004
000290 a0 60 14 3e d2 4b 20 be dd 2c f0 3d cf 51 a8 3d
       0.14489985 -0.15653923 0.11727307 0.08218729
0002a0 e5 16 0c be 95 73 de bd a5 39 ad bd 89 a6 a5 3c
       -0.13680609 -0.10861889 -0.084582604 0.020221012
0002b0 b3 63 8c bc a1 73 d8 bd c5 b3 38 3e 34 6a 58 bd
       -0.017137384 -0.105689295 0.18037327 -0.05283566
0002c0 8a 78 ce bd f6 ef 8b 3c 20 37 cb 3c ea 29 07 be
       -0.10081585 0.017082196 0.02480656 -0.13199583
0002d0 9e 63 d9 3d b8 9c 96 bd 9f 4b 68 be ae 7d eb bd
       0.106147036 -0.073541105 -0.22685097 -0.11498581
0002e0 7c 85 08 3e 40 14 54 3e 3d b2 37 be 04 33 0b be
       0.1333217 0.2071085 -0.17939086 -0.1359368
0002f0 4c bd 29 bd 8a 22 6b 3d ec 91 ca 3d ad 1e 97 3d
       -0.041440293 0.057405986 0.09891114 0.07378898
000300 37 e1 6e bd dd c2 2d 3e 61 92 ce 3b d2 13 58 bd
       -0.05832025 0.16968866 0.006304071 -0.052753277
000310 2a 92 a5 3b 3c b7 aa 3d 25 b4 92 3d 8e 31 8f 3c
       0.0050528245 0.083357304 0.07163266 0.017479684
000320 f0 2c c6 bc 80 0c fd bd d3 f1 8a 3d c0 30 a0 3d
       -0.02419135 -0.123559 0.067844056 0.07821798
000330 ff e3 17 be 07 b3 f0 3d d2 56 28 3b 63 43 fb 3a
       -0.14833067 0.11752897 0.0025686515 0.0019169863
000340 83 1c f7 3d 3b 60 5b bc 15 46 d1 bd 62 e7 49 3c
       0.12065985 -0.013389642 -0.10218445 0.012323232
000350 ff 6b 2e 3a 46 d4 04 be 95 27 aa 3c f1 a3 2d bd
       0.0006653666 -0.12971601 0.020770827 -0.042392675
000360 72 70 f8 bc 32 41 4f bc 11 46 c0 3d 91 98 1b 3d
       -0.030327056 -0.012649821 0.09388364 0.037987296
000370 58 bc a0 3d 42 7c 38 bd 44 58 00 bd ed ef ce 3d
       0.07848424 -0.045040376 -0.031334177 0.10104356
000380 ec e8 38 bd 43 93 9f bd dd ed ac 3d b1 b9 ae bd
       -0.045144007 -0.0779176 0.08443806 -0.085315116
000390 c5 2d 4f bc 01 7a db 3d fa cf a1 bd 93 ec af bc
       -0.01264519 0.1071663 -0.079009965 -0.021475112
0003a0 08 46 0c bc e6 a1 ad 3d 66 9f 93 bd 10 1a c3 bc
       -0.008561619 0.08478145 -0.07208137 -0.023816139
0003b0 07 34 19 3d 83 23 04 be 12 95 ae 3d fd c6 76 bd
       0.037403133 -0.12904172 0.08524527 -0.060248364
0003c0 e0 47 be 3d 0b 79 09 be 70 e5 e2 3d 20 e0 5e 3d
       0.09291053 -0.1342508 0.11078918 0.05441296
0003d0 8e cc 89 bd db 3d 25 bd b7 f5 c4 3d 0e ba 25 3e
       -0.06728469 -0.040342193 0.09617179 0.16184255
0003e0 ec 9a f8 3d df ba b3 bd 3a 58 1f bc e0 9c 45 bd
       0.12138924 -0.08775877 -0.009725625 -0.04824531
0003f0 33 62 a7 3d c2 b5 30 3c fe 03 b2 3d 46 87 10 3d
       0.08173027 0.010785522 0.08692168 0.035285257

network.0.bias f4 [128]
000000 b3 7c b9 88 b0 c5 8d 3d ee d2 a0 3d b0 f4 ef ba
       -1.1163599e-33 0.069224715 0.07852732 -0.0018307175
000010 27 8b 0d 3d 9a 1b bc bc 4d ab 39 3d 4c a9 16 3d
       0.034556534 -0.02296238 0.04532938 0.036782548
000020 d5 3c c9 3c 90 97 e5 3a 7a 2c 57 bd ac 61 84 3d
       0.02456514 0.0017516483 -0.05253265 0.06463942
000030 5f 0f 6a 3d 8c d9 f7 3c d8 a0 a0 bc 8b ee b7 3c
       0.057143565 0.030255102 -0.019607946 0.022452613
000040 0e 43 a4 3c f9 91 df 3c 8c 7c 1a b9 67 a1 a5 3d
       0.020051505 0.027291285 -0.00014732982 0.08087426
000050 32 2d 51 3d 96 34 93 ba d6 21 43 bd 21 38 5d 3d
       0.051068492 -0.0011230882 -0.04763969 0.054008607
000060 15 4a 86 3c 87 40 00 3d d9 83 1c 3b 0c d0 b0 88
       0.016392747 0.031311538 0.0023882298 -1.0641526e-33
000070 35 24 35 3d 70 56 a2 3c ec 5e 97 3c da 7a 1f bb
       0.044223983 0.019816607 0.01847788 -0.00243347
000080 fe ce 87 bc 6d 12 47 bd 05 72 3b bd 4f 92 e5 3c
       -0.016578194 -0.048601557 -0.045763034 0.028023867
000090 d0 b9 ab 3c 78 6d 09 bd 0a 2e 7b bc 7c 09 e8 3c
       0.020962626 -0.033551663 -0.015330801 0.028324835
0000a0 ae 1d 8d 3a 67 6f cc 3c bb fc e1 3c 74 b6 d3 3c
       0.0010766292 0.024955465 0.027586332 0.025843836
0000b0 7a 17 1c bc 45 49 41 bc d5 0a bb 88 60 4f 8e 3c
       -0.009527082 -0.011797254 -1.12572e-33 0.017371833
0000c0 3e df 26 bd 11 99 35 3b ef 1d 49 3d 41 02 64 3c
       -0.040740244 0.0027709643 0.049100813 0.013916553
0000d0 7a a5 4e ba ee 34 7a bc 22 2a 98 ba 5c 2e 8b bc
       -0.00078829343 -0.0152714085 -0.0011609236 -0.01698988
0000e0 a7 c3 89 bc 9b 04 d1 3d b1 fe 70 bc 96 5b 76 3c
       -0.016816927 0.102059565 -0.014709161 0.015036484
0000f0 cc d4 3a 3d 82 53 98 3b 42 01 6f 3d 2d 59 21 3d
       0.045613095 0.004648627 0.05835081 0.039391685
000100 c6 33 6e 3d 1d ba 36 bd 34 d5 76 bc dc 03 cf bc
       0.058154844 -0.044611085 -0.01506548 -0.025270395
000110 95 55 6c 3c 50 f0 1e bc a7 a2 04 3d 41 cd a8 bc
       0.014424701 -0.00970085 0.03238168 -0.020605685
000120 eb 12 09 bc 69 96 94 3c ef ff bc bc 43 62 fa bc
       -0.008366327 0.018138127 -0.023071257 -0.030564433
000130 fa d8 9d 3c fd cd 08 3d ef a5 40 3b 41 f8 06 3d
       0.019268502 0.03339957 0.002939578 0.032951597
000140 d0 27 42 3c 46 59 ac bc 21 f9 96 3d c5 ea d3 3c
       0.011850312 -0.021038663 0.07371736 0.025868783
000150 d9 44 25 3d 48 79 27 3c cc c8 8a bb a4 52 87 3a
       0.04034886 0.010221787 -0.0042353626 0.0010324311
000160 77 60 8c 3d 28 70 6e bb 6f eb 84 39 5e 8b e6 3c
       0.06854337 -0.0036382768 0.00025352414 0.028142627
000170 71 6c b3 3d dc 4b 22 3d 70 b3 40 bd 47 b0 c2 88
       0.08760918 0.039623126 -0.047046125 -1.1717393e-33
000180 88 49 e4 3c f6 dd 3a 3d f5 fa ec 3c b8 b0 6f bb
       0.027867094 0.045621835 0.02892826 -0.0036573838
000190 8a a7 33 3d 9d c4 c1 88 b4 fc dc 3c 01 32 13 3c
       0.04386095 -1.16619885e-33 0.026975967 0.00898409
0001a0 60 2c e9 bb 35 3e 6f bc 01 ee cd bc 88 47 59 ba
       -0.0071158856 -0.014602234 -0.025137903 -0.0008288552
0001b0 de f5 ae 3b af c8 9b 3b ea 5d c9 3c cf 5e a7 bc
       0.0053393682 0.004754148 0.024580915 -0.02043095
0001c0 59 4a 43 3d b4 40 e5 3c 30 88 8d 3c 0d 62 b4 3d
       0.047678325 0.027984954 0.017276853 0.08807764
0001d0 c1 dc 3b bc 53 8f 3a 3d 27 6e 7e bd 5b d8 ac 3d
       -0.011466206 0.04554684 -0.06211677 0.08439704
0001e0 9e 3e b9 88 05 8b bf b9 43 bf ca bc a8 46 04 bc
       -1.1149004e-33 -0.00036533937 -0.024749404 -0.008073486
0001f0 17 b0 1e 3c 52 1d 1e bd 0c de 41 bc 96 53 04 bc
       0.009685538 -0.03860218 -0.011832725 -0.008076569

network.3.weight f4 [128, 128]
000000 53 2f b1 88 9c 0d f7 3d 02 f4 e7 bc 9d cd 4e 3c
       -1.0663926e-33 0.12063143 -0.028314594 0.012622264
000010 23 cb 59 bd 25 9e af bc 55 3f 42 3d d3 91 6c bd
       -0.053172242 -0.021437714 0.04742368 -0.057756256
000020 42 7b 8e bd eb e2 ba bd 80 8a 38 3d 9f f7 d4 bb
       -0.06957103 -0.091253124 0.04505396 -0.0064992453
000030 00 27 a2 3d 4d 55 41 bc 29 cf cf 3a 72 92 e7 bc
       0.07917595 -0.011800122 0.0015854585 -0.028268073
000040 19 1d 93 3d 39 18 46 3c 9f 68 0a 3e b4 4f 0a bd
       0.07183284 0.012090736 0.13516472 -0.033767417
000050 53 eb a7 bd d5 f9 93 bd 19 d3 63 bd 52 5e a3 3b
       -0.081991814 -0.07225386 -0.05562124 0.004985609
000060 50 49 b0 bc 5e 13 0c 3d ba 20 e1 3d 28 4f b5 08
       -0.021519333 0.034198157 0.1099257 1.0912151e-33
000070 8b 33 df bd 57 a3 b6 bc d2 33 f5 bc 67 52 79 3d
       -0.10898503 -0.022294683 -0.029931936 0.0608696
000080 e5 a8 39 3e 83 4a a8 bd 3b b6 75 3d e9 9c 89 bc
       0.18130834 -0.08217337 0.05998824 -0.016798453
000090 da 22 99 bd de ce 10 3d d2 9b 30 be 5e 10 13 3d
       -0.074773505 0.035353534 -0.1724694 0.03590428
0000a0 76 58 36 be 80 6a aa bd 26 12 21 3d 2b c4 d7 3b
       -0.17807183 -0.083210945 0.03932395 0.0065846643
0000b0 db c3 59 be e0 74 06 be fc 4e b5 08 dd 3f f1 bb
       -0.21266119 -0.13130522 1.091211e-33 -0.0073623494
0000c0 1e 08 c6 bd 3e 92 a2 3d 81 90 8f bd c4 32 0e be
       -0.09669517 0.0793805 -0.07009984 -0.13886553
0000d0 9d 8d a6 3d 5c 20 68 be 61 74 65 bc 97 9f 37 3c
       0.08132479 -0.22668594 -0.014004798 0.011207483
0000e0 0e 6e 0d 3d 9f a8 3a 3d 2a 82 c0 3d 5c ea 65 3e
       0.034528784 0.045570966 0.09399827 0.22452682
0000f0 da e8 30 bc c3 40 b8 bd e2 87 02 3d 3b 0c 7f bd
       -0.010797704 -0.08996727 0.03186787 -0.062267523
000100 34 2e 8c 3b f1 51 4c be ce b0 37 3d 9a 0e 5e 3b
       0.004277969 -0.19953133 0.04484635 0.0033883215
000110 fb 84 0f bd f9 2a 2f bc 8a 24 d1 3d 2e 0c 8d bc
       -0.03503893 -0.010691398 0.102120474 -0.017217722
000120 77 9e dd 3b 08 18 c6 bd 75 cf 69 bc 97 d1 1f 3e
       0.0067632752 -0.09672552 -0.014270653 0.15607296
000130 30 2f 70 3c 3b dc 0b 3d 8b 2f 12 bd 04 a5 54 3c
       0.014659688 0.034145575 -0.03568987 0.012978796
000140 c4 46 b6 3c cf e2 10 bd 47 13 65 bc 16 3d 99 be
       0.02225054 -0.03537255 -0.013981647 -0.29929417
000150 22 11 1a be 04 93 7f bc a1 47 14 3e fa 71 43 be
       -0.15045598 -0.015599016 0.1448045 -0.19086447
000160 c1 33 0c 3e 02 3c 1d be cb a2 56 bd ee 4a 2b be
       0.13691618 -0.15354922 -0.052401345 -0.16727802
000170 99 1a cd bd 91 5b 9b bd ab e2 c8 bd 01 5c bd 88
       -0.10014839 -0.07585824 -0.098088585 -1.1396654e-33
000180 56 8d a3 3d d8 bd 9e 3d e8 73 6b bd 02 b7 26 3d
       0.07985942 0.077510536 -0.057483584 0.040701874
000190 a6 97 fa 3c 6c 15 b9 88 97 0b 8e 3d 5f 93 aa bd
       0.03058989 -1.1139319e-33 0.06935804 -0.0832889
0001a0 20 65 01 3d 2e ed 42 3d 69 16 08 bd f0 a1 89 3d
       0.03159058 0.047589473 -0.033224497 0.0672034
0001b0 8e 56 a1 3d 39 52 84 3d 44 e7 99 bd 50 f5 72 bd
       0.07877837 0.06460995 -0.075148135 -0.05931598
0001c0 c0 13 04 bd 96 3d 9d bc 2a 10 50 3c f3 48 0b 3d
       -0.032245398 -0.019194406 0.012699166 0.034005117
0001d0 6d 98 8f 3d 05 da a7 bc e2 75 18 3d a1 ed 76 bc
       0.07011495 -0.020489702 0.037221797 -0.015071304
0001e0 77 dd be 88 7a c4 87 be 8e f9 de 3c 4e ae b6 be
       -1.1487275e-33 -0.26517087 0.027218606 -0.3567986
0001f0 40 cf 4e bd a2 b3 0f bf 55 96 b3 bd ea 22 4b bd
       -0.050490618 -0.5613347 -0.08768908 -0.049593844
000200 01 73 bb 88 bb fb 1e 3e 7a fe 82 bd 6f 79 c9 bd
       -1.128169e-33 0.15525715 -0.06396194 -0.09837615
000210 38 9a b2 3d bd ab a7 3d 9e c0 32 3d c9 11 d1 bd
       0.08720821 0.08187053 0.043640725 -0.102084704
000220 4e a8 40 bd 9b 4a 0c 3e 19 26 d9 bd 17 ef 19 3d
       -0.047035508 0.13700335 -0.1060297 0.03758153
000230 e7 9d a5 3b ef e9 0a bd 42 e3 1c 3e 2c 5d b1 bd
       0.005054224 -0.033914503 0.15321067 -0.08660349
000240 fe ce 32 3d ff dc dc bd ab fa b6 3b 62 85 ce 3b
       0.043654434 -0.10784339 0.005584081 0.0063025216
000250 1d 1a 90 3d 8a 62 82 bc 9b 52 f4 bd 5e 17 83 3c
       0.07036231 -0.015916128 -0.11929818 0.016002353
000260 bd db 7e be bd 85 11 bc 7b c6 9c 3c 07 1d b5 08
       -0.24888511 -0.008881983 0.019137612 1.0900366e-33
000270 a3 dc 6a bc ce 6e 99 bd 47 ed 2d be f7 03 d3 bc
       -0.01433483 -0.074918374 -0.16985045 -0.025758727
000280 ee 80 1e bd 4d 8f 03 3e f9 bf 87 3e cd c7 1a 3d
       -0.038697176 0.12847634 0.2651365 0.0377882
000290 1d c6 08 be 4b b0 38 3e 2e e5 d2 bd 62 39 03 3d
       -0.13356824 0.18036 -0.10297619 0.032037146
0002a0 c7 94 bb 3c c6 8d 3e bd 7f bf 4e 3e f4 44 47 3d
       0.022898091 -0.046521924 0.20190237 0.048649743
0002b0 4a cb ec bd 2e 52 03 be 57 39 b9 88 67 4b ee bd
       -0.11562212 -0.12824318 -1.1147763e-33 -0.116354756
0002c0 f8 9c 97 3c 17 34 3f 3d 9d 25 9e bc 1c 5e e9 3c
       0.018507466 0.046680536 -0.019305045 0.028487258
0002d0 a1 26 29 bd 2e 81 2d 3e 2e e5 8e 3d 85 e5 0c 3e
       -0.041296605 0.1694381 0.06977306 0.1375943
0002e0 de a4 bf 3d 54 db 5c bd cc d4 df be 51 50 94 3d
       0.09357618 -0.053920105 -0.4371704 0.07241882
0002f0 6e d2 45 3d 95 82 9f 3d 81 38 a6 3b 27 29 3c be
       0.048296385 0.077885784 0.0050726538 -0.18375073
000300 e2 3e 1b 3e 9f 98 8b bd ba b8 6d 38 68 fc e4 3d
       0.15160707 -0.068162195 5.6677243e-05 0.11180955
000310 c8 32 ad 3d 04 a8 7e bd a6 c1 c6 bc f4 12 37 3e
       0.084569514 -0.06217195 -0.02426226 0.17878324
000320 1f af 2e be e9 2c 73 bd ad e8 d3 3d c2 0a 0b be
       -0.17058991 -0.059369 0.10347114 -0.13578323
000330 fd e7 eb bd 4a 11 81 be ef 6a 7d 3d 95 15 86 3c
       -0.11518858 -0.25208503 0.061869558 0.016367713
000340 31 34 12 3e 24 32 4f 3c df 39 45 bc f6 3f 38 3b
       0.14277722 0.012646232 -0.012037723 0.0028114296
000350 33 b1 bd 3d 53 f0 50 bd e0 ff 53 3d ef ac 19 3e
       0.09262314 -0.05101044 0.051757693 0.15007375
000360 c7 ad 88 3a 52 91 1b be c5 e0 d6 bc c4 43 97 3d
       0.0010427766 -0.15192154 -0.026230225 0.07385972
000370 2f 58 46 3d b6 76 06 be 4c bc b1 bd d4 21 b6 88
       0.048423942 -0.13131222 -0.08678493 -1.09616795e-33
000380 38 a5 69 3d 2e 44 aa bd 65 68 6b 3d b8 9d f8 3d
       0.05704233 -0.083137855 0.057472605 0.121394575
000390 af e0 38 be 9d 25 b6 88 55 15 e0 bc eb fc 1d 3d
       -0.1805446 -1.0962569e-33 -0.027353922 0.03857128
0003a0 2f 23 0d bd 76 84 16 3e 05 b8 4c 3c 73 51 37 3c
       -0.03445738 0.14698967 0.012495046 0.011188853
0003b0 0b 48 d1 3d 9b 0d 16 3d 36 ea 20 3d 05 5b 8e bd
       0.10218819 0.03663407 0.03928586 -0.06950954
0003c0 7c 4b 17 3d b0 74 c7 3d 60 4c 2e 3c b5 e7 4f bd
       0.036937222 0.09739053 0.010638326 -0.050758082
0003d0 cc a4 86 3d 8e d9 38 3e 1e e3 0c be 44 c5 86 3d
       0.06574401 0.1805174 -0.13758513 0.06580594
0003e0 54 06 bf 88 0d 3f 99 3d d7 9d 33 bd 6e 53 0f 3d
       -1.1496882e-33 0.07482729 -0.0438517 0.034991674
0003f0 e2 54 19 be 64 fc e0 bd e4 1d 21 be f6 61 d8 be
       -0.14973786 -0.1098564 -0.15734059 -0.42262238

network.3.bias f4 [128]
000000 94 30 a5 3e 25 e5 e2 3e d1 a8 24 3e 11 38 37 be
       0.32263625 0.44315448 0.16080023 -0.17892481
000010 d1 74 4f bd 2a c5 b2 3e 90 ac c5 3e b2 80 c3 3e
       -0.050648514 0.3491605 0.38608217 0.38184124
000020 cd 6b 03 3f 46 81 d7 3e 66 7e de 3e 65 1b 07 3f
       0.51336366 0.42090815 0.4345581 0.52776176
000030 51 5c b7 3e 13 d7 24 be e4 e4 e9 3e bc 47 bd 3e
       0.3581262 -0.1609767 0.45682442 0.3696879
000040 fe 26 c8 3e cb 33 9f 3e e0 b3 d2 3e 2c b6 c0 3e
       0.3909225 0.31094202 0.4115286 0.37638986
000050 1a 0a ef 3e 88 3b c6 3e 9e 3b ff 3e 2e 69 a5 3e
       0.46687394 0.38717294 0.49850172 0.32306808
000060 ba b0 d7 3e 44 6f e3 3e 66 93 22 be 07 51 ec 3e
       0.4212702 0.44420826 -0.1587654 0.4615557
000070 a0 d1 bc 3e a6 f4 f1 3e bd d7 bc 3e 7e 59 0f 3f
       0.3687868 0.47256964 0.36883345 0.5599593
000080 db 44 cb 3e 2c 54 ae 3e 37 16 fb 3e 50 7e 9f 3e
       0.3970097 0.34048593 0.49040386 0.31151056
000090 59 64 ce 3e ba f6 e8 3e 80 b8 e2 3e 33 8c af 3e
       0.40310934 0.45500737 0.44281387 0.3428665
0000a0 9e 5a 26 3f d0 59 a2 3e fd 68 e9 3e c6 db e7 3e
       0.6498202 0.31709146 0.45587912 0.4528486
0000b0 45 c1 96 3e 86 17 09 3e 9a 40 aa 3e 04 83 d0 3e
       0.29444328 0.1338788 0.33252412 0.40724957
0000c0 46 17 ee 3e c2 dd 00 3f aa 4e bd 3e 63 c8 60 3e
       0.4650213 0.50338376 0.36974078 0.21951441
0000d0 d5 d8 e2 3e a4 05 d1 3e 28 ff 9c 3e 7b a9 1b 3b
       0.44306055 0.40824616 0.3066342 0.0023752141
0000e0 a2 60 cf 3e 14 c5 db 3e ae ef a5 3e c0 7a 01 be
       0.40503412 0.42923796 0.32409424 -0.12644482
0000f0 e1 d1 e0 3e bc a7 c2 3e 99 0d 81 3e 0b 20 d4 3e
       0.43910125 0.38018596 0.25205687 0.41430697
000100 7a 73 12 3f ac 4b bc 3e f2 80 5c 3e f2 de e9 3e
       0.57207453 0.36776483 0.21533564 0.45677906
000110 f3 4a b2 3e 60 85 ec 3e 9d 31 c4 3e 59 fb e7 3e
       0.34822807 0.46195507 0.38319102 0.4530895
000120 4b d6 09 3f 2d b4 ce 3e 8f f1 e3 3e f7 c5 6f 3e
       0.5384261 0.40371838 0.44520232 0.23415361
000130 35 d6 ae 3e fa 2b b2 3e 8b 2a e5 3e 2b 95 a9 3e
       0.34147802 0.34799176 0.4475902 0.3312162
000140 44 24 e5 3e c2 90 d0 3e bf bc 9d 3e 3d bf ce 3e
       0.4475423 0.4073544 0.30808064 0.40380278
000150 84 7a 10 be b9 05 99 3e 20 97 f4 3e c5 c0 77 3d
       -0.14109236 0.2988718 0.4777155 0.060486574
000160 6e b3 f1 3e 71 04 bd 3e 8e 54 c2 3e fa 72 cf 3e
       0.47207206 0.3691745 0.37955135 0.40517408
000170 52 45 b6 3e 52 5a 1e 3f 77 72 ad 3e 04 d1 d3 3e
       0.35599762 0.6185657 0.33876392 0.41370404
000180 fe 46 c6 3e 1c 69 43 3e 06 5a 08 3f 5f 74 4d 3e
       0.38726038 0.19083065 0.53262365 0.20063923
000190 7d 7f bb 3e 75 3f ec 3e 92 77 bb 3e 26 0c cf 3e
       0.36620703 0.46142164 0.36614662 0.40438956
0001a0 a2 2c 41 bd 94 7e db 3e db 9f cf 3e 84 9a e7 3e
       -0.047161706 0.4287001 0.40551648 0.45235074
0001b0 a0 2f f5 3d 96 18 0b 3f 49 46 51 be 31 d3 a3 3e
       0.119719744 0.5433439 -0.20436968 0.31997064
0001c0 c5 44 65 3c 51 b2 dc 3e 57 c0 0f be 82 f8 ca 3e
       0.013993447 0.43104795 -0.14038216 0.3964272
0001d0 5e 0f b1 3e f1 9d c0 3e e0 59 c9 3e 40 24 d3 3e
       0.34582037 0.376205 0.39326382 0.41238594
0001e0 88 14 da 3e 8d c5 d4 3e 04 70 e6 3e e8 6f 90 3e
       0.4259379 0.4155697 0.45007336 0.28210378
0001f0 a3 ea 94 3e d6 47 c6 3e 03 5b d5 3e 43 93 9d 3d
       0.29085264 0.3872668 0.41671 0.076941036

network.6.weight f4 [64, 128]
000000 ad 7a c5 3b 6a d4 00 bd f6 86 11 3e ae d0 1e 3e
       0.006026587 -0.031452574 0.1421164 0.15509292
000010 f5 e9 2f be 92 8c 8f bc b8 94 18 3e 75 86 b8 3d
       -0.17179091 -0.017523084 0.14900482 0.09010021
000020 fd 63 43 bb 1e 85 94 3d a8 51 55 3e 1b b3 82 bd
       -0.0029814236 0.072519526 0.2083193 -0.06381818
000030 9a d7 86 bc 62 a3 93 bc 18 81 ef 3d 59 b8 03 3e
       -0.016460229 -0.018022243 0.116945446 0.12863292
000040 69 25 a7 3d 99 9f e1 bc ea 56 8e bc 6e 00 14 3e
       0.08161432 -0.027541922 -0.017375428 0.14453289
000050 eb d3 15 3e 8a 84 cf 3c 2d 17 8f 3d 83 b6 0a be
       0.14631622 0.025331754 0.06986842 -0.13546185
000060 31 9c c2 3d bc 1c ab bd 37 82 c4 bd 26 e6 7c 3b
       0.095024474 -0.0835509 -0.09595149 0.0038589328
000070 07 9b 95 3c 6e 0b 7d 3d 14 bb 83 3b 85 ea 26 3d
       0.0182624 0.06177848 0.004020104 0.040751
000080 08 7c 96 3d bd cf b0 3c 46 e2 c4 bd 9b 4f 79 3d
       0.07347876 0.021583432 -0.09613471 0.060866933
000090 9c 33 d2 bc 70 c5 05 bd fb be 1e 3e 5b 46 8f 3d
       -0.025659375 -0.032658994 0.15502541 0.06995841
0000a0 09 10 18 3e 11 31 6f bd 90 06 d0 3c 00 f2 75 3d
       0.14849867 -0.058396403 0.025393754 0.060045242
0000b0 be 76 df 3d 49 de 38 bd 6f 1e f0 3d 35 d4 c3 3c
       0.1091132 -0.045133863 0.11724555 0.0239049
0000c0 2f b7 13 3e e1 2c 9a bb 89 7c c4 3d e2 f9 81 bd
       0.14425348 -0.004705057 0.09594066 -0.063464895
0000d0 9d 9e 6c 3d 0c ea 21 3d 56 e5 40 3c c5 9f 1e bf
       0.057768453 0.039529845 0.011773428 -0.6196254
0000e0 f0 8a 8e 3d 9e dd c8 bc b9 3f be 3d c3 c1 61 bc
       0.06960094 -0.024519738 0.09289498 -0.013779107
0000f0 a1 85 a7 bd fb b9 e5 bb c7 68 58 3e a4 b6 95 3d
       -0.081797846 -0.007010696 0.2113372 0.073102266
000100 34 45 94 bb f7 5f 80 bd b6 56 84 3d 76 be d9 3d
       -0.004524851 -0.06268304 0.06461851 0.10632031
000110 ff 46 dd 3d 32 a7 13 3e 36 41 26 3d 12 bb 02 3e
       0.10804557 0.14419249 0.040589534 0.12766674
000120 34 82 96 bc c3 f9 03 3e 3a 9b df bd c3 af dd 3d
       -0.018372633 0.12888245 -0.10918279 0.108245395
000130 0f 99 90 bd 81 89 31 bd 0d e8 07 3d ca 9d 23 3d
       -0.070604436 -0.043344025 0.033180285 0.0399454
000140 60 26 b7 3d 74 03 c1 3d 7d b0 cc 3d 27 55 21 3d
       0.08942866 0.09424487 0.099946 0.03938785
000150 65 d4 e8 bc 18 dd 13 3e 7a 07 49 3d 52 e7 0b bf
       -0.02842159 0.1443981 0.049079396 -0.5464984
000160 73 89 b7 3c e2 a0 f9 bc 34 3f 1e 3d ec 72 16 3d
       0.022404408 -0.030472223 0.038634494 0.03673069
000170 fe 5b 71 3d 45 c6 f1 bd 3a 1e 86 bc dc 08 af bd
       0.05892562 -0.11805395 -0.016371835 -0.08546612
000180 fe 41 55 bb d4 c7 1a 3e 69 a7 18 3e 0d c1 f4 3d
       -0.0032540555 0.15115291 0.14907612 0.11950884
000190 37 56 fb 3d 82 75 8d bd f2 2d 0a 3e 09 52 65 bd
       0.122723036 -0.069071785 0.13494089 -0.055986438
0001a0 49 ed b4 3d ef c6 28 bd 9b 05 64 3d 06 35 ef 3d
       0.08834321 -0.041205343 0.05566941 0.11680035
0001b0 20 95 83 3e 8c 56 84 bd 2c ab 1c be bd 55 02 bd
       0.2569971 -0.0646182 -0.15299672 -0.031820048
0001c0 e2 93 8b 3d 6d da 8e 3c 5d 7a 76 bd 1c 57 c1 bd
       0.06815316 0.017438138 -0.06017529 -0.09440443
0001d0 98 b0 43 3e 7c 2b 33 bd 09 f0 39 3d d5 ff 7b 3c
       0.19110334 -0.04374264 0.04539493 0.015380819
0001e0 35 5d 0e 3e 88 7d ce bc 54 ae 2e bd 64 79 c7 3d
       0.13902743 -0.025206342 -0.04264672 0.0973995
0001f0 b6 fb 02 3e 8e 6b d0 3d 66 ec dc bd ae 03 e3 3d
       0.12791333 0.101767644 -0.10787277 0.11084686
000200 61 78 f5 3d f1 12 45 3c 68 d1 02 bc dd 5e 8a bd
       0.11985851 0.012028442 -0.007984497 -0.06756375
000210 1c ba b3 be 5b b0 18 bd 17 7b a9 bc d9 ae 18 3e
       -0.35102928 -0.03727756 -0.020688577 0.14910449
000220 99 f3 7d bd 55 7d 9d 3d 96 54 10 3d 22 87 93 3d
       -0.06199989 0.07689921 0.035236917 0.07203509
000230 50 e7 d6 bc a2 a6 1c be 12 ec f2 3d f6 6b 5e bd
       -0.026233345 -0.1529794 0.11861433 -0.05430218
000240 84 43 a6 3d 9e bc 5b bd 16 f6 c9 3d e2 4c f0 3d
       0.08118346 -0.053646676 0.0986139 0.11733414
000250 ee aa 81 bc 7f d3 43 3e d3 2b cc 3c a9 f4 29 3c
       -0.015828576 0.19123648 0.02492324 0.010373273
000260 01 76 25 3b ab ae 14 3c db 03 be 3c 1c 6e 15 3d
       0.0025247338 0.009074847 0.023195198 0.03648196
000270 4f 36 55 bd dc f0 ee 3d e2 6d a3 3d df 68 01 3c
       -0.052053746 0.11667034 0.07979943 0.007898538
000280 fe af 28 3e bb 5b a9 bc 5f 6f 07 3d 6d 26 0b 3d
       0.16473386 -0.020673623 0.033065196 0.033972193
000290 54 92 c3 3c 54 e0 98 3d 3e 0e b9 3c 51 2a 24 3e
       0.023873486 0.07464662 0.022589799 0.16031767
0002a0 a1 08 d9 bc ff a2 41 3e 59 a6 2e 3e 10 cf 70 3d
       -0.026493372 0.18909834 0.17055644 0.05879122
0002b0 98 a6 30 3e 9c b7 e1 3d 38 22 da 3d 13 a0 7b 3d
       0.1725105 0.11021349 0.10651058 0.061431956
0002c0 25 21 f2 bd 2c 0e 20 bd 36 4b 88 bd 89 21 ec 3d
       -0.11822728 -0.039076015 -0.0665497 0.11529834
0002d0 30 41 0c 3e bd ce 90 bc ae 2f 13 3e 07 56 ce be
       0.13696742 -0.017676705 0.14373657 -0.4030001
0002e0 f2 cc c6 3a 47 7e d5 3d e7 14 50 bd b0 8c 1d bc
       0.001516728 0.10424476 -0.050801184 -0.009616062
0002f0 2f 76 31 3d ba 2c f1 3d 00 e5 b4 3c d4 f8 38 3d
       0.0433256 0.11776109 0.022081852 0.045159176
000300 27 f5 ed 3d 94 83 ea 3d 4f 42 23 3e 03 f0 bf 3d
       0.11619025 0.11450878 0.15943263 0.093719505
000310 56 9b cd 3d 08 50 1e bd 64 e0 2a 3d 44 b2 05 3e
       0.100393936 -0.038650542 0.0417179 0.13056284
000320 a0 ed f4 3d 92 27 c8 3d 2b 8d 33 3c 44 06 37 3d
       0.11959386 0.097731724 0.01095895 0.04468371
000330 8c 8b b0 3d 9f 2b 93 3d ff 87 df 3d 1a b8 1c 3d
       0.086203665 0.071860544 0.10914611 0.03826151
000340 ee 3d 68 bc f6 b1 d6 3d c8 71 a2 bc 2f 59 81 3d
       -0.014174921 0.10483162 -0.019829646 0.063158385
000350 9a 26 ff ba f3 78 f4 3c 03 f1 59 bd 15 b5 9a bc
       -0.001946646 0.02984283 -0.053208362 -0.018885175
000360 eb 89 94 3d 2c 83 50 3d 83 c5 3c 3d 75 2f 92 bb
       0.07252868 0.050906345 0.0460868 -0.0044612237
000370 14 39 c1 3d 6d 29 b5 bd d4 46 f5 3d 67 03 78 3e
       0.09434715 -0.08845792 0.119764 0.24220048
000380 25 58 b0 3d c7 5a 40 3c 6b c5 7d bb 61 41 08 3a
       0.08610562 0.011740393 -0.0038722407 0.00051977305
000390 ae 7d a0 3d 1e 42 72 3d 81 90 30 3d cf 94 fa 3a
       0.078364715 0.059145086 0.04310656 0.0019117835
0003a0 67 31 c6 be 28 0f ad 3d e9 35 30 3c 61 c8 60 3d
       -0.38709566 0.084501565 0.010755041 0.054878596
0003b0 51 bd 04 3e b9 96 5c 3b 87 24 93 3d 89 ed e9 3d
       0.12962843 0.0033659174 0.071847014 0.11422259
0003c0 03 31 e5 be 3d 5d 59 3d b5 57 bf bc 88 d7 4b bc
       -0.44763955 0.053067435 -0.023357252 -0.012441523
0003d0 ea ac 5b bd 02 2c da bc 74 3f a0 3d 53 e5 3a 3e
       -0.0536317 -0.026632313 0.07824603 0.18251543
0003e0 1d a9 06 38 48 20 99 bc 00 0e 96 3c 1f 75 13 bc
       3.210559e-05 -0.01869215 0.018317223 -0.009000092
0003f0 a6 94 a4 3d 42 41 3c 3d c5 18 2e bb 46 ae c5 3d
       0.08036165 0.045960672 -0.0026565057 0.09652381

network.6.bias f4 [64]
000000 0f ae a5 3f c0 dc b0 3f d5 b9 8d 3f be e9 aa 3f
       1.2943743 1.3817368 1.1072336 1.3352582
000010 0e 83 a9 3f 72 19 98 3f 63 8c 9f 3f ea 94 a6 3f
       1.324312 1.1882765 1.2464718 1.3014195
000020 03 a0 a4 3f 2a 09 9b 3f e8 dd c2 3f 2d a9 bc 3f
       1.2861332 1.2112172 1.522397 1.4739128
000030 42 e4 62 3f 7f 83 e3 bd b3 01 b6 3f 19 e9 a4 3f
       0.88629544 -0.11109065 1.4219269 1.2883636
000040 f8 c2 83 3f 9b 8b a7 3f b9 a0 c2 3f 07 44 ab 3f
       1.0293875 1.3089479 1.5205299 1.3380135
000050 b2 45 ca 3f 25 ab 8e 3f 1a 14 97 3f b2 5f a8 3f
       1.5802519 1.1145979 1.180301 1.3154204
000060 b4 e2 b2 3f 9f 96 24 3f 1d bf a6 3f fa d2 be 3f
       1.3975434 0.6429233 1.3027073 1.4908135
000070 66 76 ae 3f 3d ac aa 3f 8b 97 ba 3f 1f ba 67 3f
       1.3629882 1.3333813 1.4577497 0.90518373
000080 6c a7 8f 3f 00 e6 cb 3f 15 87 89 3f 23 c1 a1 3f
       1.1222968 1.5929565 1.0744349 1.2637066
000090 dd 5e 8d 3f 0d d2 82 3f 28 89 89 3f 40 63 ac 3f
       1.1044575 1.0220352 1.0744982 1.3467789
0000a0 1f df c1 3f f1 ca 65 3f a5 7b 3e 3f a6 db 9f 3f
       1.5146216 0.8976279 0.74407417 1.2488906
0000b0 06 6b c3 3f 24 27 9a 3f a2 59 9f 3f bf 60 b7 3f
       1.5267036 1.2043195 1.2449229 1.43264
0000c0 0c dd 37 3f 7f 99 b8 3f d8 4d 9d 3f 73 8a 9a 3f
       0.71821666 1.4421843 1.2289381 1.2073501
0000d0 60 9a b0 3f 3b fb c7 3f d3 af 6c 3f af 60 a2 3f
       1.3797112 1.5623544 0.92455786 1.2685755
0000e0 df 3a 8d 3f 3a 16 84 3f eb 95 aa 3f 9f 00 c3 3f
       1.1033591 1.0319283 1.3327001 1.5234565
0000f0 e5 64 bb 3f 90 d0 bc 3f 1f 9c 98 3f 86 4b a9 3f
       1.4640166 1.4751148 1.1922644 1.3226173

network.9.weight f4 [16, 64]
000000 6c c4 7c 3c 58 20 89 bc f8 e1 31 3e d3 59 b9 3d
       0.01542769 -0.016739056 0.17371356 0.09050336
000010 25 f2 05 3e af 80 85 3d ac c6 05 3d cd 7f c6 3d
       0.13080652 0.06518685 0.03266017 0.09692345
000020 17 d4 b4 bc c7 62 e2 3d dc 0d 15 3d 8f d2 d8 bb
       -0.022073789 0.110539965 0.03639017 -0.0066168974
000030 d5 2e a7 bc 7f 65 81 3c de d0 aa bd 19 22 5d 3d
       -0.020408073 0.015795467 -0.083406195 0.053987596
000040 84 0a a6 bd 8e fd 31 bc 12 87 48 3d d5 18 cb 3d
       -0.081074744 -0.010863675 0.048956938 0.09916846
000050 1b 26 0e 3d 96 fb b0 3d ce aa ba 3d 24 2d 83 3d
       0.03470431 0.08641736 0.0911461 0.06405094
000060 31 0a a2 bc 7e 02 73 3c 3b 9b f9 bd 68 86 b8 3a
       -0.01978025 0.014832137 -0.12187811 0.0014078142
000070 0d d4 b4 3d 1f b8 c3 bc 85 1d 6d bc 20 cb 26 3e
       0.08829508 -0.023891507 -0.01447237 0.16288424
000080 81 f0 28 3e 30 94 4f bc 94 d4 33 3e 86 ce e3 3d
       0.16497995 -0.012669608 0.17561561 0.111233756
000090 f2 21 06 3e f4 b6 0f 3e 5a 47 40 3e c2 d6 c5 3d
       0.13098887 0.14034635 0.18777218 0.096601024
0000a0 3a bc dd ba c7 5b f5 bc 46 70 29 3c 60 2d 91 bc
       -0.0016917058 -0.02995099 0.0103417095 -0.017721832
0000b0 22 34 b3 3c 57 33 e0 bc 9c 2e bf 3d eb 24 44 3d
       0.021875445 -0.02736823 0.09335062 0.04788677
0000c0 e6 a6 0f 3c 8b c5 c2 bc 59 bd 99 3d 23 74 0f bd
       0.008767819 -0.023775836 0.07506818 -0.035022866
0000d0 34 ae d0 bc 4d 09 b6 3c 3c c9 eb 3c 2d fb 4a 3d
       -0.025473692 0.022221232 0.02878248 0.049555946
0000e0 88 8f 0d 3e f5 11 a5 bc 84 64 17 3e 77 29 1c 3d
       0.13824284 -0.020150164 0.14784437 0.03812548
0000f0 7a f3 6e bd a3 ef a3 bb 7a f6 a4 3c fc 97 77 3c
       -0.058337666 -0.005002932 0.02013706 0.0151119195
000100 c0 8b bb 3d 10 f9 ef 3d 6e 75 07 3e 94 d6 52 bd
       0.091575146 0.11717427 0.1322839 -0.05147417
000110 90 f1 3e 3e ae 94 3d 3e eb 90 0b 3e ae 9c c2 3d
       0.18646836 0.18513748 0.136295 0.095025405
000120 75 f7 0a 3e 2f d3 fc bc 78 70 c1 3a e3 bc 74 3e
       0.1357096 -0.030862419 0.001475825 0.2390018
000130 1f ad 32 3e dd ef ff 3d 9d d6 e9 3c 45 ec 80 3c
       0.17448853 0.12496922 0.028544718 0.015737662
000140 17 3d 67 3d 24 69 76 3d eb 1f 4b 3e 5a 56 48 3e
       0.056454744 0.060158864 0.19836394 0.1956419
000150 a5 8a 07 bd 40 92 20 3e db 52 90 3d d4 07 84 3e
       -0.033091206 0.1568079 0.070470534 0.25787222
000160 36 06 75 3e be 3a 19 3d 81 19 71 3d 09 b6 ed 3d
       0.2392815 0.037409537 0.058862213 0.11606986
000170 57 25 5e 3d 0b c5 54 3d 4a 5c d8 bd 34 d3 77 3e
       0.05423483 0.051945727 -0.10564478 0.24201661
000180 bc 13 93 3e 86 7e 09 3d e3 39 ec 3c 25 f3 06 3e
       0.28725994 0.033567928 0.028836196 0.1317869
000190 a3 03 41 3e ed f4 20 bc 0a a4 02 bd 2a 42 10 3d
       0.18849044 -0.00982402 -0.03189472 0.03521935
0001a0 0c 35 f5 3d 3b 0a d4 3d 0d ae 06 bd 26 4c 75 3e
       0.119730085 0.10353514 -0.03288083 0.2395483
0001b0 bc 58 05 bd 7c 75 26 3e 35 d1 f8 3d 67 0a 10 3e
       -0.032555327 0.16255754 0.12149278 0.14066468
0001c0 0b 5e 93 3e 43 e8 40 3e 2e c3 4b bc 4c df 69 3e
       0.28782687 0.18838601 -0.012436671 0.22839087
0001d0 41 cd 9e 3c 28 a4 32 3e e0 63 ec 3d c2 be bd 3b
       0.019384982 0.17445433 0.11542487 0.0057905624
0001e0 83 eb 80 3d c9 4f e0 3c f4 f3 98 bb b5 13 a9 3d
       0.0629492 0.027381795 -0.0046677534 0.08255712
0001f0 ab 7a 76 3d f3 83 73 3e 90 59 a1 bd 98 f2 99 3c
       0.06017558 0.23780803 -0.07878411 0.018792436
000200 4b 3e 14 3e 37 8a 99 3d f6 d3 c5 3d 16 6a d9 3d
       0.14476888 0.074970655 0.09659569 0.106159374
000210 78 01 d4 3d 63 f3 a6 3d 6b 39 8a 3d 79 7d 91 3d
       0.10351843 0.08151891 0.06749233 0.0710401
000220 b0 2f 42 3d c1 6d 9b 3d 01 e2 88 3d 24 24 21 3d
       0.04740876 0.07589293 0.06683732 0.039341107
000230 7f 98 83 3d 35 55 21 3d 01 71 af 3d c2 f8 a1 3d
       0.06425571 0.0393879 0.08566476 0.07908775
000240 59 3d bc 3d b6 c4 95 3d 4c 10 af 3d c5 4d 94 3d
       0.09191389 0.0731291 0.0854803 0.07241396
000250 10 48 86 3d be 68 9b 3d b2 8d ca 3d ec 66 a2 3d
       0.065567136 0.07588337 0.098903075 0.07929787
000260 4b 42 14 3d d3 c5 c6 3d b2 ba 83 3d 23 a4 74 3d
       0.036196034 0.09705701 0.06432094 0.059726845
000270 0c da c9 3d 6b be c4 3d 35 f7 3c 3d fd 9a ab 3d
       0.09856042 0.09606632 0.046134192 0.08379171
000280 e3 c0 94 3d 04 c8 a5 3d 77 97 f1 3d fe d6 dd 3d
       0.07263353 0.080947906 0.11796468 0.10832022
000290 90 ee b2 3d ec d3 96 3d 5c 26 d7 3d 1e 50 ab 3d
       0.087369084 0.0736464 0.10505363 0.083648905
0002a0 ae 82 08 3d 9f 9f b5 3d e4 42 a8 3d a7 34 b6 3d
       0.03332775 0.08868336 0.082158834 0.088967614
0002b0 d5 80 ce 3c ed 3e 26 3e 3f df e0 3d 89 07 23 3e
       0.025207916 0.16234942 0.10980081 0.15920843
0002c0 9c 55 a6 3d b6 39 7d 3d 67 df 92 3d 84 37 a6 3d
       0.081217974 0.061822616 0.07171517 0.081160575
0002d0 8f 4d 75 3d ae 1a 9a 3d da f5 c8 3d 9e 66 8d 3d
       0.05988842 0.0752462 0.098125175 0.06904338
0002e0 db b8 ca 3d 12 59 b5 3d 36 0d 3d 3d d8 a6 c4 3d
       0.0989854 0.088548794 0.046155177 0.096021354
0002f0 95 7d 5c 3d bb 77 31 3d 74 e6 49 3e 21 e8 9a 3d
       0.0538307 0.043327074 0.19716817 0.07563806
000300 07 bb 00 3d a1 a3 ec 3d 65 10 70 3c ff 8b 80 3c
       0.031428363 0.11554647 0.014652346 0.015691755
000310 02 d4 58 3e 43 19 29 3e 66 03 77 3d 76 0b 4a 3d
       0.21174625 0.16513543 0.060305975 0.049327336
000320 32 e4 91 bd d4 3d 94 3e 35 42 a0 3d 64 a0 2c bd
       -0.07123603 0.2895342 0.07825128 -0.042145148
000330 65 5e 43 3e 50 00 e1 3d 88 cf 1e 3d 85 32 9f bd
       0.19078977 0.10986388 0.038772136 -0.07773308
000340 fa 54 a7 3d 77 a3 18 3d b1 e6 3b bd 35 50 66 3e
       0.08170505 0.037265267 -0.0458743 0.22491534
000350 29 9d 0d 3d 49 19 db 3d 7f fa 9b 3d a8 fe ca 3c
       0.034573708 0.10698182 0.07616138 0.024779633
000360 a6 f9 1b 3d 7e 77 b5 3d 3f d8 6d 3d 2e 2c 07 bd
       0.03807988 0.08860682 0.058067556 -0.033001117
000370 5d 91 bc bd f7 c6 09 3e ca e5 8b 3b 87 de e2 3d
       -0.09207413 0.13454805 0.0042693364 0.110776
000380 af 5e 86 3d b0 09 0f 3e 2c 0a ac 3d dd 92 3a 3e
       0.06561028 0.13968539 0.08400378 0.18220086
000390 45 36 26 3e a4 d3 61 3d 44 5d 99 bc 8c 14 af 3c
       0.1623164 0.055133477 -0.01872123 0.021372102
0003a0 ab 90 a4 3d 76 4f 6f 3d 43 80 3d 3d 0a 7d 84 3d
       0.08035406 0.05842539 0.046264898 0.06469162
0003b0 23 62 79 3d c3 c1 89 3e 26 7c 89 bd 21 ee 34 bd
       0.060884606 0.2690564 -0.067131326 -0.04417241
0003c0 18 92 71 3d b7 9a 2d 3d 72 44 04 3e 31 c8 d9 3c
       0.058977216 0.042383876 0.12916735 0.026584717
0003d0 f9 dd 45 38 ec ed 3f 3c 8c 2e ec 3d e8 20 7b 3d
       4.717519e-05 0.01171444 0.115323156 0.06131068
0003e0 69 5c 6d 3e a6 b8 1c 3e d2 72 2a 3e 3b 8d 0c 3e
       0.23179783 0.15304813 0.16645363 0.1372575
0003f0 d8 26 f4 3d 23 72 a8 3d 54 e8 18 3c 42 0f 77 bc
       0.11921471 0.08224895 0.009332735 -0.015079321

network.9.bias f4 [16]
000000 bb b9 47 40 0b f6 3e 40 87 cc 8d 3f ae 29 4c 40
       3.120711 2.9837673 1.1078042 3.190044
000010 d0 24 68 be 6e f3 3b 40 36 22 49 40 41 fc 46 40
       -0.22670293 2.9367328 3.142713 3.1091464
000020 cd 6b 52 40 0e 84 0c bd 91 6b 45 40 30 3d 3a 3f
       3.2878296 -0.034305625 3.0846903 0.72749615
000030 a0 76 07 40 df f0 9f 3c d1 55 ec 3f 55 81 85 bb
       2.1166153 0.019524036 1.8463689 -0.0040742555

network.12.weight f4 [1, 16]
000000 f6 c2 9b 3e c6 9f cd 3d 16 1a f1 3d cb 36 26 3e
       0.3042218 0.1004024 0.117725536 0.1623184
000010 e0 65 44 be 66 14 dc 3d 15 91 91 3e 46 a2 9a 3e
       -0.19179487 0.10746078 0.28431 0.3020193
000020 56 79 b3 3d 68 c9 cd bc 93 dd 8f 3e d6 9f eb 3d
       0.08763377 -0.025120452 0.28098735 0.11505096
000030 43 e8 e6 3d f3 01 95 3c 4a 31 02 3e da 8b 69 39
       0.11274769 0.018189406 0.12714115 0.0002227271
