models/lstm_model.pth (torch, 600034 bytes, 9 tensors)

lstm.weight_ih_l0 f4 [384, 96]
000000 f9 52 62 3d f6 22 40 3d 70 c4 67 3c 9b c5 94 bb
       0.05525491 0.04690834 0.014145955 -0.004540158
000010 ee 63 01 bd 70 5e ab bb fd 8f b7 3c a8 d3 1a 3d
       -0.03158944 -0.0052297637 0.022407526 0.037799507
000020 e0 c3 52 bd 0b a2 b2 3c 73 73 55 3c bc 47 fa bc
       -0.051456332 0.021805784 0.0130280135 -0.030551784
000030 b8 6e 8d bd fb e8 a0 bc 96 7f d2 3b 21 b3 5c 3c
       -0.069058836 -0.019642344 0.006423901 0.013470442
000040 7d 1b e9 bb 38 59 bc ba e6 9e 8f bc bb 0e 04 3d
       -0.0071138726 -0.0014369851 -0.017531823 0.03224061
000050 34 e0 65 39 1f 9a 49 3d 59 80 d9 3c c3 d1 01 bd
       0.00021922664 0.049219247 0.026550459 -0.031694185
000060 e2 18 81 bd ce 6f 38 bd af f3 e9 3c dd 32 27 bb
       -0.06303574 -0.0450285 0.02855858 -0.0025512495
000070 9f 9d d0 bb 55 1a 9a 3c 04 19 2e 3d 29 b3 2f bd
       -0.006366446 0.018811384 0.042504326 -0.04289547
000080 8f e3 a5 3c 28 e6 75 bd 90 66 47 3d 6c 03 5e 3c
       0.02025011 -0.060033947 0.048681796 0.0135506205
000090 e5 89 f1 3b 0f 71 0a bd 29 cc 4f 3d 62 23 9b 3d
       0.0073711746 -0.033799227 0.05073181 0.07575108
0000a0 b4 2c 01 3d 72 b8 cd bc 74 47 c3 3c a8 e3 5b bd
       0.031536773 -0.025112364 0.023837782 -0.053683907
0000b0 85 e7 b0 3c dd 17 95 bc 8e 3a 58 bd 67 6e d0 bb
       0.021594772 -0.018199855 -0.052790217 -0.0063608172
0000c0 82 dc 11 3c f3 c9 92 3b 61 26 7c 3c b2 4d d9 bc
       0.008902671 0.0044796406 0.01539001 -0.026526306
0000d0 68 d2 57 bd e3 29 82 3c 73 9d a1 bc f1 07 90 bd
       -0.052690893 0.015889114 -0.019728398 -0.07032765
0000e0 b7 d2 4c 3d 2e 16 cf 3c 97 0f ed 3c eb 6b 1d bc
       0.05000564 0.02527913 0.028938098 -0.009608249
0000f0 bc c1 04 bb 98 c0 95 bc 68 a7 18 bd 15 9b 51 bc
       -0.0020257076 -0.018280312 -0.037269026 -0.012793322
000100 c9 8d 37 bd b0 99 38 3d 4a 2c 50 3d c1 01 40 3d
       -0.04481295 0.045068443 0.050823487 0.046876673
000110 bd b3 1e bc 80 f5 9a bd 2a ef 87 bc 5d b1 67 b8
       -0.009686408 -0.07566357 -0.016593534 -5.5239874e-05
000120 87 a1 de bd 82 c8 8c 3b 0c 0e 04 be 5f 00 57 bd
       -0.10870653 0.0042963633 -0.12895983 -0.05249059
000130 cf 2f c3 3b 31 32 a3 bc 14 b6 14 bd bb 01 0e 3d
       0.005956627 -0.019921394 -0.036306456 0.03466962
000140 aa 65 44 bd 50 db b3 bc ca 11 3d 3d cc 1d 08 3d
       -0.047948517 -0.021955162 0.046159543 0.03323154
000150 6a 75 ae 3d 7d 36 0e 3d 66 35 c4 3c db 3b cd 3c
       0.08518489 0.034719933 0.023951244 0.025052955
000160 13 c6 19 bd 3c d4 02 bd 2b de 7c 3a da 51 cc 3c
       -0.037542414 -0.031940684 0.0009646143 0.024941374
000170 6d 0a 53 3c ed f7 1d 3c cb f8 fc 3d d0 45 92 3d
       0.012880904 0.00964163 0.12352141 0.07142222
000180 8d ef 9d bd 75 ab a3 bd 88 ed a6 bc f5 4a 9b bc
       -0.07711706 -0.07991687 -0.020376936 -0.01895664
000190 9b c2 0b bc 1f dd 16 bd 5e 78 77 3c d5 7f e9 3c
       -0.008530284 -0.03683197 0.015104381 0.028503338
0001a0 27 b4 58 3c c1 9e 8e 3c b2 02 6b 3d ec 85 9a bb
       0.013226545 0.017409684 0.057375617 -0.0047156718
0001b0 d0 21 2c bd 9a 95 ab bd 4e 2b 72 bc f5 d6 c0 3b
       -0.042024434 -0.083781436 -0.014780832 0.005885
0001c0 10 f7 e2 3a 18 e3 5c 3b 80 6d 82 bd ac 66 0f bd
       0.0017316062 0.0033704694 -0.06368542 -0.035010025
0001d0 3b 88 9c 3c f7 cb 32 bd 72 2a 02 bd 04 b2 3b bd
       0.019107928 -0.043651547 -0.03177876 -0.045824066
0001e0 4e 50 29 3d 42 91 cd 3c e1 cd 47 bd 14 d0 e0 3d
       0.04133635 0.025093678 -0.048780326 0.10977188
0001f0 55 b9 32 3d a9 72 2c bd 32 90 36 bc b0 1b 93 3c
       0.043633778 -0.042101536 -0.011142777 0.017957538
000200 b5 94 cd bc 9e 0e 8a 3d 0c 60 d9 3c 53 67 6f 3d
       -0.025095323 0.06741069 0.026535057 0.058448147
000210 ca b7 08 3d 33 c5 48 3d 9e 6a 4a bc 29 2c 48 3c
       0.0333784 0.04901619 -0.012354521 0.01221756
000220 f2 3a e8 3c 8f 56 9f bc c3 03 f2 bc dc bf 4a 3c
       0.02834842 -0.019450454 -0.02954281 0.012374844
000230 e0 44 a5 3c 2d d1 ca 3c 21 f8 0d bd 67 e7 09 3d
       0.020174444 0.024757946 -0.034660462 0.033667948
000240 68 f6 8a 3b 4e 12 94 3c 09 27 a4 3b 3e 91 c6 bc
       0.0042407997 0.018075135 0.005009536 -0.024239179
000250 47 b2 9e bc 82 c6 39 3d cf f1 8a 3c cf bd 7d 3c
       -0.019372119 0.045355327 0.016961006 0.015487148
000260 89 f5 3b bd 64 72 13 bd 05 62 50 3d a9 70 83 bc
       -0.045888457 -0.035997763 0.05087473 -0.016044931
000270 66 de 07 3d f7 42 cc bc 5d 82 82 3d 33 5f fd 3c
       0.03317108 -0.024934275 0.06372521 0.030929184
000280 28 87 c1 3d dd 35 e5 3a 7c 1a 20 bb 1c 79 3f bc
       0.09449607 0.0017487366 -0.0024429848 -0.01168659
000290 6f 4f 59 3c ef e9 e2 3d 9d 97 6b 3d 18 ac 8b 3d
       0.013263567 0.110797755 0.057517637 0.06819934
0002a0 f2 20 c5 bd ad 06 ed 3c be 6e 7b 3d ab 6b f5 bb
       -0.096254244 0.028933847 0.06138491 -0.0074896417
0002b0 1b 2e aa 3c 46 c9 f2 bc a2 18 36 3d 9f 39 92 bd
       0.020773938 -0.02963699 0.044457085 -0.071398966
0002c0 c2 1b 46 3c 5b a5 11 3d 05 7e 74 bb e4 4c a5 3b
       0.012091579 0.035558086 -0.0037306559 0.0050445665
0002d0 d9 c4 40 3c 5a 79 44 3d 0a 97 3a bd cb 37 a2 3c
       0.011765682 0.047967292 -0.0455542 0.019801995
0002e0 b3 c1 88 3c e6 f6 d0 b8 2d 01 56 bd bf d9 17 bd
       0.016693925 -9.964201e-05 -0.052247215 -0.037072893
0002f0 47 24 0d bd 64 a7 88 bc 10 03 7b bc 21 d0 92 bd
       -0.034458425 -0.01668138 -0.015320554 -0.07168604
000300 28 e8 42 3d 1b 9e 2e bc 23 6f c0 3b c0 cf 6a 3d
       0.047584683 -0.0106578125 0.0058726235 0.057327032
000310 b4 77 6e 3d bf c1 84 3d 8e 0b ad 3d e5 b4 dc 3c
       0.058219627 0.06482267 0.084494695 0.026941726
000320 d2 f4 9d 3d 18 bf e0 3c 21 68 49 bc a8 3f 3c bd
       0.077127114 0.02743487 -0.012292893 -0.045959145
000330 53 20 4c bd 36 d7 a8 bc 11 1b 0e 3d 7d bd 06 bd
       -0.049835514 -0.020610433 0.03469378 -0.032895554
000340 5d d1 9c bc 04 e8 8a 3d 88 6c 96 3b 35 b5 ba bd
       -0.019142801 0.06782535 0.0045905747 -0.09116594
000350 6f a9 92 3b 6b 73 3c 3d bd 96 d5 3b 1f fa 62 3d
       0.0044757645 0.04600851 0.0065182135 0.055414315
000360 bb b0 04 3d 1b c2 f9 3c 73 fd dc 3b b7 4e b8 bc
       0.032395106 0.030488065 0.0067440807 -0.022498472
000370 53 a3 d8 bc 8a c8 8d 3c d6 0a 2c 3d 2d ff d2 bc
       -0.026445067 0.017307539 0.04200252 -0.025756443
000380 20 67 a3 bd e5 41 1b bd 1e c3 b1 3b 39 29 8e 3c
       -0.07978654 -0.03790464 0.005424871 0.01735364
000390 ab 74 69 bc b8 f6 1b bd 9e 84 47 3c 2c d3 08 3c
       -0.014249007 -0.038077086 0.0121776145 0.008351129
0003a0 8d e6 a6 ba 5d d5 3d 3c f8 cf 55 3c 7b ec fa bd
       -0.0012733504 0.011586514 0.013050072 -0.12252136
0003b0 37 62 60 bd 4f 68 b7 3c a6 27 9f 3c f5 3c b2 bc
       -0.054781165 0.022388605 0.019428086 -0.021757582
0003c0 26 b5 d6 3c fa 38 03 bd f3 f6 f1 3c 7c ca 2a bd
       0.026209425 -0.03203676 0.0295367 -0.04169701
0003d0 48 ec e3 3c 98 55 1e bd d6 62 8c bd 20 69 60 bc
       0.027822629 -0.038655847 -0.06854789 -0.013696939
0003e0 97 71 08 bd ee ce 81 3c 0d 98 ad 3c d8 e1 8c bd
       -0.033311453 0.015845742 0.021190668 -0.06879014
0003f0 db d5 9b bd cc 8b 01 3d a1 a3 a6 bc 8b 2e f5 3c
       -0.07609149 0.03162746 -0.020341696 0.02992942

lstm.weight_hh_l0 f4 [384, 96]
000000 c1 80 bc 88 32 19 c2 88 51 02 b6 08 b8 7c bc 08
       -1.1345108e-33 -1.1681874e-33 1.0954271e-33 1.134416e-33
000010 ca aa be 08 9f a9 c1 88 bd 98 be 88 14 35 c1 88
       1.1475361e-33 -1.1655643e-33 -1.1471118e-33 -1.1628244e-33
000020 c4 7c bf 88 a7 4d c2 88 1e fc c2 08 c3 2b bc 88
       -1.1524727e-33 -1.1694206e-33 1.1735223e-33 -1.1325127e-33
000030 90 e4 c1 08 dd ee b3 88 89 d1 b4 08 98 0d bd 08
       1.16695e-33 -1.0829327e-33 1.0882617e-33 1.137822e-33
000040 21 cc be 08 4c 36 c2 88 e9 f9 c0 88 bd 25 b2 08
       1.14831995e-33 -1.1688715e-33 -1.1614333e-33 1.0721858e-33
000050 18 ed b2 08 de 9c b8 88 6e 3a c0 88 ed c9 b4 08
       1.0768726e-33 -1.11109765e-33 -1.1569316e-33 1.08808285e-33
000060 ee b7 b1 88 13 dd b9 08 11 2d b1 08 14 9b be 88
       -1.0696042e-33 1.1186257e-33 1.0663395e-33 -1.1471668e-33
000070 76 44 b3 88 07 0f bd 88 7d 73 b3 88 cc 65 c0 88
       -1.0789266e-33 -1.1378557e-33 -1.0800322e-33 -1.1579512e-33
000080 ce 2b be 08 33 43 b3 88 ca cc b5 88 5c b8 c2 88
       1.14455075e-33 -1.0788969e-33 -1.0941687e-33 -1.1719293e-33
000090 48 85 bd 08 5e 2f b4 88 be 91 b3 08 cc 43 c0 08
       1.1406358e-33 -1.0844492e-33 1.0807434e-33 1.1571519e-33
0000a0 85 b2 b9 88 2a 95 ba 88 1e 04 b1 08 aa e2 b0 88
       -1.1176252e-33 -1.1229536e-33 1.0653768e-33 -1.0645903e-33
0000b0 ab d5 c0 08 3c e3 c0 08 e5 a8 be 08 d2 6e b1 88
       1.1605813e-33 1.1609002e-33 1.1474916e-33 -1.0678854e-33
0000c0 b2 4d b6 08 34 3e bd 08 5b 63 b6 08 97 89 bb 88
       1.0971993e-33 1.1389648e-33 1.0977085e-33 -1.1287e-33
0000d0 a2 fb b8 88 4f ed b5 88 ea 03 c2 08 69 75 b5 88
       -1.1133256e-33 -1.0949332e-33 1.16768705e-33 -1.0921144e-33
0000e0 91 29 b1 88 ca 9b bf 08 36 1c b1 88 cf a8 b5 88
       -1.0662572e-33 1.153202e-33 -1.0659432e-33 -1.0933228e-33
0000f0 88 ae b3 88 20 ba bf 08 13 86 c1 88 f3 d9 c2 08
       -1.0814203e-33 1.1539152e-33 -1.1647286e-33 1.172719e-33
000100 fe 75 bd 08 c1 25 bb 88 7c d0 bc 08 d1 88 b7 08
       1.1402764e-33 -1.1263529e-33 1.1363853e-33 1.1046077e-33
000110 4d 0b b6 08 7c f7 c1 88 69 5f bd 08 51 c6 bb 88
       1.0956383e-33 -1.1673948e-33 1.1397455e-33 -1.1301277e-33
000120 f5 8c b0 08 18 3c bd 08 87 4f bd 88 f1 f5 bd 88
       1.06257535e-33 1.1389152e-33 -1.13937205e-33 -1.1432844e-33
000130 ff 69 bb 88 f4 a3 b8 08 a0 2b bc 08 00 14 b8 08
       -1.1279573e-33 1.1112642e-33 1.1325095e-33 1.1078799e-33
000140 b5 98 b1 08 8a 4d be 08 87 34 bf 88 71 dd b7 08
       1.0688701e-33 1.1453438e-33 -1.15077435e-33 1.10659725e-33
000150 34 5f b7 08 18 f7 c2 88 42 f3 b2 88 6a 85 bb 88
       1.1036294e-33 -1.1734042e-33 -1.0770175e-33 -1.1286019e-33
000160 c7 f8 bd 88 87 fe b8 08 6e ce b1 88 68 79 b5 88
       -1.1433511e-33 1.1133936e-33 -1.0701331e-33 -1.0922084e-33
000170 30 4d c0 08 82 a0 be 08 35 2c b8 08 1f ea b6 88
       1.1573726e-33 1.1472944e-33 1.108449e-33 -1.1008768e-33
000180 99 e3 b2 08 38 de bb 88 94 62 bb 08 3d 6b b2 88
       1.0766493e-33 -1.13068965e-33 1.1277829e-33 -1.0738197e-33
000190 b6 fa b6 88 ac 1b bb 88 44 e7 b5 08 c4 da b2 88
       -1.1012668e-33 -1.1261159e-33 1.09479115e-33 -1.0764417e-33
0001a0 03 ff ba 88 82 f3 b0 88 26 1d bb 08 fc 18 be 88
       -1.1254421e-33 -1.0649863e-33 1.1261506e-33 -1.1441083e-33
0001b0 7f 1e b2 88 92 c9 b3 08 8e 5a c2 08 fc e1 b3 08
       -1.0720155e-33 1.082056e-33 1.169724e-33 1.0826299e-33
0001c0 c9 f9 b0 88 1a 1b bd 08 18 75 b0 08 76 9c b5 88
       -1.0651339e-33 1.1381395e-33 1.0620143e-33 -1.0930325e-33
0001d0 0e 0f b1 08 31 fe b2 08 6a 3c b3 08 7a 45 b2 88
       1.0656339e-33 1.0772745e-33 1.0787374e-33 -1.0729319e-33
0001e0 13 10 b8 08 0a 0e bb 88 ee 71 bf 08 1c ea c0 08
       1.1077876e-33 -1.1257954e-33 1.1522179e-33 1.16106185e-33
0001f0 d2 c1 b3 08 3c 0f c2 88 d9 a0 b1 08 30 e0 b1 88
       1.0818738e-33 -1.1679532e-33 1.0690615e-33 -1.0705506e-33
000200 de ec b0 88 ff dc b5 08 4c d1 bf 08 34 8d c0 88
       -1.0648302e-33 1.0945497e-33 1.15446e-33 -1.1588776e-33
000210 5b e8 b3 88 2c 59 b6 08 8e 31 b9 88 d5 da c0 08
       -1.0827797e-33 1.0974691e-33 -1.1145933e-33 1.1607027e-33
000220 ab 82 b2 08 1e 8e b6 08 4e d8 b7 88 76 96 b1 88
       1.0743705e-33 1.0987138e-33 -1.1064765e-33 -1.0688173e-33
000230 db d5 bc 88 10 6a b8 88 08 42 ba 88 71 35 c2 08
       -1.1365116e-33 -1.1099032e-33 -1.1209992e-33 1.1688514e-33
000240 48 57 b6 08 8e 66 b9 88 62 2f bd 08 37 eb c2 88
       1.0974246e-33 -1.1158393e-33 1.1386163e-33 -1.1731249e-33
000250 05 49 bc 88 d2 d2 c2 88 ee 50 b7 88 7c 71 c2 88
       -1.1332005e-33 -1.1725514e-33 -1.1032938e-33 -1.170263e-33
000260 a4 28 b1 08 5c 7e b6 88 3f 32 c3 08 c1 f0 b0 88
       1.0662355e-33 -1.09834335e-33 1.1747948e-33 -1.0649216e-33
000270 12 8c b5 08 3a 9b b3 88 6d 15 b3 88 80 fb b5 88
       1.0926472e-33 -1.0809664e-33 -1.0778208e-33 -1.0952669e-33
000280 69 a5 ba 88 28 7a c2 88 9c fc b1 88 e6 7f b1 88
       -1.1233356e-33 -1.1704669e-33 -1.0712188e-33 -1.0682869e-33
000290 29 f3 b0 88 71 18 bb 08 24 73 b9 08 cd 99 c2 08
       -1.0649781e-33 1.1260399e-33 1.1161352e-33 1.1712109e-33
0002a0 7c 11 c0 88 3d d8 b4 88 49 7f bd 88 ca 55 b2 88
       -1.155969e-33 -1.0884193e-33 -1.1404948e-33 -1.0733154e-33
0002b0 c3 bb b6 88 6c 83 ba 08 d6 b3 b2 88 f8 c1 ba 08
       -1.0997869e-33 1.1225365e-33 -1.0755265e-33 1.124007e-33
0002c0 c7 2c c0 08 1a 05 b6 88 70 fe b0 08 4f f4 b9 08
       1.1566107e-33 -1.0954926e-33 1.0652433e-33 1.1191719e-33
0002d0 5e a8 b5 88 14 3d bf 88 28 b7 bb 08 ac e6 b2 88
       -1.0933124e-33 -1.1509754e-33 1.1297713e-33 -1.0767216e-33
0002e0 b5 7d bc 08 c4 df b5 08 0d 1b b1 88 55 ee b1 08
       1.1344392e-33 1.0946148e-33 -1.065916e-33 1.0708832e-33
0002f0 73 9a b7 08 d1 8f bd 88 74 13 b8 88 b8 ba c1 88
       1.1050223e-33 -1.1408835e-33 -1.1078671e-33 -1.1659662e-33
000300 ef e3 b7 08 a0 a4 bc 08 34 c9 b0 08 d4 40 b7 08
       1.1067499e-33 1.1353542e-33 1.0639917e-33 1.1029153e-33
000310 57 68 b7 88 99 16 b4 88 e2 db ba 88 40 e1 b0 88
       -1.1038442e-33 -1.0838669e-33 -1.1246162e-33 -1.0645571e-33
000320 e2 e1 bd 08 dd fb b1 88 36 c3 b4 08 dc b1 bb 08
       1.14281285e-33 -1.0712013e-33 1.087925e-33 1.1296468e-33
000330 cb 56 ba 08 6e b2 ba 88 74 19 bf 08 ae 35 ba 08
       1.1214873e-33 -1.1236416e-33 1.1501378e-33 1.1207088e-33
000340 a8 70 b4 08 db 04 c3 88 53 16 b4 08 10 f5 b3 88
       1.0859841e-33 -1.1737277e-33 1.0838604e-33 -1.0830785e-33
000350 99 5e bc 08 17 2d b2 88 58 e9 be 08 8d 77 b3 88
       1.1337078e-33 -1.0723586e-33 1.1490068e-33 -1.0801277e-33
000360 ab a4 b1 88 7b 6f b9 88 ed 23 b7 88 da 75 b9 08
       -1.0691513e-33 -1.1160491e-33 -1.1022358e-33 1.1161989e-33
000370 c6 3e ba 88 1b 5f c2 88 83 33 b4 08 e5 5e b7 08
       -1.1209226e-33 -1.16983095e-33 1.0845466e-33 1.10362215e-33
000380 31 ef c0 88 36 b4 bf 08 ae 54 b4 88 75 ec b9 08
       -1.1611813e-33 1.1537762e-33 -1.0853264e-33 1.1189873e-33
000390 e8 48 b2 88 5b 43 bb 08 77 b6 bd 08 a2 cd b2 88
       -1.07301255e-33 1.1270488e-33 1.1417921e-33 -1.0761329e-33
0003a0 fd 39 b6 08 45 d2 b5 08 7b 9b bd 08 a9 04 c0 88
       1.09673595e-33 1.0942975e-33 1.1411577e-33 -1.1556675e-33
0003b0 f7 1e bc 08 36 7c c2 88 7c e9 b9 88 9e 61 bb 88
       1.1322118e-33 -1.1705152e-33 -1.1189174e-33 -1.1277603e-33
0003c0 31 91 b9 88 5d cc b2 88 5b 9b b4 88 51 d4 c1 88
       -1.1168417e-33 -1.0761031e-33 -1.086988e-33 -1.166568e-33
0003d0 88 09 b1 88 4e ca b8 08 d8 17 b2 88 71 11 bf 88
       -1.0655041e-33 1.1121659e-33 -1.0718591e-33 -1.1499495e-33
0003e0 53 cc b6 88 9b 4e bf 88 e7 a0 b8 08 98 af b8 08
       -1.1001763e-33 -1.1513874e-33 1.1111925e-33 1.1115379e-33
0003f0 5e 0b b9 88 8f 0b b7 88 03 3a b5 88 d2 9b bd 08
       -1.1136955e-33 -1.1016629e-33 -1.090718e-33 1.1411657e-33

lstm.bias_ih_l0 f4 [384]
000000 d8 23 3e bd 96 37 0a 3d 4c 41 e6 bb 1d a0 bb bc
       -0.046420902 0.033744417 -0.007026827 -0.022903496
000010 6f b3 4e bb c6 6d 0c 3b 2a a9 6f 3d fb 32 26 3b
       -0.0031540056 0.0021427735 0.058510937 0.0025359977
000020 57 b5 06 3d c4 f9 2b bc 8c ac 7f 3c f8 61 0f bb
       0.032887783 -0.0104965605 0.015605103 -0.0021878462
000030 31 00 06 3d 34 f0 09 bc 76 59 61 3d de 7d 4f b9
       0.032715026 -0.008419085 0.055016957 -0.00019787948
000040 de 48 25 3d 3d b9 34 3a 05 74 17 ba 62 c9 29 bb
       0.040352695 0.0006894058 -0.0005777481 -0.0025907387
000050 3c e8 05 bc fb 17 f0 37 16 92 56 bc 93 0c 9b ba
       -0.008173045 2.8621396e-05 -0.013096353 -0.0011829309
000060 10 2b 52 3b b2 34 1c 38 a9 56 30 3c 18 30 f5 ba
       0.0032069124 3.7242375e-05 0.010762849 -0.001870635
000070 83 94 8f bb 03 20 10 bd e5 6c fe bb 33 6d 53 ba
       -0.0043817176 -0.03518678 -0.007764446 -0.0008065283
000080 ab 9e 47 3a 9c 03 bd 3c 74 cb 89 ba e7 16 91 bb
       0.0007614891 0.02307301 -0.0010512904 -0.004427779
000090 24 fd 98 3b 4b 7f d5 3c 49 da 02 bb e9 73 8f b6
       0.0046688486 0.026061675 -0.0019966534 -4.275226e-06
0000a0 21 dd 1e 3c e7 44 20 3a 44 63 a4 38 ea 46 e2 bb
       0.009696276 0.0006113783 7.838619e-05 -0.0069054263
0000b0 af 33 cd bb 2d 77 5f 3b e6 81 a5 3a 76 45 71 bb
       -0.0062622647 0.0034098134 0.0012627214 -0.0036815084
0000c0 98 8b 50 bb 14 6d 01 b8 75 83 b1 bb e7 98 31 3c
       -0.0031821486 -3.0857584e-05 -0.005417282 0.010839677
0000d0 83 39 5e bb 44 b5 c0 bc 6f 96 44 3d d0 f0 0b 3d
       -0.0033908791 -0.023523934 0.047995027 0.034165204
0000e0 80 21 2d 3d 85 a7 0b bd 8f 00 87 bb 1d e8 26 bb
       0.042268276 -0.034095306 -0.0041199396 -0.002546794
0000f0 6b 68 0b bc 98 40 01 3d c9 dc 96 bb 49 49 fd 39
       -0.008508782 0.031555742 -0.0046039564 0.00048310522
000100 fa ef 8a 3c 2e c8 a4 bb 4f d2 3e 3c 42 a3 b8 bb
       0.016960133 -0.005028746 0.011646821 -0.005634696
000110 79 98 21 3d 69 d6 12 bb 08 77 1d bb 43 32 a7 bb
       0.03945205 -0.002240563 -0.0024027247 -0.005102427
000120 f7 a7 b6 3b 02 69 0e bb 47 23 b4 3b 88 bc d6 bc
       0.005574222 -0.002173007 0.0054973694 -0.026212946
000130 35 13 f7 3c 43 39 32 3b 09 80 8a bb 20 e4 43 3d
       0.030160526 0.0027194775 -0.0042266888 0.04782498
000140 91 b4 27 bb c0 e1 d7 39 bf c0 3f bb ab 30 7b 3d
       -0.0025589804 0.00041176192 -0.0029259173 0.06132571
000150 9e dd a3 3b 05 df d2 3a 1c 54 14 bc ed 2d f3 bb
       0.005000784 0.0016088194 -0.009053256 -0.0074212463
000160 75 41 d0 ba f8 b7 dc ba 7f 4a af bb cd af 74 bb
       -0.0015888648 -0.0016839495 -0.005349457 -0.003733623
000170 1b 6b cb bb 70 cf a5 3c 22 30 1e 3d c8 5e 23 bb
       -0.0062078363 0.020240515 0.03862012 -0.002492832
000180 00 00 00 00 00 00 00 00 00 00 00 00 00 00 00 00
       0.0 0.0 0.0 0.0
000190 00 00 00 00 00 00 00 00 00 00 00 00 00 00 00 00
       0.0 0.0 0.0 0.0
0001a0 00 00 00 00 00 00 00 00 00 00 00 00 00 00 00 00
       0.0 0.0 0.0 0.0
0001b0 00 00 00 00 00 00 00 00 00 00 00 00 00 00 00 00
       0.0 0.0 0.0 0.0
0001c0 00 00 00 00 00 00 00 00 00 00 00 00 00 00 00 00
       0.0 0.0 0.0 0.0
0001d0 00 00 00 00 00 00 00 00 00 00 00 00 00 00 00 00
       0.0 0.0 0.0 0.0
0001e0 00 00 00 00 00 00 00 00 00 00 00 00 00 00 00 00
       0.0 0.0 0.0 0.0
0001f0 00 00 00 00 00 00 00 00 00 00 00 00 00 00 00 00
       0.0 0.0 0.0 0.0
000200 00 00 00 00 00 00 00 00 00 00 00 00 00 00 00 00
       0.0 0.0 0.0 0.0
000210 00 00 00 00 00 00 00 00 00 00 00 00 00 00 00 00
       0.0 0.0 0.0 0.0
000220 00 00 00 00 00 00 00 00 00 00 00 00 00 00 00 00
       0.0 0.0 0.0 0.0
000230 00 00 00 00 00 00 00 00 00 00 00 00 00 00 00 00
       0.0 0.0 0.0 0.0
000240 00 00 00 00 00 00 00 00 00 00 00 00 00 00 00 00
       0.0 0.0 0.0 0.0
000250 00 00 00 00 00 00 00 00 00 00 00 00 00 00 00 00
       0.0 0.0 0.0 0.0
000260 00 00 00 00 00 00 00 00 00 00 00 00 00 00 00 00
       0.0 0.0 0.0 0.0
000270 00 00 00 00 00 00 00 00 00 00 00 00 00 00 00 00
       0.0 0.0 0.0 0.0
000280 00 00 00 00 00 00 00 00 00 00 00 00 00 00 00 00
       0.0 0.0 0.0 0.0
000290 00 00 00 00 00 00 00 00 00 00 00 00 00 00 00 00
       0.0 0.0 0.0 0.0
0002a0 00 00 00 00 00 00 00 00 00 00 00 00 00 00 00 00
       0.0 0.0 0.0 0.0
0002b0 00 00 00 00 00 00 00 00 00 00 00 00 00 00 00 00
       0.0 0.0 0.0 0.0
0002c0 00 00 00 00 00 00 00 00 00 00 00 00 00 00 00 00
       0.0 0.0 0.0 0.0
0002d0 00 00 00 00 00 00 00 00 00 00 00 00 00 00 00 00
       0.0 0.0 0.0 0.0
0002e0 00 00 00 00 00 00 00 00 00 00 00 00 00 00 00 00
       0.0 0.0 0.0 0.0
0002f0 00 00 00 00 00 00 00 00 00 00 00 00 00 00 00 00
       0.0 0.0 0.0 0.0
000300 a7 75 fb 3b eb cd 8c 3b 8e dd df 3b bb fa f1 3b
       0.0076739374 0.0042970083 0.0068318313 0.0073846257
000310 13 2d 9f 3b 97 cf a1 bb ce 36 96 3b c4 3a 58 bb
       0.004857668 -0.0049380767 0.00458417 -0.0032994011
000320 c1 46 25 3b 83 cd 5f 3b 08 6a f8 3b 7c df db bb
       0.0025219175 0.0034149594 0.0075809993 -0.006709991
000330 64 79 a5 3b 96 f9 4e 3b 27 58 93 3b bb e2 e6 3b
       0.0050498713 0.003158187 0.0044965926 0.0070460713
000340 86 9d ca 3a ab 59 6b bc 07 2f 65 3b 16 98 93 3c
       0.0015458323 -0.01436464 0.0034970657 0.018016856
000350 06 72 72 ba 14 99 5c b6 83 ec e9 3a b8 78 a1 3b
       -0.0009248558 -3.2871658e-06 0.0017846975 0.004927721
000360 bf 0b 85 3b 78 db ba bb 61 c5 09 3b 1c 31 89 3a
       0.004060238 -0.0057024322 0.0021022188 0.0010466906
000370 0c 18 b7 bb ce 9b 6e ba 58 84 f8 3b a9 8e 8c 3b
       -0.0055875834 -0.0009102196 0.007584136 0.0042894674
000380 7b 0c 5d 3b 99 6d 47 3b 8f 5e c2 3b a3 5c 26 bb
       0.0033729363 0.0030430316 0.0059316824 -0.0025384806
000390 f6 b0 8f 39 ce f2 8a 3b 72 06 72 bb 79 7a 2c bb
       0.00027406932 0.0042403704 -0.0036930111 -0.0026318117
0003a0 ac 54 51 3b 96 df d1 bb 9e cf 06 3c d3 56 ee bb
       0.0031941338 -0.0064048273 0.008228211 -0.007273534
0003b0 d9 89 44 39 7c f9 25 3b 87 98 71 3b a7 30 05 3c
       0.00018743369 0.0025325706 0.0036864595 0.008129275
0003c0 5a ac cd 3b d5 b4 be bb 30 2b 29 bb b2 98 75 3b
       0.0062766494 -0.0058198967 -0.0025813095 0.0037475047
0003d0 06 5b 98 3b 20 bc d4 3b f2 14 a0 3b b5 3e 89 3b
       0.0046495227 0.006492153 0.0048853094 0.0041883835
0003e0 b8 f0 bb 3b ae 65 56 3c 8f 62 12 bc c7 97 54 3b
       0.005735483 0.013085766 -0.008934631 0.00324391
0003f0 6c 30 75 bb 07 1b 66 3b 0e 1e dd ba bf fa 61 bb
       -0.0037412895 0.0035111324 -0.0016869919 -0.0034481732

lstm.bias_hh_l0 f4 [384]
000000 d8 23 3e bd 96 37 0a 3d 4c 41 e6 bb 1d a0 bb bc
       -0.046420902 0.033744417 -0.007026827 -0.022903496
000010 6f b3 4e bb c6 6d 0c 3b 2a a9 6f 3d fb 32 26 3b
       -0.0031540056 0.0021427735 0.058510937 0.0025359977
000020 57 b5 06 3d c4 f9 2b bc 8c ac 7f 3c f8 61 0f bb
       0.032887783 -0.0104965605 0.015605103 -0.0021878462
000030 31 00 06 3d 34 f0 09 bc 76 59 61 3d de 7d 4f b9
       0.032715026 -0.008419085 0.055016957 -0.00019787948
000040 de 48 25 3d 3d b9 34 3a 05 74 17 ba 62 c9 29 bb
       0.040352695 0.0006894058 -0.0005777481 -0.0025907387
000050 3c e8 05 bc fb 17 f0 37 16 92 56 bc 93 0c 9b ba
       -0.008173045 2.8621396e-05 -0.013096353 -0.0011829309
000060 10 2b 52 3b b2 34 1c 38 a9 56 30 3c 18 30 f5 ba
       0.0032069124 3.7242375e-05 0.010762849 -0.001870635
000070 83 94 8f bb 03 20 10 bd e5 6c fe bb 33 6d 53 ba
       -0.0043817176 -0.03518678 -0.007764446 -0.0008065283
000080 ab 9e 47 3a 9c 03 bd 3c 74 cb 89 ba e7 16 91 bb
       0.0007614891 0.02307301 -0.0010512904 -0.004427779
000090 24 fd 98 3b 4b 7f d5 3c 49 da 02 bb e9 73 8f b6
       0.0046688486 0.026061675 -0.0019966534 -4.275226e-06
0000a0 21 dd 1e 3c e7 44 20 3a 44 63 a4 38 ea 46 e2 bb
       0.009696276 0.0006113783 7.838619e-05 -0.0069054263
0000b0 af 33 cd bb 2d 77 5f 3b e6 81 a5 3a 76 45 71 bb
       -0.0062622647 0.0034098134 0.0012627214 -0.0036815084
0000c0 98 8b 50 bb 14 6d 01 b8 75 83 b1 bb e7 98 31 3c
       -0.0031821486 -3.0857584e-05 -0.005417282 0.010839677
0000d0 83 39 5e bb 44 b5 c0 bc 6f 96 44 3d d0 f0 0b 3d
       -0.0033908791 -0.023523934 0.047995027 0.034165204
0000e0 80 21 2d 3d 85 a7 0b bd 8f 00 87 bb 1d e8 26 bb
       0.042268276 -0.034095306 -0.0041199396 -0.002546794
0000f0 6b 68 0b bc 98 40 01 3d c9 dc 96 bb 49 49 fd 39
       -0.008508782 0.031555742 -0.0046039564 0.00048310522
000100 fa ef 8a 3c 2e c8 a4 bb 4f d2 3e 3c 42 a3 b8 bb
       0.016960133 -0.005028746 0.011646821 -0.005634696
000110 79 98 21 3d 69 d6 12 bb 08 77 1d bb 43 32 a7 bb
       0.03945205 -0.002240563 -0.0024027247 -0.005102427
000120 f7 a7 b6 3b 02 69 0e bb 47 23 b4 3b 88 bc d6 bc
       0.005574222 -0.002173007 0.0054973694 -0.026212946
000130 35 13 f7 3c 43 39 32 3b 09 80 8a bb 20 e4 43 3d
       0.030160526 0.0027194775 -0.0042266888 0.04782498
000140 91 b4 27 bb c0 e1 d7 39 bf c0 3f bb ab 30 7b 3d
       -0.0025589804 0.00041176192 -0.0029259173 0.06132571
000150 9e dd a3 3b 05 df d2 3a 1c 54 14 bc ed 2d f3 bb
       0.005000784 0.0016088194 -0.009053256 -0.0074212463
000160 75 41 d0 ba f8 b7 dc ba 7f 4a af bb cd af 74 bb
       -0.0015888648 -0.0016839495 -0.005349457 -0.003733623
000170 1b 6b cb bb 70 cf a5 3c 22 30 1e 3d c8 5e 23 bb
       -0.0062078363 0.020240515 0.03862012 -0.002492832
000180 00 00 00 00 00 00 00 00 00 00 00 00 00 00 00 00
       0.0 0.0 0.0 0.0
000190 00 00 00 00 00 00 00 00 00 00 00 00 00 00 00 00
       0.0 0.0 0.0 0.0
0001a0 00 00 00 00 00 00 00 00 00 00 00 00 00 00 00 00
       0.0 0.0 0.0 0.0
0001b0 00 00 00 00 00 00 00 00 00 00 00 00 00 00 00 00
       0.0 0.0 0.0 0.0
0001c0 00 00 00 00 00 00 00 00 00 00 00 00 00 00 00 00
       0.0 0.0 0.0 0.0
0001d0 00 00 00 00 00 00 00 00 00 00 00 00 00 00 00 00
       0.0 0.0 0.0 0.0
0001e0 00 00 00 00 00 00 00 00 00 00 00 00 00 00 00 00
       0.0 0.0 0.0 0.0
0001f0 00 00 00 00 00 00 00 00 00 00 00 00 00 00 00 00
       0.0 0.0 0.0 0.0
000200 00 00 00 00 00 00 00 00 00 00 00 00 00 00 00 00
       0.0 0.0 0.0 0.0
000210 00 00 00 00 00 00 00 00 00 00 00 00 00 00 00 00
       0.0 0.0 0.0 0.0
000220 00 00 00 00 00 00 00 00 00 00 00 00 00 00 00 00
       0.0 0.0 0.0 0.0
000230 00 00 00 00 00 00 00 00 00 00 00 00 00 00 00 00
       0.0 0.0 0.0 0.0
000240 00 00 00 00 00 00 00 00 00 00 00 00 00 00 00 00
       0.0 0.0 0.0 0.0
000250 00 00 00 00 00 00 00 00 00 00 00 00 00 00 00 00
       0.0 0.0 0.0 0.0
000260 00 00 00 00 00 00 00 00 00 00 00 00 00 00 00 00
       0.0 0.0 0.0 0.0
000270 00 00 00 00 00 00 00 00 00 00 00 00 00 00 00 00
       0.0 0.0 0.0 0.0
000280 00 00 00 00 00 00 00 00 00 00 00 00 00 00 00 00
       0.0 0.0 0.0 0.0
000290 00 00 00 00 00 00 00 00 00 00 00 00 00 00 00 00
       0.0 0.0 0.0 0.0
0002a0 00 00 00 00 00 00 00 00 00 00 00 00 00 00 00 00
       0.0 0.0 0.0 0.0
0002b0 00 00 00 00 00 00 00 00 00 00 00 00 00 00 00 00
       0.0 0.0 0.0 0.0
0002c0 00 00 00 00 00 00 00 00 00 00 00 00 00 00 00 00
       0.0 0.0 0.0 0.0
0002d0 00 00 00 00 00 00 00 00 00 00 00 00 00 00 00 00
       0.0 0.0 0.0 0.0
0002e0 00 00 00 00 00 00 00 00 00 00 00 00 00 00 00 00
       0.0 0.0 0.0 0.0
0002f0 00 00 00 00 00 00 00 00 00 00 00 00 00 00 00 00
       0.0 0.0 0.0 0.0
000300 a7 75 fb 3b eb cd 8c 3b 8e dd df 3b bb fa f1 3b
       0.0076739374 0.0042970083 0.0068318313 0.0073846257
000310 13 2d 9f 3b 97 cf a1 bb ce 36 96 3b c4 3a 58 bb
       0.004857668 -0.0049380767 0.00458417 -0.0032994011
000320 c1 46 25 3b 83 cd 5f 3b 08 6a f8 3b 7c df db bb
       0.0025219175 0.0034149594 0.0075809993 -0.006709991
000330 64 79 a5 3b 96 f9 4e 3b 27 58 93 3b bb e2 e6 3b
       0.0050498713 0.003158187 0.0044965926 0.0070460713
000340 86 9d ca 3a ab 59 6b bc 07 2f 65 3b 16 98 93 3c
       0.0015458323 -0.01436464 0.0034970657 0.018016856
000350 06 72 72 ba 14 99 5c b6 83 ec e9 3a b8 78 a1 3b
       -0.0009248558 -3.2871658e-06 0.0017846975 0.004927721
000360 bf 0b 85 3b 78 db ba bb 61 c5 09 3b 1c 31 89 3a
       0.004060238 -0.0057024322 0.0021022188 0.0010466906
000370 0c 18 b7 bb ce 9b 6e ba 58 84 f8 3b a9 8e 8c 3b
       -0.0055875834 -0.0009102196 0.007584136 0.0042894674
000380 7b 0c 5d 3b 99 6d 47 3b 8f 5e c2 3b a3 5c 26 bb
       0.0033729363 0.0030430316 0.0059316824 -0.0025384806
000390 f6 b0 8f 39 ce f2 8a 3b 72 06 72 bb 79 7a 2c bb
       0.00027406932 0.0042403704 -0.0036930111 -0.0026318117
0003a0 ac 54 51 3b 96 df d1 bb 9e cf 06 3c d3 56 ee bb
       0.0031941338 -0.0064048273 0.008228211 -0.007273534
0003b0 d9 89 44 39 7c f9 25 3b 87 98 71 3b a7 30 05 3c
       0.00018743369 0.0025325706 0.0036864595 0.008129275
0003c0 5a ac cd 3b d5 b4 be bb 30 2b 29 bb b2 98 75 3b
       0.0062766494 -0.0058198967 -0.0025813095 0.0037475047
0003d0 06 5b 98 3b 20 bc d4 3b f2 14 a0 3b b5 3e 89 3b
       0.0046495227 0.006492153 0.0048853094 0.0041883835
0003e0 b8 f0 bb 3b ae 65 56 3c 8f 62 12 bc c7 97 54 3b
       0.005735483 0.013085766 -0.008934631 0.00324391
0003f0 6c 30 75 bb 07 1b 66 3b 0e 1e dd ba bf fa 61 bb
       -0.0037412895 0.0035111324 -0.0016869919 -0.0034481732

lstm.weight_ih_l1 f4 [384, 96]
000000 49 51 d0 3e 61 7a 3b bd 27 6f b1 bc 2d 9a 70 3e
       0.40687016 -0.045771006 -0.021659447 0.23496313
000010 05 12 8d 3d f6 bb 99 3b b6 43 84 3d c2 76 cb 3c
       0.068882026 0.004691596 0.06458227 0.024836902
000020 4b e7 90 bc 2d 78 56 3d 95 c8 a0 3e 0e 78 dc 3c
       -0.017688414 0.052360702 0.31403032 0.026912715
000030 3e 05 3a bd e2 c2 40 bd aa f1 f5 3b 2a b7 29 3e
       -0.045415156 -0.047060855 0.0075056152 0.16573778
000040 81 50 43 3e e7 ce 98 bd 94 f5 75 bc f0 61 01 bc
       0.19073679 -0.074613385 -0.015012164 -0.007896885
000050 28 0e 1a bd 6c f1 06 bb 53 8f 95 3d 09 17 8f bb
       -0.037611157 -0.0020590676 0.073027276 -0.0043667597
000060 47 7c 0c 3e 6a 81 52 3d bc c4 3a 3e 7b 26 d0 3c
       0.13719283 0.05139295 0.1823911 0.025408974
000070 e1 47 0d 3d 53 fb c2 be 60 43 b3 3e bb 95 99 3b
       0.034492377 -0.3808237 0.3501234 0.0046870387
000080 7a 18 8d bc dd 52 8c 3e f8 b4 42 bd 25 9e 85 3b
       -0.017223585 0.2740697 -0.047535866 0.00407769
000090 5b 60 bb bc 3d 49 1b 3f 09 62 bc 3b da 1f 38 bc
       -0.022873094 0.6065863 0.0057489914 -0.011238063
0000a0 6a b6 38 3f f3 82 04 3d 58 73 33 bc ae ce 5c 3d
       0.7215334 0.032351445 -0.010952793 0.053908043
0000b0 30 6e b6 3b b7 ab d8 bc 55 2a 48 bc 48 0f 58 bd
       0.0055673346 -0.026449068 -0.012217124 -0.05274895
0000c0 b5 71 b3 bc 5d 81 fe 3c 9e 91 c2 bc ea bf 98 3d
       -0.021904806 0.031067545 -0.023751076 0.0745848
0000d0 ce 34 ba 3b 4b c5 d8 3e 39 7f 5d 3c e7 1d 65 bc
       0.0056825643 0.42338023 0.013519102 -0.01398418
0000e0 62 4f c0 3d 00 8c fc 3e 1d 9b 13 3d 79 b6 0e 3b
       0.09390141 0.49325562 0.0360366 0.0021776243
0000f0 e5 54 e4 bc 89 d6 e2 bb 8a 23 8d 3c a7 9f bb bc
       -0.027872512 -0.0069225472 0.01722886 -0.022903277
000100 a3 f5 81 3d ea ab 17 bc 5b a4 a4 3a c9 0c 52 3d
       0.063456796 -0.009257296 0.0012561189 0.051281724
000110 76 04 e9 be 14 5a 28 bc b7 e2 a3 3c 42 67 58 bb
       -0.45511216 -0.010275383 0.020005567 -0.003302053
000120 63 58 8b 3a e0 8a 33 3d 0c b0 9e 3a d7 33 f7 3e
       0.00106312 0.043833613 0.0012106909 0.48281738
000130 6b f2 29 be 47 5f ff bc 02 a9 b5 3c f0 c9 90 be
       -0.16596381 -0.031173361 0.022175316 -0.28279066
000140 43 37 b7 3c 33 25 eb ba 4e 30 73 3b 33 b5 62 3d
       0.022365218 -0.0017940163 0.003710765 0.055348586
000150 72 2a a5 bc 3c d5 8b 3d 56 76 28 3f 2c ff f1 bc
       -0.020161841 0.068277806 0.65805566 -0.02954062
000160 53 05 8e 3c c6 29 e1 bc e1 1e 91 39 32 8e 54 bb
       0.017336523 -0.02748574 0.00027679562 -0.0032433388
000170 d5 e3 95 bc b8 c5 d8 3e ec 1c 14 3e 7c 1f 2a bd
       -0.018297115 0.42338347 0.14464158 -0.041533932
000180 1e 4b b4 3e a8 49 49 3e 83 c6 04 3e fd fa fa 3d
       0.3521356 0.19657004 0.12966351 0.122549035
000190 9c 0d 16 3d f4 df 5e 3c a4 97 94 3e 9d 18 ff 3c
       0.036634073 0.013603199 0.29021943 0.031139666
0001a0 72 4b 43 bc e0 58 98 3c 0a 02 9d 3e 1c 57 4a bb
       -0.011919843 0.018597066 0.30665618 -0.0030874675
0001b0 6f bb a8 3e ed 91 3a bd ff 69 20 3f 39 bb ba 3e
       0.329555 -0.045549322 0.6266174 0.36470965
0001c0 c3 a0 16 3f 39 1a 49 be 48 e9 55 bc a7 39 30 3e
       0.5883905 -0.1963891 -0.013056107 0.17209493
0001d0 a9 1d 92 3c 92 08 13 bd 2b 27 bc 3d 42 80 91 bc
       0.017836409 -0.035896845 0.09187158 -0.017761353
0001e0 0c 18 72 3d a7 41 03 3d fd e5 df 3e 21 10 36 3d
       0.059104964 0.032045033 0.43730155 0.044448975
0001f0 2d 8e d5 3b 56 f1 8d 3d c5 2d 62 3e 36 10 21 3c
       0.006517193 0.06930797 0.22087772 0.009830525
000200 ad 18 03 bd eb da 55 3d d8 42 1e 3d e5 0f 04 3d
       -0.032005955 0.05221073 0.038637966 0.03224172
000210 99 51 10 bd 1e 23 4a 3f f9 14 f1 ba 57 a1 9f 3c
       -0.035234068 0.78959835 -0.0018393091 0.019486113
000220 26 6d 24 3f be 89 01 3b 19 fe 84 bc 2e 34 1e bc
       0.6422905 0.0019765939 -0.016234444 -0.009655995
000230 78 7d a5 3c 28 9e 02 bc 02 89 5a bc f1 a2 c2 3b
       0.02020143 -0.007972278 -0.013338329 0.0059398343
000240 02 be ac 3c c6 ab cd bc b1 f2 fa 3b 89 e1 93 3e
       0.021086697 -0.025106322 0.0076583256 0.28883007
000250 f6 d9 04 bd 05 c8 86 3e f4 80 ce 3d b6 af c1 3e
       -0.032434426 0.26324478 0.100831896 0.3782937
000260 9b fd 2d 3e 75 0c 58 3e 82 92 15 3c 9d d1 e0 3d
       0.16991274 0.21098502 0.0091291685 0.109774806
000270 3b c9 1d 3c 47 94 c3 3d 5b c5 5f 3c a2 ab f7 bc
       0.009630497 0.09549766 0.013657893 -0.030233208
000280 21 c8 4f 3e 23 22 81 bc 37 96 94 3d ed da f7 3c
       0.20291187 -0.015763348 0.07255214 0.03025576
000290 a7 57 e6 3d 7b 1f 88 bc da 1f 55 3c fe 88 c6 3c
       0.11247187 -0.016616574 0.013008082 0.024235245
0002a0 23 a7 84 3b 78 e4 4b 3a 3f 74 30 bd 10 2d a6 3e
       0.0040482446 0.000777788 -0.04307961 0.32456255
0002b0 e0 88 d3 3e db e6 03 bd 45 4f c7 3c 9c 10 69 3e
       0.41315365 -0.032202583 0.02432979 0.22760242
0002c0 79 f2 d3 3c f5 6b 68 bc 47 26 99 3b 7f 2a ca 3d
       0.025872456 -0.014185895 0.0046737525 0.09871387
0002d0 ec 55 56 bc 51 8f 12 3d 62 df 0a 3e c9 de fd bc
       -0.013082009 0.03578121 0.13561776 -0.030990021
0002e0 5b 91 0f 3d 0d 4e 15 bc 19 10 7d 3c 72 05 d4 ba
       0.03505073 -0.009112847 0.0154457325 -0.0016175939
0002f0 25 15 45 3c 82 87 22 3f af 49 85 3e c9 3b 3a 3c
       0.012028967 0.6348802 0.2603278 0.011366793
000300 7b 8c b5 3e 8f a6 52 3e 95 e8 02 3e 0f cf fd 3d
       0.3545874 0.2057135 0.12784036 0.12393009
000310 bf ad fa 3c 20 88 85 3c 7f c2 8c 3e 8f 53 17 3d
       0.030600427 0.016300261 0.2749214 0.036944922
000320 83 c0 4f 3c de 8a ae 3c 6a 25 9d 3e 98 ae be bb
       0.012680176 0.021306451 0.30692607 -0.005819153
000330 f6 7b a0 3e 89 cf 4b bd 5f 05 11 3f 30 a7 a9 3e
       0.31344575 -0.049758468 0.5664882 0.33135366
000340 8a cf 0d 3f 61 3b 56 be 3e 31 88 bc 0c 0e 20 3e
       0.55394804 -0.20921089 -0.016625043 0.15630358
000350 fa 7a 92 3c a7 63 1a bd 8c 4d c3 3d 5e 2f a2 bc
       0.017880905 -0.037692692 0.09536275 -0.019797977
000360 58 3a 82 3d ab 89 19 3d 64 be de 3e e1 64 41 3d
       0.063587844 0.037484806 0.43504632 0.047215346
000370 43 cd aa 3b 3d 75 9d 3d 35 96 53 3e 75 e9 57 3c
       0.0052124574 0.07688377 0.20662768 0.013178219
000380 7c af 18 bd 1f bb 81 3d 5b 61 27 3d 9e f4 13 3d
       -0.03727673 0.06334519 0.04086433 0.036121957
000390 24 af 15 bd b4 53 4c 3f 1e 13 4c bb 7b 49 d9 3c
       -0.03654398 0.7981522 -0.0031139324 0.026524296
0003a0 56 c0 24 3f 8e 7f eb 3b 4f 40 a5 bc e7 84 4c bc
       0.6435598 0.0071868366 -0.020172266 -0.012482858
0003b0 bf 52 98 3c 4a 80 cd bb f0 6d 70 bc 0c f3 14 3c
       0.018594144 -0.0062713968 -0.014674649 0.00909115
0003c0 e3 ca db 3c cf 2e b1 bc a2 90 f1 3a 1f 77 8a 3e
       0.026830142 -0.021628765 0.0018429945 0.27044007
0003d0 2c a3 20 bd ee 8e 85 3e 12 a2 d8 3d 3b cb cb 3e
       -0.039218113 0.2608561 0.105777875 0.3980349
0003e0 95 fc 2b 3e 57 eb 63 3e 7f 3e 5e 3c 1a 9b 00 3e
       0.16795571 0.22257744 0.013564705 0.12559167
0003f0 f5 29 28 3c 0e 2c f3 3d cd 75 89 3c 07 43 0f bd
       0.01026391 0.11873637 0.016779805 -0.03497603

lstm.weight_hh_l1 f4 [384, 96]
000000 a2 a6 c0 88 ca c0 b1 08 d4 09 b6 88 3e 7e b4 88
       -1.1594755e-33 1.06981245e-33 -1.0956037e-33 -1.0863035e-33
000010 4b 87 b4 08 02 ec be 88 80 12 b4 88 e0 2e c3 88
       1.0865163e-33 -1.1490694e-33 -1.0837705e-33 -1.1747156e-33
000020 ad 5c b9 88 c5 f5 bd 88 94 17 b4 88 2c c7 b3 08
       -1.11560705e-33 -1.1432804e-33 -1.0838899e-33 1.0819996e-33
000030 5a 91 b6 88 7a 67 bc 88 eb 06 b4 08 5c 6a bf 88
       -1.0987899e-33 -1.1339166e-33 1.0834982e-33 -1.1520399e-33
000040 cc b3 b2 08 0f 98 b9 88 81 1d b3 88 45 4d c1 88
       1.0755255e-33 -1.1170031e-33 -1.0780107e-33 -1.1633931e-33
000050 f2 4d b2 88 54 76 ba 88 24 d0 be 08 fb df b0 88
       -1.073131e-33 -1.1222287e-33 1.1484143e-33 -1.0645272e-33
000060 7e 1d b2 08 60 55 bf 08 6e a7 b5 88 bf c5 b7 88
       1.0719919e-33 1.1515466e-33 -1.0932904e-33 -1.1060402e-33
000070 66 e9 c0 08 e4 11 b2 88 70 2b b9 08 7b 1f c2 88
       1.1610451e-33 -1.0717191e-33 1.1144495e-33 -1.1683351e-33
000080 77 8c b7 08 58 9d be 88 cd 71 b1 88 51 fd b9 88
       1.1046935e-33 -1.14722e-33 -1.0679554e-33 -1.1193837e-33
000090 e9 37 be 88 3e 23 c0 08 ec 8d b8 88 4d 0b b9 88
       -1.14483535e-33 1.1563865e-33 -1.1107463e-33 -1.1136939e-33
0000a0 26 e5 bd 08 ce c4 bb 88 4d 06 c2 88 82 b9 bf 88
       1.1428896e-33 -1.1300922e-33 -1.1677432e-33 -1.1539007e-33
0000b0 ea 03 b8 08 27 86 b0 88 05 0a b7 08 6d b3 bd 08
       1.1075017e-33 -1.0624154e-33 1.1016267e-33 1.14172065e-33
0000c0 24 f2 c2 08 3d 56 bc 08 a9 ac b3 88 ae 2f b5 88
       1.1732877e-33 1.1335113e-33 -1.0813763e-33 -1.0904751e-33
0000d0 43 72 b5 88 bb bb bd 08 94 97 b5 88 d1 1f b3 08
       -1.0920404e-33 1.1419159e-33 -1.0929177e-33 1.0780651e-33
0000e0 71 1e c1 08 9e 24 b5 08 f0 22 b6 08 49 89 c1 88
       1.1622922e-33 1.090215e-33 1.096194e-33 -1.1648041e-33
0000f0 d2 69 ba 08 8a 92 b8 08 30 d7 b1 88 47 1a c0 08
       1.1219346e-33 1.1108548e-33 -1.070339e-33 1.1561757e-33
000100 ae ba b1 08 42 2a bd 88 00 b0 c1 88 16 d3 b2 88
       1.0696688e-33 -1.13849585e-33 -1.1657142e-33 -1.0762611e-33
000110 80 dc b5 88 99 ec b0 88 63 2d ba 88 06 b9 b9 08
       -1.0945381e-33 -1.06482385e-33 -1.1205138e-33 1.1177781e-33
000120 2d 2a bf 88 61 43 b8 08 93 c1 b9 08 da 64 b7 88
       -1.150531e-33 1.1089938e-33 1.1179792e-33 -1.1037622e-33
000130 86 f8 ba 08 32 15 b8 88 f1 ac b1 08 e3 6f b6 08
       1.1252895e-33 -1.107908e-33 1.0693458e-33 1.0980031e-33
000140 0a e2 b0 08 f9 4b c0 08 35 a5 b4 08 71 20 bb 08
       1.0645756e-33 1.1573441e-33 1.0872196e-33 1.126228e-33
000150 7a 92 b1 08 da 68 b4 08 3c 7f c2 08 6e de b9 08
       1.06872365e-33 1.0858006e-33 1.1705863e-33 1.11865755e-33
000160 2f 01 b9 08 2e 44 b3 88 72 50 c2 88 90 7d bf 88
       1.1134561e-33 -1.07892e-33 -1.1694863e-33 -1.1524914e-33
000170 54 31 b3 08 40 80 bd 88 49 74 c1 08 b2 d7 b1 88
       1.0784768e-33 -1.1405175e-33 1.16431035e-33 -1.070351e-33
000180 65 0d ba 88 ef 74 be 88 7b dd b2 88 a8 e9 b8 88
       -1.1197617e-33 -1.14627e-33 -1.0765055e-33 -1.11290295e-33
000190 2a 73 b7 08 0d 0f b6 08 de 53 c0 08 b1 97 bc 08
       1.1040987e-33 1.0957265e-33 1.1575297e-33 1.1350501e-33
0001a0 58 34 c2 88 73 89 bb 08 8b f9 b7 08 0e 06 b1 88
       -1.1688256e-33 1.1286967e-33 1.1072579e-33 -1.0654223e-33
0001b0 46 1d b8 88 69 ac ba 08 1d 49 b3 08 c9 72 bc 88
       -1.1080979e-33 1.1235001e-33 1.07903595e-33 -1.1341824e-33
0001c0 50 73 ba 08 2f 48 c0 88 0c a3 b2 08 90 16 ba 88
       1.1221578e-33 -1.157255e-33 1.0751317e-33 -1.1199772e-33
0001d0 c0 b6 b1 88 7f d8 b1 88 84 9c bb 88 6b 9d c0 88
       -1.0695764e-33 -1.0703698e-33 -1.129145e-33 -1.1592588e-33
0001e0 be ac b1 08 d0 dc b0 88 11 f9 b0 88 c6 5e b6 88
       1.06934115e-33 -1.06445275e-33 -1.065117e-33 -1.0976008e-33
0001f0 13 f0 bf 88 4e a5 b4 88 f7 bf b4 88 f7 87 b7 08
       -1.15518355e-33 -1.0872219e-33 -1.0878487e-33 1.1045877e-33
000200 c4 91 bb 88 7c c6 bc 08 df 17 b8 88 8e a0 b7 08
       -1.1288922e-33 1.1361502e-33 -1.1079709e-33 1.1051658e-33
000210 c6 9a ba 08 ea 24 ba 08 3b 54 bc 88 d9 7a b5 08
       1.1230855e-33 1.1203146e-33 -1.1334641e-33 1.0922423e-33
000220 1e a5 b8 08 d9 bb b8 88 82 03 bd 88 d2 f5 c1 08
       1.1112916e-33 -1.111826e-33 -1.1375848e-33 1.1673557e-33
000230 ea c2 b9 08 42 00 bb 88 b1 c6 b9 88 71 69 b8 88
       1.1180107e-33 -1.1254714e-33 -1.1180995e-33 -1.1098886e-33
000240 9d 32 bb 88 72 64 b1 08 b3 35 b6 88 44 9a c1 08
       -1.1266552e-33 1.0676415e-33 -1.0966351e-33 1.1652033e-33
000250 49 9e b1 88 54 47 b1 08 56 37 b4 08 8d 58 b6 88
       -1.0690013e-33 1.0669569e-33 1.0846365e-33 -1.0974545e-33
000260 9b 29 c3 08 46 6c b5 88 98 13 b8 88 fc f2 c2 08
       1.1745917e-33 -1.0918996e-33 -1.1078704e-33 1.1733076e-33
000270 e3 43 b3 08 1a e1 b4 88 40 62 b3 08 4f 22 be 08
       1.0789131e-33 -1.0886277e-33 1.0796269e-33 1.1443275e-33
000280 d8 56 b2 08 07 f9 bb 88 09 4e b7 88 b5 f9 b9 88
       1.0733402e-33 -1.1313199e-33 -1.1032258e-33 -1.1192988e-33
000290 c9 5d c1 88 39 e5 be 08 e0 c9 b3 08 b6 f4 c2 88
       -1.1637814e-33 1.1489099e-33 1.0820631e-33 -1.1733482e-33
0002a0 c8 be b6 08 70 99 c2 08 ed bf b8 08 44 df b5 88
       1.0998579e-33 1.1712023e-33 1.1119219e-33 -1.0946031e-33
0002b0 4f e3 be 88 ae 36 b9 08 fd 1e b2 08 d3 6a bf 08
       -1.1488649e-33 1.1147138e-33 1.0720271e-33 1.1520509e-33
0002c0 6b 09 b3 08 24 f6 ba 88 fe 1f b5 88 52 1c b3 88
       1.0775385e-33 -1.1252335e-33 -1.0901063e-33 -1.0779829e-33
0002d0 7a 38 bf 08 ca 1d c2 88 47 aa b8 88 79 2e b4 08
       1.1508672e-33 -1.1682954e-33 -1.1114129e-33 1.0844282e-33
0002e0 23 61 c0 08 2a 19 b6 88 43 74 b4 08 5b bd bd 88
       1.1578416e-33 -1.0959643e-33 1.0860689e-33 -1.1419541e-33
0002f0 3f c5 b6 88 23 7b b9 08 b2 9a b8 88 6a fc b4 08
       -1.1000099e-33 1.1163232e-33 -1.1110466e-33 1.0892698e-33
000300 fe 7b b4 88 8e fe bb 08 28 2d b4 08 76 20 b2 08
       -1.0862506e-33 1.1314499e-33 1.0843972e-33 1.0720617e-33
000310 ae 67 b4 88 58 56 bf 08 e4 6e c1 88 5c 09 ba 88
       -1.0857731e-33 1.1515694e-33 -1.1641835e-33 -1.1196668e-33
000320 a8 da b1 88 c6 08 c3 08 de aa b9 08 45 78 b6 88
       -1.0704206e-33 1.1738198e-33 1.1174453e-33 -1.0982002e-33
000330 b6 63 b5 88 d5 f6 b7 08 ed 14 b6 08 6c de b3 08
       -1.0916983e-33 1.1071942e-33 1.0958646e-33 1.0825462e-33
000340 25 bb b2 08 51 da be 08 98 57 c1 08 fc 3f be 08
       1.0756983e-33 1.1486535e-33 1.1636358e-33 1.1450252e-33
000350 51 fc c2 08 7a a9 b2 08 7b f4 b0 88 11 95 ba 88
       1.173527e-33 1.0752829e-33 -1.0650092e-33 -1.1229513e-33
000360 ba 59 c2 88 cd 9a bd 88 1f 05 b6 08 b2 7d bd 08
       -1.1697045e-33 -1.1411417e-33 1.09549305e-33 1.1404575e-33
000370 b8 a7 bb 88 85 fd bb 88 06 57 b7 08 9d df ba 88
       -1.1294084e-33 -1.1314255e-33 1.1034371e-33 -1.1247039e-33
000380 82 c7 b3 88 63 93 c1 88 ee 07 b8 08 40 95 b4 08
       -1.0820075e-33 -1.1650415e-33 1.1075961e-33 1.0868444e-33
000390 28 44 b9 08 6a 6c b7 08 82 34 b4 08 35 94 c0 88
       1.1150306e-33 1.10394e-33 1.08457005e-33 -1.1590423e-33
0003a0 dc 3c b6 88 6b 00 b2 08 38 c4 b1 08 0e ae b8 08
       -1.09680345e-33 1.0713084e-33 1.0698931e-33 1.1115017e-33
0003b0 c6 9a c1 88 a3 05 b9 08 c2 2b c0 88 7e 91 b3 88
       -1.1652152e-33 1.1135608e-33 -1.1565867e-33 -1.0807376e-33
0003c0 ab 0f b9 08 06 9e b4 88 66 db c0 08 98 ab bb 08
       1.1137966e-33 -1.0870507e-33 1.160716e-33 1.1294995e-33
0003d0 2b 78 b7 88 76 85 ba 88 f9 9f c2 08 d0 e2 b5 08
       -1.1042163e-33 -1.1225844e-33 1.171356e-33 1.0946865e-33
0003e0 6c 73 b8 08 4c b8 b5 08 76 f5 b0 88 40 19 b5 08
       1.1101233e-33 1.0936869e-33 -1.0650322e-33 1.08994775e-33
0003f0 32 c6 bc 08 21 31 c0 88 e5 72 b3 08 d9 65 bc 88
       1.1361434e-33 -1.156713e-33 1.0800182e-33 -1.1338783e-33

lstm.bias_ih_l1 f4 [384]
000000 3e 6b 90 3e 59 61 02 3f 98 ef 05 3f 98 ef 84 3e
       0.2820682 0.5092979 0.52318716 0.25964046
000010 74 e4 04 3f ce f9 04 3f 0f 71 f7 3e 51 2f 05 3f
       0.5191109 0.5194367 0.48328444 0.52025324
000020 73 8c 13 3e 61 3f 9d 3e 5c 8e 85 3e 08 68 c7 3d
       0.14409046 0.30712417 0.26085174 0.09736639
000030 d8 e5 ff 3e 57 9d 02 3f 8d 38 05 3f 6d a7 05 3f
       0.49980044 0.5102133 0.52039415 0.52208596
000040 d2 4f 66 3d a5 0a b5 bd 3b 24 05 3f 85 91 d9 3d
       0.056228466 -0.08839921 0.5200841 0.10623459
000050 a0 51 70 3d 47 51 8d 3e b3 72 9b 3e 5b 92 3f 3e
       0.058671594 0.27601072 0.30360946 0.18708174
000060 c0 7d f3 3d 31 f1 04 3f 77 4e 05 3f 74 4f 05 3f
       0.11889219 0.5193053 0.5207285 0.5207436
000070 ae 7e 73 3e c7 25 d8 3d 0d c2 96 3e a0 9a 04 3e
       0.23778793 0.105540805 0.29444924 0.1294961
000080 43 50 34 3e 6b 4a f0 3e ca e7 5f 3e f2 db b2 3e
       0.17608742 0.46931776 0.21865764 0.3493343
000090 69 e8 04 3f 5a 4c 0a 3e 8d 85 99 3e d5 15 bf 3d
       0.5191713 0.13505688 0.29984704 0.09330336
0000a0 77 e8 2e 3e f5 1c 90 3e 64 e2 70 3e 74 91 4e 3e
       0.17080866 0.28147092 0.23523861 0.20172673
0000b0 43 e2 1e 3e 6f a3 fe 3d 28 33 03 3f c7 e1 0e 3e
       0.15516 0.12433516 0.51249933 0.13953315
0000c0 d7 9c 5f 3e af 65 02 3f cd fc 04 3f 36 ff 5e 3d
       0.21837173 0.50936407 0.51948243 0.054442607
0000d0 b9 9d d7 3e a6 d8 05 3f f9 f9 04 3f 16 29 20 3e
       0.4211252 0.52283704 0.5194393 0.15640673
0000e0 f7 06 8f 3e 42 64 0e 3e 9f f5 be 3e 99 8a fe 3d
       0.27935 0.13905433 0.3729677 0.12428779
0000f0 ad 10 b0 3d 6f 9f 3d 3d 98 3d 04 3f f0 1b 04 3f
       0.08596931 0.046294626 0.51656485 0.5160513
000100 c8 e9 a5 3e 8e 7d 85 3d 49 6e 03 3f 27 10 06 3f
       0.32404923 0.06518088 0.51340157 0.52368397
000110 1e fa f5 3e 59 05 f4 3d 3e 76 01 3f 5d 89 ff 3e
       0.48042387 0.119150825 0.5057105 0.49909487
000120 94 7e 05 3f e0 c6 03 3f dc 8e 04 3f 46 6b 05 3f
       0.5214627 0.51475334 0.51780486 0.5211681
000130 f2 f0 04 3f ac 8a 33 3e 1b a2 10 3e 7d c3 a7 3e
       0.51930153 0.17533368 0.14124338 0.32766333
000140 e8 6e 3c 3e bd 94 41 3d 47 bb f8 3b d2 61 ec 3e
       0.18401682 0.04726099 0.0075906846 0.4616838
000150 6a f0 41 3e 36 23 06 3f 33 9c 5e 3e 0a 18 98 3e
       0.18939367 0.5239748 0.21739273 0.2970584
000160 c4 32 a8 3e cd b9 03 3f 85 3d 0f 3f 7a ae 78 3d
       0.3285123 0.51455384 0.55953246 0.06071327
000170 63 93 93 3d 6e a3 05 3f d1 41 80 bc e7 31 bd 3e
       0.07205846 0.522025 -0.015656384 0.36952135
000180 00 00 00 00 00 00 00 00 00 00 00 00 00 00 00 00
       0.0 0.0 0.0 0.0
000190 00 00 00 00 00 00 00 00 00 00 00 00 00 00 00 00
       0.0 0.0 0.0 0.0
0001a0 00 00 00 00 00 00 00 00 00 00 00 00 00 00 00 00
       0.0 0.0 0.0 0.0
0001b0 00 00 00 00 00 00 00 00 00 00 00 00 00 00 00 00
       0.0 0.0 0.0 0.0
0001c0 00 00 00 00 00 00 00 00 00 00 00 00 00 00 00 00
       0.0 0.0 0.0 0.0
0001d0 00 00 00 00 00 00 00 00 00 00 00 00 00 00 00 00
       0.0 0.0 0.0 0.0
0001e0 00 00 00 00 00 00 00 00 00 00 00 00 00 00 00 00
       0.0 0.0 0.0 0.0
0001f0 00 00 00 00 00 00 00 00 00 00 00 00 00 00 00 00
       0.0 0.0 0.0 0.0
000200 00 00 00 00 00 00 00 00 00 00 00 00 00 00 00 00
       0.0 0.0 0.0 0.0
000210 00 00 00 00 00 00 00 00 00 00 00 00 00 00 00 00
       0.0 0.0 0.0 0.0
000220 00 00 00 00 00 00 00 00 00 00 00 00 00 00 00 00
       0.0 0.0 0.0 0.0
000230 00 00 00 00 00 00 00 00 00 00 00 00 00 00 00 00
       0.0 0.0 0.0 0.0
000240 00 00 00 00 00 00 00 00 00 00 00 00 00 00 00 00
       0.0 0.0 0.0 0.0
000250 00 00 00 00 00 00 00 00 00 00 00 00 00 00 00 00
       0.0 0.0 0.0 0.0
000260 00 00 00 00 00 00 00 00 00 00 00 00 00 00 00 00
       0.0 0.0 0.0 0.0
000270 00 00 00 00 00 00 00 00 00 00 00 00 00 00 00 00
       0.0 0.0 0.0 0.0
000280 00 00 00 00 00 00 00 00 00 00 00 00 00 00 00 00
       0.0 0.0 0.0 0.0
000290 00 00 00 00 00 00 00 00 00 00 00 00 00 00 00 00
       0.0 0.0 0.0 0.0
0002a0 00 00 00 00 00 00 00 00 00 00 00 00 00 00 00 00
       0.0 0.0 0.0 0.0
0002b0 00 00 00 00 00 00 00 00 00 00 00 00 00 00 00 00
       0.0 0.0 0.0 0.0
0002c0 00 00 00 00 00 00 00 00 00 00 00 00 00 00 00 00
       0.0 0.0 0.0 0.0
0002d0 00 00 00 00 00 00 00 00 00 00 00 00 00 00 00 00
       0.0 0.0 0.0 0.0
0002e0 00 00 00 00 00 00 00 00 00 00 00 00 00 00 00 00
       0.0 0.0 0.0 0.0
0002f0 00 00 00 00 00 00 00 00 00 00 00 00 00 00 00 00
       0.0 0.0 0.0 0.0
000300 eb 04 36 be 07 86 f7 3e 4e ca 01 3f dd e4 89 3d
       -0.17775314 0.48344442 0.5069932 0.06733105
000310 66 70 02 3f 43 fb 02 3f e1 21 01 3f 8d 04 f9 3e
       0.50952756 0.51164645 0.5044232 0.48636284
000320 31 e8 79 bd 30 32 90 bd 49 eb 10 be 2f 6b 3b be
       -0.06101245 -0.070408225 -0.14152254 -0.18302606
000330 9f 1c f7 3e fd 3a fa 3e ae a1 00 3f 50 62 03 3f
       0.48264024 0.4887313 0.50246704 0.5132189
000340 d3 61 cf bd 70 1f 5c bd b6 bc 01 3f 26 f7 17 be
       -0.1012608 -0.05374092 0.50678575 -0.14840373
000350 da 21 f6 bd a2 f3 b5 bd e6 1f 42 be 14 f2 6f 3e
       -0.120181754 -0.0888436 -0.18957481 0.23432189
000360 53 a6 6d bd 33 c3 02 3f 77 a3 00 3f 66 4d 01 3f
       -0.058019947 0.510791 0.5024943 0.50508726
000370 91 99 10 be 95 a9 c8 be 03 ff 92 3d 4f d3 84 bd
       -0.14121081 -0.3919188 0.07177546 -0.064856164
000380 49 a4 e8 bb fa d2 17 be 77 96 a8 bd 7d ca f8 3e
       -0.0070996624 -0.14826575 -0.08231824 0.48591986
000390 9b 06 02 3f cf 67 e2 bd c8 dc 2c be 3e 02 25 bc
       0.5079133 -0.11054956 -0.16881096 -0.010071335
0003a0 20 6b c0 bd c3 f0 31 3e 6f 86 ae 3e a6 0d 57 be
       -0.093954325 0.17377 0.3408694 -0.210013
0003b0 a5 00 70 3c 3c 3e 25 be 2e c7 f6 3e 7b 0b ec bd
       0.014648591 -0.16137022 0.48198837 -0.11525627
0003c0 30 38 dc bd ef d3 f6 3e c7 f1 00 3f 55 9e ee bc
       -0.107529044 0.48208568 0.5036892 -0.029128233
0003d0 e8 40 e1 3e 1a 79 01 3f 9a 25 fc 3e d5 10 01 be
       0.43994832 0.5057541 0.49247438 -0.12604077
0003e0 79 5f 31 3d 4c 8f 05 be 40 a4 da 3e 74 a1 ef 3a
       0.04330394 -0.13042945 0.42703438 0.001828237
0003f0 a6 bf 0d be 1b 84 98 bd 1b 9f fa 3e 66 3b f9 3e
       -0.1384264 -0.07447072 0.48949513 0.4867813
